DNN_models/DNN_model244.ckpt (torch_old, 491676 bytes, 12 tensors)

layers.0.weight f4 [50, 2352]
00000000: 2060 1b27 0514 8727 94e1 5326 2afd ad26
00000010: 7d86 bd27 e489 1027 32d5 16a7 538a 0e28
00000020: 1928 34a7 96cc c127 648a 02a7 bc6d 2db8
00000030: f9c3 9ca7 f21f 5738 0662 4aa7 2c49 2027
00000040: d271 6f27 70a9 a7a6 0d78 33a7 090c 57a8
00000050: bc44 9326 0005 68a5 989a 0527 f5b4 71a7
00000060: f9f9 d826 eb45 8128 95a0 9627 81c0 f726
00000070: 1c75 5d27 fa72 a727 c0fb 5f27 a0b3 f3b8
00000080: 01be 83a8 481e 05a6 5727 f7a6 c0b2 05a4
00000090: 92b1 5e28 58bf c927 79d8 2228 c81d 67a6
000000a0: ea3f f226 5088 ed26 78ad 7326 9e0f e0a7
000000b0: d6bb ce26 3477 9126 eefe 54a7 f56b c326
000000c0: 6d7a 8ca6 c299 cfa7 a25d be36 d3d6 5027
000000d0: e0c9 aea5 c8ce 9a27 0c4e 82a7 492f 54a7
000000e0: 74eb ecb5 ac93 86a7 0812 02a8 641a aba7
000000f0: 3545 63a8 bd62 52a7 ec8c c727 e096 8ea7
00000100: 6cbb 8736 5f0d dd27 027c 13a8 ea73 8826
00000110: f0ad 4c26 20ad bba7 7085 df27 409b 20a6
00000120: 4295 4ca8 38ea e4a7 beea 1c27 c022 7f26
00000130: e785 1c27 5af1 dc27 66fb 9f27 d240 d235
00000140: 0092 71a6 ba04 04a8 f6c9 9726 758d 38a8
00000150: 3481 a0a7 6f5f 0d27 7e6f f826 d553 a5a7
00000160: f2ec eda7 4c33 0327 4a66 94a7 f75d a3a7
00000170: 70e1 47a6 6260 6628 5fa6 c5a7 d443 eb26
00000180: b05d 40a7 1a01 25a7 fecb 06a6 b0a9 f4a7
00000190: aced 9b27 d205 78b2 cd98 14a8 564f 1ca7
000001a0: d742 f9a6 ae10 52a7 94a9 e526 60b8 6126
000001b0: b660 d4a6 1479 dca6 c042 3da7 4074 ce27
000001c0: c2ed b5a7 7f45 97a7 3fce f227 fa57 9227
000001d0: 4018 25a7 7023 cf25 b8b4 68a6 868f ff27
000001e0: 8f5b 83a7 c3a7 f426 8372 aca7 501c 0627
000001f0: ca7d 8934 c37c 8d27 e8b9 08a7 eafb 1a28
00000200: 2c92 8aa7 6cdd d326 a450 3ba7 4127 5527
00000210: 75d8 95a7 60ab 1526 a591 eaa7 f815 3428
00000220: fa33 dba6 2cca 1227 2274 e4a6 d7e7 c927
00000230: ea7f eca6 d296 49a8 ba74 fd27 5863 3ba6
00000240: 0aff 75a7 f0ad eea5 fcda ad27 91e8 0528
00000250: d9d1 0b27 0878 2628 9d94 01a7 2876 cfa6
00000260: 2029 7ba5 43a1 2728 b63a fc27 ef9e c5a7
00000270: 86ee 8327 e6ef 7227 cb89 6827 c459 2c27
00000280: 47c6 c6a7 341c af26 be9d 79a7 844d 9aa6
00000290: 4616 aba7 30dd f2a6 e61b 7da8 b75c 5928
000002a0: 9edd 10a7 ecba c632 95dd f927 86f0 a2a7
000002b0: e461 fea7 a422 4b26 081b 6b26 acd4 24a6
000002c0: 07e5 a027 757a 5da8 98a6 f0a6 785a f826
000002d0: 7407 8527 5bf4 85a7 4e62 7c27 5800 11a8
000002e0: c4db 9e26 1ec9 e327 fa29 08a7 008a c6a5
000002f0: 8566 b2a7 d8a4 f626 6f7b 9027 464a 0e27
00000300: 8229 a927 be4d ffa7 a75e 13a7 62df a3a6
00000310: 25a2 4aa7 e8ce 0028 f4c5 ab26 4264 2c28
00000320: 3a67 d026 a236 e427 20cb c2a5 ccfb 4528
00000330: 08f0 f6a7 083e 90a5 2536 1a27 14c2 13a8
00000340: 009e e927 2f17 1a27 a035 cca6 2091 02a8
00000350: e016 91a5 6a43 e0a7 e2b4 5628 2067 62a5
00000360: 9afa 12a8 4963 c827 ca8b 18a8 50ea 5826
00000370: 807a 6ca6 d64d 2d27 aa65 18a7 ee8d 80a7
00000380: df7f b1a7 d4bb 5f26 da02 83a7 a24c e926
00000390: 547e bf26 e564 0c27 da4d 1827 a2a9 72a7
000003a0: 2a2e 3ba7 8be1 a6a6 a049 86a6 402d 59a6
000003b0: ece8 1328 bcce eb27 502a 6c26 1dbd 05a8
000003c0: 695d 30a8 c301 3927 fa11 2028 4329 b127
000003d0: dc3c 2b27 258f b327 7138 3a28 2282 6aa7
000003e0: 1b53 e227 d834 bea7 605a 10a8 6616 16a7
000003f0: 7376 3128 4fed 0e27 4103 9727 9fe8 e626
2.156268e-15 3.7491732e-15 7.3511046e-16 1.2072907e-15 5.260385e-15 2.0058765e-15 -2.0932255e-15 7.912578e-15
-2.5001755e-15 5.3790073e-15 -1.8116146e-15 -4.1348612e-05 -4.351117e-15 5.1289746e-05 -2.808627e-15 2.2244127e-15
3.3229615e-15 -1.1633879e-15 -2.490632e-15 -1.1937507e-14 1.0218805e-15 -2.0124486e-16 1.8541263e-15 -3.3543566e-15
1.5055766e-15 1.4352199e-14 4.1807467e-15 1.7191246e-15 3.0733396e-15 4.647647e-15 3.108394e-15 -0.00011620601
-1.4626323e-14 -4.6184683e-16 -1.7149731e-15 -2.8991185e-17 1.236198e-14 5.5996162e-15 9.0397465e-15 -8.0184586e-16
1.6809447e-15 1.6482126e-15 8.4542655e-16 -6.218942e-15 1.4345034e-15 1.0093706e-15 -2.9559108e-15 1.3560105e-15
-9.747635e-16 -5.7620746e-15 5.6733415e-06 2.8982255e-15 -3.0320984e-16 4.296778e-15 -3.6166867e-15 -2.9446543e-15
-1.7651896e-06 -3.7352577e-15 -7.2203596e-15 -4.7490647e-15 -1.2616038e-14 -2.919688e-15 5.5386383e-15 -3.9576496e-15
4.0451323e-06 6.135432e-15 -8.187029e-15 9.468314e-16 7.1012447e-16 -5.209063e-15 6.2039607e-15 -5.5721554e-16
-1.135664e-14 -6.3536653e-15 2.1776603e-15 8.851799e-16 2.1721938e-15 6.132394e-15 4.440393e-15 1.5665084e-06
-8.381154e-16 -7.328497e-15 1.0532471e-15 -1.02447254e-14 -4.4549003e-15 1.9619415e-15 1.7238677e-15 -4.588759e-15
-6.603761e-15 1.820771e-15 -4.1189154e-15 -4.5343465e-15 -6.934752e-16 1.27884645e-14 -5.4858864e-15 1.6324786e-15
-2.669614e-15 -2.2898947e-15 -4.676705e-16 -6.790758e-15 4.3278827e-15 -1.4436823e-08 -8.248784e-15 -2.1692357e-15
-1.7295963e-15 -2.9152396e-15 1.5936031e-15 7.831243e-16 -1.4736669e-15 -1.5298385e-15 -2.6265204e-15 5.7302524e-15
-5.049537e-15 -4.1986267e-15 6.7392105e-15 4.0618525e-15 -2.2911496e-15 3.593279e-16 -8.073609e-16 7.0932326e-15
-3.645907e-15 1.6976373e-15 -4.7863744e-15 1.8611584e-15 2.5609762e-07 3.927063e-15 -1.8974571e-15 8.6033424e-15
-3.8461174e-15 1.4701083e-15 -2.5995179e-15 2.9580968e-15 -4.159049e-15 5.1927016e-16 -6.5105955e-15 9.996771e-15
-1.5210266e-15 2.0371168e-15 -1.5852156e-15 5.604007e-15 -1.6410461e-15 -1.1190445e-14 7.034816e-15 -6.5013294e-16
-3.4138837e-15 -4.1404283e-16 4.825457e-15 7.433413e-15 1.9403884e-15 9.240879e-15 -1.798291e-15 -1.4395537e-15
-2.1784713e-16 9.30533e-15 7.0007705e-15 -5.48508e-15 3.661841e-15 3.3714296e-15 3.2271165e-15 2.3918457e-15
-5.5171012e-15 1.2150709e-15 -3.4641204e-15 -1.0706907e-15 -4.7486183e-15 -1.6852076e-15 -1.4050371e-14 1.2066024e-14
-2.0104153e-15 2.3135236e-08 6.9351623e-15 -4.522481e-15 -7.0605295e-15 7.047672e-16 8.156864e-16 -5.7187154e-16
4.4657233e-15 -1.2294518e-14 -1.6698501e-15 1.7232978e-15 3.6922996e-15 -3.7179846e-15 3.5025316e-15 -8.0491915e-15
1.102302e-15 6.322321e-15 -1.8896547e-15 -3.4441037e-16 -4.9516076e-15 1.711436e-15 4.0101856e-15 1.9746722e-15
4.6951926e-15 -7.0861006e-15 -2.045166e-15 -1.1370945e-15 -2.812103e-15 7.150293e-15 1.1919164e-15 9.569658e-15
1.4460879e-15 6.3341945e-15 -3.3791278e-16 1.09902965e-14 -6.853896e-15 -2.5022052e-16 2.1401145e-15 -8.202223e-15
6.4841795e-15 2.1384361e-15 -1.4169879e-15 -7.247919e-15 -2.516899e-16 -6.224558e-15 1.1918609e-14 -1.9637315e-16
-8.158969e-15 5.5618796e-15 -8.468007e-15 7.5257607e-16 -8.2044967e-16 2.4050768e-15 -2.114935e-15 -3.5681017e-15
-4.9266007e-15 7.762322e-16 -3.6362896e-15 1.6188394e-15 1.3287529e-15 1.9483598e-15 2.113644e-15 -3.3676205e-15
-2.5976489e-15 -1.1579697e-15 -9.318074e-16 -7.5348324e-16 8.210646e-15 6.5449745e-15 8.193629e-16 -7.4239905e-15
-9.790218e-15 2.5674862e-15 8.885682e-15 4.9172105e-15 2.376401e-15 4.983768e-15 1.0337313e-14 -3.2544569e-15
6.2817704e-15 -5.2792887e-15 -8.013203e-15 -2.0828824e-15 9.851158e-15 1.9835104e-15 4.1914447e-15 1.6022508e-15

layers.0.bias f4 [50]
00000000: 0d76 b136 50b7 7236 a0a1 2034 60a1 1434
00000010: 581d 12b6 29a9 2236 6fb1 2336 c457 dc35
00000020: 2155 95b6 1600 4036 f68f 03b7 9840 93b4
00000030: c4c5 1d36 a6ea acb6 e8b3 97b6 8a9a 76b6
00000040: 0821 56b5 2e14 87b6 205a 3f36 b431 04b6
00000050: 2838 6637 8cac 2236 124b f6b5 921f 97b7
00000060: dc66 1d36 2b5e 21b7 381d deb6 7c1c e3b6
00000070: 13e4 81b6 0c23 4636 8cc7 dc35 f62c 8636
00000080: de80 bfb6 54e1 08b7 8075 2ab4 f28f 15b6
00000090: 3315 0636 b0bc 0936 c42e 1836 ac8a 15b7
000000a0: bc58 9436 3476 e0b5 6022 e1b6 1eef 7536
000000b0: 040d aa36 b889 c4b5 e936 9db6 c4fc 8db4
000000c0: 9a54 6436 6a28 1bb6
5.288754e-06 3.6167512e-06 1.495996e-07 1.3842282e-07 -2.1772776e-06 2.4238345e-06 2.4392173e-06 1.641682e-06
-4.4504563e-06 2.861028e-06 -7.841727e-06 -2.7427882e-07 2.3509938e-06 -5.153316e-06 -4.5210945e-06 -3.674681e-06
-7.976928e-07 -4.0256627e-06 2.8513678e-06 -1.9698464e-06 1.3722143e-05 2.4240317e-06 -1.8350277e-06 -1.8015304e-05
2.3454695e-06 -9.618273e-06 -6.619517e-06 -6.768443e-06 -3.871051e-06 2.95247e-06 1.6449353e-06 3.9987453e-06
-5.7072457e-06 -8.158695e-06 -1.587523e-07 -2.2286517e-06 1.9979896e-06 2.0524421e-06 2.2676986e-06 -8.913379e-06
4.4210738e-06 -1.6723702e-06 -6.7095243e-06 3.664703e-06 5.06791e-06 -1.4643219e-06 -4.685357e-06 -2.6447208e-07
3.4023892e-06 -2.3120324e-06

layers.2.weight f4 [40, 50]
00000000: a2f0 ea27 feab a727 ab4c cea7 ba0a 1fa7
00000010: d051 c227 77f5 1fa7 3fb1 0128 5839 a1a7
00000020: aa3b a1a7 40dc b8a7 a64b c627 e039 f3a7
00000030: 3e8d 59a7 41b2 8a27 d4dd 75a6 d0e3 9aa5
00000040: e0bd 7ea5 c6bd c7a7 9ee2 7d28 008e f4a3
00000050: 405d 8d25 a00a 26a7 1eb0 5ca7 51a5 9826
00000060: 8b2f afa7 c352 3ea7 e495 c137 2816 a7a6
00000070: 8a3a 8d27 9edd 1927 7fb8 1ba7 9219 5327
00000080: 9002 8da7 a3a2 be27 aed4 36a7 006d a227
00000090: 3c98 09a8 8a52 4427 1fb3 44a8 387b c327
000000a0: 1092 21a5 f1b4 43a8 9e30 3727 391c 7b27
000000b0: a1da eba7 747c d2a7 e636 f427 18c4 4426
000000c0: 6023 d0a5 444c b4a8 36a1 32a7 2067 2d24
000000d0: 28be 0c26 8089 9832 ee06 0a28 5408 84a6
000000e0: 9c78 74a6 e857 9da7 2efa 75a8 4618 ea27
000000f0: 4dc0 e627 97c6 cca7 6609 ea27 65d7 a427
00000100: 1bf2 2828 30d4 0ca7 1af9 9ba7 988e e826
00000110: 0426 07a7 8437 a326 27da 3fb4 e619 ab27
00000120: d487 1f27 846b 69a6 9561 b527 2a1f 5a28
00000130: bc9c 3527 b0e8 92a6 90fd a4a6 331b ea27
00000140: f8aa c0a7 4acc 1ca8 d661 2ea7 2675 02a7
00000150: 2223 9328 fd29 8326 7c57 0427 1833 efa5
00000160: 50cf c126 806e f924 aeeb fa27 cbd4 f726
00000170: 0556 5e28 62df 15a7 24fc 4aa8 1ffa 72a8
00000180: 68f8 a5a6 eced 6826 ce5b 2027 2613 bea7
00000190: 98c4 9e25 9787 0027 a638 62a6 9223 db27
000001a0: c655 2527 986f 7c27 9c55 cda6 0ec8 26a8
000001b0: d4e5 d426 3168 e7a7 3e92 aa27 ecb8 1da7
000001c0: 6f88 9fa7 7041 fda7 2229 82a7 efa5 c7a7
000001d0: a73c aaa7 c6a9 33a7 66b5 0127 50b9 cdb4
000001e0: 149c 0028 ccdf 7a27 15f6 fa27 ca85 5ca7
000001f0: 0046 b525 6018 a727 64c0 1227 2868 da26
00000200: a1c8 2ca7 a82f f5a6 d618 62a7 8099 1ca7
00000210: 2891 29a6 0439 1728 bde6 1728 b212 2527
00000220: b4c3 8926 7122 d827 e6b1 e226 1450 6227
00000230: 00a7 1b24 b1b0 8c27 403d 67a5 0ede 2f27
00000240: 9b97 42a8 103f dda6 fee5 e4a7 8458 a126
00000250: b87a 60a7 04bf 39a7 9397 3ca8 deda 8626
00000260: 0412 4aa6 db0d a5a7 b33f bc27 d212 4fa7
00000270: 6038 85a6 1921 0da8 b7ae 1528 0a53 0fa8
00000280: 87ab 48a7 406e 5da6 ac25 5627 2abb 6627
00000290: fceb b127 5ef0 99a7 c9b8 5427 ba3d ffa7
000002a0: 5a91 95a7 40ef e9a6 c14c 1fa8 8fe8 d9a7
000002b0: 968d b327 204d 09a8 e012 c0a7 5806 3ea8
000002c0: 9a92 5927 0022 8ba4 dc5d 9927 9ccc 0fa7
000002d0: 5853 87a7 f494 a9b6 c23a 09b0 2aad 0127
000002e0: 60f5 f4a5 1072 f626 b22e 5ca7 c2e5 4927
000002f0: 13cc 2727 0e45 29a8 11cf de37 f446 3735
00000300: f5d8 a227 589e a726 a6b8 9ba7 9a23 9427
00000310: 6133 3ba7 8010 5328 e859 4f27 ceb9 beb2
00000320: 8811 9e26 8858 4227 2083 0e27 0814 0e27
00000330: 7025 3728 dae1 d1a6 e713 1e28 d7f3 83a7
00000340: dcf2 b426 3c65 a6a7 773f 0ca8 50ce 4126
00000350: 8094 dda6 b88e 04a7 6032 2325 6cff b3a6
00000360: 3e2e 34a7 e02c f4b7 1d3f a327 baf9 9627
00000370: 601c 11a5 c051 4125 e4f8 96a8 f643 2f27
00000380: da5b 00a8 d05e c6a6 76a5 ce27 318d 2b27
00000390: c11a c1a7 08c1 d228 d49a 8b26 403e dba7
000003a0: 9a5f 12a6 f275 0927 8098 b124 27a5 7ea7
000003b0: e2a5 3fa7 57b5 32a7 a840 1da6 002f 2ca7
000003c0: 3f7e 5728 be67 c5a7 330a 52a7 f4eb 83a6
000003d0: cefa 2e27 e68a 4128 7476 0127 06a7 01a7
000003e0: 5a56 0aa7 b0dd 5327 70bf 58a8 6260 81a6
000003f0: d58d 9ba7 46f7 e5a6 18d2 7fa6 dcc7 9e26
6.520894e-15 4.6538286e-15 -5.725961e-15 -2.2071497e-15 5.393452e-15 -2.219875e-15 7.199373e-15 -4.474865e-15
-4.4751165e-15 -5.1309055e-15 5.503806e-15 -6.7508797e-15 -3.0191367e-15 3.8495958e-15 -8.5302083e-16 -2.6869113e-16
-2.209532e-16 -5.543935e-15 1.4093461e-14 -2.6514672e-17 2.452279e-16 -2.3042888e-15 -3.0626606e-15 1.0591928e-15
-4.8623804e-15 -2.6412662e-15 2.3077191e-05 -1.1593958e-15 3.919883e-15 2.1353154e-15 -2.1610587e-15 2.9295994e-15
-3.913814e-15 5.2911925e-15 -2.5372868e-15 4.508221e-15 -7.638038e-15 2.7245209e-15 -1.0919026e-14 5.4256966e-15
-1.4014012e-16 -1.086391e-14 2.5422707e-15 3.4848547e-15 -6.546264e-15 -5.842164e-15 6.7783126e-15 6.8266917e-16
-3.610622e-16 -2.001709e-14 -2.4789855e-15 3.7600745e-17 4.8829967e-16 1.7757657e-08 7.6620415e-15 -9.161597e-16
-8.481796e-16 -4.367156e-15 -1.3654481e-14 6.4974364e-15 6.4046317e-15 -5.6836686e-15 6.4958237e-15 4.5752675e-15
9.378372e-15 -1.954393e-15 -4.329122e-15 1.6136884e-15 -1.8755622e-15 1.1325445e-15 -1.7867625e-07 4.7490113e-15
2.2139315e-15 -8.0983825e-16 5.034339e-15 1.2108189e-14 2.5203762e-15 -1.0193855e-15 -1.1448514e-15 6.4977536e-15
-5.347607e-15 -8.704038e-15 -2.4200388e-15 -1.810463e-15 1.6335515e-14 9.101332e-16 1.8366105e-15 -4.1494514e-16
1.3448257e-15 1.0817373e-16 6.9644463e-15 1.7196746e-15 1.2342128e-14 -2.0799e-15 -1.1267927e-14 -1.3487935e-14
-1.1516506e-15 8.0813614e-16 2.2254228e-15 -5.2756354e-15 2.7541848e-16 1.7837072e-15 -7.8486274e-16 6.0823276e-15
2.2944848e-15 3.503252e-15 -1.4247937e-15 -9.258231e-15 1.477275e-15 -6.4228344e-15 4.7343035e-15 -2.1888373e-15
-4.4279287e-15 -7.0292554e-15 -3.6126845e-15 -5.54135e-15 -4.725024e-15 -2.4933275e-15 1.8000683e-15 -3.8319058e-07
7.139271e-15 3.481579e-15 6.965574e-15 -3.060366e-15 3.144593e-16 4.637824e-15 2.0365865e-15 1.515502e-15
-2.3978556e-15 -1.7013207e-15 -3.1377264e-15 -2.1732561e-15 -5.8830377e-16 8.394547e-15 8.432217e-15 2.2908485e-15
9.55933e-16 5.9989385e-15 1.573012e-15 3.140721e-15 3.3751722e-17 3.9049375e-15 -2.0056808e-16 2.4406505e-15
-1.08020375e-14 -1.5352049e-15 -6.353207e-15 1.1195611e-15 -3.115277e-15 -2.5777457e-15 -1.0468964e-14 9.357442e-16
-7.0107244e-16 -4.581172e-15 5.2249545e-15 -2.8737223e-15 -9.244009e-16 -7.834249e-15 8.309047e-15 -7.956101e-15
-2.784856e-15 -7.6824194e-16 2.9718888e-15 3.2020374e-15 4.9383224e-15 -4.2726637e-15 2.9521082e-15 -7.084364e-15
-4.15134e-15 -1.6232472e-15 -8.842916e-15 -6.048174e-15 4.983599e-15 -7.6217515e-15 -5.331117e-15 -1.0548494e-14
3.0194272e-15 -6.033924e-17 4.2567793e-15 -1.9956156e-15 -3.756039e-15 -5.053933e-06 -4.992381e-10 1.7996219e-15
-4.2493525e-16 1.7100596e-15 -3.0556447e-15 2.8018905e-15 2.3286534e-15 -9.396358e-15 2.6560885e-05 6.8276063e-07
4.5199258e-15 1.1630872e-15 -4.322134e-15 4.111685e-15 -2.5979316e-15 1.1716431e-14 2.877576e-15 -2.2203405e-08
1.0968204e-15 2.6970901e-15 1.9777542e-15 1.9717318e-15 1.0166659e-14 -1.4563505e-15 8.7750775e-15 -3.6624176e-15
1.2555836e-15 -4.6184014e-15 -7.785323e-15 6.723993e-16 -1.5375207e-15 -1.8396048e-15 1.4155064e-16 -1.2489852e-15
-2.5005086e-15 -2.9107963e-05 4.5310016e-15 4.1904118e-15 -1.2586359e-16 1.676778e-16 -1.6761284e-14 2.432297e-15
-7.1253445e-15 -1.3764709e-15 5.735588e-15 2.3807557e-15 -5.3597268e-15 2.3398397e-14 9.687029e-16 -6.0852202e-15
-5.078349e-16 1.9076508e-15 7.701986e-17 -3.533911e-15 -2.65965e-15 -2.4800767e-15 -5.4557943e-16 -2.3895274e-15
1.1962273e-14 -5.479096e-15 -2.9148883e-15 -9.153906e-16 2.4283312e-15 1.0743771e-14 1.796656e-15 -1.799289e-15
-1.9198158e-15 2.940231e-15 -1.203192e-14 -8.977298e-16 -4.3174917e-15 -1.5957091e-15 -8.875563e-16 1.1017624e-15

layers.2.bias f4 [40]
00000000: 0927 27b5 db10 6db4 8269 4cb4 ab1a 1934
00000010: b853 48b5 3151 a934 3c51 08b3 70da bbb2
00000020: 8701 7bb4 a807 04b4 6a95 16b4 62f8 34b4
00000030: 2a00 bd34 28db 95b4 7b9c e534 3eeb 14b4
00000040: d551 4eb4 9fa3 15b4 1cbf 54b4 de01 bc33
00000050: e493 29b4 bdd6 a9b4 c4cc 4fb4 a0d6 e2b1
00000060: 0462 f2b4 76c7 8e34 6ee6 62b4 15a0 72b4
00000070: 8e85 2cb4 9fcc 6db5 fa85 00b4 0a0f 0434
00000080: c0dc 0c34 597d 9134 fbac d0b4 e485 4c34
00000090: f429 6c34 b0d6 f2b2 b403 c234 6c99 e4b3
-6.226915e-07 -2.2078477e-07 -1.9037364e-07 1.4258937e-07 -7.462763e-07 3.1537778e-07 -3.173885e-08 -2.1868999e-08
-2.3376752e-07 -1.2296243e-07 -1.4024195e-07 -1.6854167e-07 3.5204113e-07 -2.791287e-07 4.2768428e-07 -1.3869155e-07
-1.9215015e-07 -1.3936231e-07 -1.9813564e-07 8.754772e-08 -1.5793154e-07 -3.1634946e-07 -1.935287e-07 -6.6018657e-09
-4.5147328e-07 2.6594688e-07 -2.113172e-07 -2.2596244e-07 -1.6067335e-07 -8.8587143e-07 -1.196967e-07 1.2298929e-07
1.3118824e-07 2.7099557e-07 -3.886888e-07 1.904769e-07 2.1994475e-07 -2.8270136e-08 3.613801e-07 -1.06449846e-07

layers.4.weight f4 [30, 40]
00000000: 6c6c 6d38 e25d 9727 1c73 c526 c0a0 10a7
00000010: dede 5727 8fbc 0227 a73d 4da8 5a43 4627
00000020: ebac c927 888f f227 9e68 f7a6 837b 9827
00000030: b273 c927 3a39 6928 801f f424 f2d5 41a7
00000040: be9d f7b3 10fd 9427 39c2 34a8 6ef5 6a27
00000050: ba57 8227 005a 90a7 40c5 23a7 901e c626
00000060: e484 f926 83d4 83a7 1e1a 06a6 4e9d 9aa6
00000070: a1a5 d5a7 2a79 96a6 0060 f724 f09e 7026
00000080: 994b 41a8 5aa6 17a7 eae9 1fa8 cc06 16a7
00000090: 4c5e 5ba7 9a40 8827 d8c1 30a7 504e 85a6
000000a0: 788b ad26 a705 7b27 5484 87a7 4688 d6a7
000000b0: 30b4 6226 cca4 c7a7 9e0c 8d27 8834 03a6
000000c0: d477 b5a7 c7fa d727 0019 19a7 6053 8ba5
000000d0: a094 0ca8 1a50 02a8 4092 d9a7 58a9 94a7
000000e0: ca16 d5a6 030a 0ca8 3d40 2927 051b 0ba8
000000f0: 2a7b f527 08de 0d26 2acf b327 f199 0628
00000100: a0fc 1026 c6d9 6627 84ba 6927 4e2e 03a7
00000110: 64b4 54a7 c253 4f27 487f 3327 0d16 23a8
00000120: ea12 55a7 7a72 fea6 325a 1828 ac99 3926
00000130: 0a81 ab27 362e a2a7 1080 9ea7 d4ca 2fa7
00000140: 0f99 3828 5db8 e827 f8fc e125 0ad5 c527
00000150: 0d63 5527 c2cb aca6 fa1d 4c27 0531 3e34
00000160: 2869 31a6 5a23 67a7 26a9 e927 0c26 9634
00000170: 04a7 9ba5 aa28 11a7 c02a a6a7 8098 77a6
00000180: 523e d0a7 8866 0827 bfdc 1228 122c 18a7
00000190: ba1b b5a6 d2ce 3428 168b 11b7 0ca3 09b4
000001a0: b76a 04a7 70d0 6f28 7009 60a8 72fa 3da7
000001b0: 3c59 1b28 5e9d 9127 df77 47a7 7ccf 1628
000001c0: 9a46 c5a6 d99f aba7 238a 1aa8 d3e5 aca7
000001d0: a67e fda6 0a62 9f27 60eb 82a8 801c 2ba6
000001e0: f855 da26 9273 7ba7 7469 11a8 d874 5d26
000001f0: 60c5 6c25 b0a6 6426 88a2 d4a6 a7ad 83a7
00000200: d202 26a7 10d5 55a7 2b42 1ca8 aec0 2ca7
00000210: 688a d5a6 2097 9ca6 bc1c 9227 dc7a 7427
00000220: f3f5 9aa7 c959 6a27 e839 a125 8e35 b426
00000230: 7452 8aa7 58c0 d626 46ab 6da7 f44f dea7
00000240: d44f 4827 04a9 7728 0c20 ba26 1063 cb26
00000250: f280 2527 5e64 35a8 fe29 26a8 ec67 f026
00000260: 7828 8227 5a0a 9ea7 d4e7 c026 d325 ca27
00000270: 4270 ff26 ad19 e1a6 321e 02a7 dce4 dda7
00000280: 4652 89a7 d4eb 4727 1ce8 00a8 bd4c 9627
00000290: 429e b427 e26f 0a27 dcef 8e27 2961 3d27
000002a0: c602 8932 a715 6e27 5558 8c27 675f bda7
000002b0: 18dc 1727 6d12 3527 75c4 95a7 ad72 a227
000002c0: 8cf5 14b3 a611 c527 549d 2b27 3c68 0b28
000002d0: 8b48 fc27 804f a024 4433 6426 8287 0928
000002e0: dcf5 5227 a8ab 9da6 3d21 b3a6 b639 04a6
000002f0: df18 d127 66f7 1527 bc31 9326 9e5f 4427
00000300: 0210 c2a7 9e5e 1aa8 e09e 1125 989c 16a6
00000310: 0ba9 11a7 b0b4 5226 dda4 4d27 a07b 06a7
00000320: 126b 3528 94e3 5d27 46dc 76a7 0273 c3a7
00000330: c06b 9725 c6f1 5da8 c04d 8a26 c20d c827
00000340: eb52 cb27 f625 9926 3d15 b027 78ff a8a5
00000350: 94f8 46a7 d308 e127 c28b 87a6 4baa 08a8
00000360: 482d dba7 7226 a0a6 b16d 4027 8245 cca6
00000370: 859d 0d27 503e 3f26 d204 f6a7 7cd3 cf26
00000380: 95d9 84a6 c0d0 74a6 1125 caa7 c41a 8328
00000390: e0e5 b8a7 fd3b 6927 84de d726 5a3f 9426
000003a0: c048 bf26 d9f2 aca7 302c 5127 e8eb 62a7
000003b0: 65a2 f727 1570 caa7 50c9 eda7 6c20 c7a6
000003c0: f4a7 b3a7 4814 e6a7 5285 85a7 1403 f827
000003d0: 1cad c526 e0a4 dca5 09ca 6027 0c4f 14a8
000003e0: b01f c2a5 e408 87a7 7d19 f827 203f b8a6
000003f0: 3cd4 0e28 f309 8527 028f 1028 402c 9727
5.660618e-05 4.2012707e-15 1.3700821e-15 -2.0071157e-15 2.995806e-15 1.8143342e-15 -1.1393155e-14 2.7514531e-15
5.5976185e-15 6.732411e-15 -1.7167424e-15 4.2322387e-15 5.5914144e-15 1.2946507e-14 1.05871495e-16 -2.690011e-15
-1.1530527e-07 4.1352623e-15 -1.00341225e-14 3.2607071e-15 3.617736e-15 -4.0065607e-15 -2.2727724e-15 1.3747294e-15
1.7313866e-15 -3.659021e-15 -4.6525985e-16 -1.0728534e-15 -5.929895e-15 -1.0441182e-15 1.07281805e-16 8.3482127e-16
-1.0730045e-14 -2.104564e-15 -8.876995e-15 -2.0820366e-15 -3.0443474e-15 3.7817624e-15 -2.452999e-15 -9.249956e-16
1.204209e-15 3.4836312e-15 -3.7613498e-15 -5.954468e-15 7.86537e-16 -5.541227e-15 3.914904e-15 -4.552095e-16
-5.036751e-15 5.994638e-15 -2.1246568e-15 -2.4169153e-16 -7.803789e-15 -7.233819e-15 -6.0388164e-15 -4.1261855e-15
-1.4786021e-15 -7.773732e-15 2.3488285e-15 -7.721909e-15 6.8134695e-15 4.922011e-16 4.990709e-15 7.471875e-15
5.0302407e-16 3.2036967e-15 3.2436356e-15 -1.8205004e-15 -2.95187e-15 2.8772426e-15 2.491024e-15 -9.053099e-15
-2.9569941e-15 -1.7655819e-15 8.457253e-15 6.4393033e-16 4.760194e-15 -4.5014134e-15 -4.3992655e-15 -2.4396082e-15
1.0247241e-14 6.4592822e-15 3.9202697e-16 5.490946e-15 2.9613384e-15 -1.1990126e-15 2.8326937e-15 1.7712962e-07
-6.1551724e-16 -3.2076854e-15 6.4853882e-15 2.796736e-07 -2.7001388e-16 -2.0144836e-15 -4.6120605e-15 -8.5902016e-16
-5.7799165e-15 1.8929374e-15 8.152495e-15 -2.1118128e-15 -1.2566913e-15 1.0036854e-14 -8.675057e-06 -1.2818435e-07
-1.837653e-15 1.3312363e-14 -1.2436544e-14 -2.6364786e-15 8.623578e-15 4.0416202e-15 -2.768178e-15 8.371664e-15
-1.3688758e-15 -4.763534e-15 -8.578671e-15 -4.7988766e-15 -1.758973e-15 4.423766e-15 -1.4534977e-14 -5.936617e-16
1.5150091e-15 -3.4895898e-15 -8.0719834e-15 7.683313e-16 2.053661e-16 7.9329294e-16 -1.4754509e-15 -3.654808e-15
-2.3038657e-15 -2.967519e-15 -8.6740875e-15 -2.3974247e-15 -1.4817359e-15 -1.0865637e-15 4.0554294e-15 3.3928404e-15
-4.3010245e-15 3.2522696e-15 2.7968287e-16 1.2504525e-15 -3.839209e-15 1.4901368e-15 -3.2983205e-15 -6.1704063e-15
2.779885e-15 1.3747904e-14 1.2915029e-15 1.4112806e-15 2.2968251e-15 -1.0069282e-14 -9.223957e-15 1.6681513e-15
3.6126125e-15 -4.3865033e-15 1.3385513e-15 5.610727e-15 1.7724607e-15 -1.5619471e-15 -1.8057493e-15 -6.158795e-15
-3.811434e-15 2.774464e-15 -7.155758e-15 4.1716563e-15 5.013162e-15 1.9212e-15 3.9672973e-15 2.628169e-15
1.595016e-08 3.3040873e-15 3.8953576e-15 -5.2561473e-15 2.1074773e-15 2.5128785e-15 -4.1568807e-15 4.5088364e-15
-3.468226e-08 5.469762e-15 2.3816305e-15 7.738652e-15 7.00227e-15 6.952362e-17 7.917287e-16 7.634411e-15
2.9276635e-15 -1.0940591e-15 -1.2429629e-15 -4.5874913e-16 5.803612e-15 2.0812019e-15 1.0213655e-15 2.7252298e-15
-5.3863172e-15 -8.569234e-15 1.2630574e-16 -5.225393e-16 -2.021443e-15 7.3103263e-16 2.8538838e-15 -1.8663253e-15
1.00707355e-14 3.0793281e-15 -3.4258768e-15 -5.4248064e-15 2.626734e-16 -1.2320391e-14 9.596748e-16 5.5526067e-15
5.643372e-15 1.0626797e-15 4.887284e-15 -2.9316467e-16 -2.7612774e-15 6.2459612e-15 -9.405388e-16 -7.586443e-15
-6.0833805e-15 -1.1112651e-15 2.6704816e-15 -1.4174184e-15 1.9653072e-15 6.6350886e-16 -6.8283942e-15 1.4420833e-15
-9.218316e-16 -8.4937415e-16 -5.610645e-15 1.455553e-14 -5.131949e-15 3.2367765e-15 1.4978935e-15 1.0286734e-15
1.3273006e-15 -4.8002886e-15 2.902853e-15 -3.1491685e-15 6.873234e-15 -5.6187782e-15 -6.5998978e-15 -1.3817187e-15
-4.9864575e-15 -6.3859813e-15 -3.705946e-15 6.8837165e-15 1.3716542e-15 -3.827564e-16 3.1195768e-15 -8.232791e-15
-3.3675108e-16 -3.7479666e-15 6.886146e-15 -1.2784675e-15 7.9286045e-15 3.6925703e-15 8.024616e-15 4.1958895e-15

layers.4.bias f4 [30]
00000000: cc79 5db8 f0e2 61b8 d9b6 1e37 da9f 9934
00000010: 0ed2 c9b5 e28b 05b8 c499 e4b3 af90 ad36
00000020: 21ba c5b6 ec07 3033 9420 71b6 a2cb ff33
00000030: 7cfb 85b8 4388 2238 30df 5ab8 9d5a 76b5
00000040: 358f d434 5895 df36 8290 04b8 eee7 eb37
00000050: 24a2 e2b7 e697 83b7 e016 7ab4 bddf 22b7
00000060: 6ae7 a733 10da 25b7 402d a535 b5c2 2036
00000070: bc8d 8b33 3372 bdb6
-5.2803938e-05 -5.3855532e-05 9.460106e-06 2.8614778e-07 -1.5036801e-06 -3.1839947e-05 -1.0645047e-07 5.172645e-06
-5.8927258e-06 4.0985398e-08 -3.5930761e-06 1.19114034e-07 -6.388777e-05 3.8750713e-05 -5.218311e-05 -9.1774e-07
3.9592274e-07 6.663304e-06 -3.1605836e-05 2.8122184e-05 -2.7016802e-05 -1.568715e-05 -2.3291386e-07 -9.708046e-06
7.8186375e-08 -9.885538e-06 1.2306627e-06 2.3955192e-06 6.498473e-08 -5.6459335e-06

layers.6.weight f4 [25, 30]
00000000: ccf7 a427 c11e 19a8 7145 20a7 a5f7 2227
00000010: 7225 5826 6ff2 f4a6 0493 9726 f7d8 6027
00000020: 2ed8 2927 828b aaa7 8a10 d926 abcf 5aa8
00000030: ebcd 1b28 600d 24a8 d12f d327 8098 0ca8
00000040: 8798 13a7 b033 9527 0387 0828 1806 66a6
00000050: 58a2 9e26 d7fc 7ba7 7cf6 35a8 18d3 21a5
00000060: 82c6 ae27 f1e3 ff27 f6fb 90a7 be5b 1028
00000070: 7088 65a6 b8d9 78a7 b272 fe27 da3f f4a7
00000080: a887 3da6 9276 4da7 cef0 af27 76de 9627
00000090: 0c40 31a5 dfb7 6427 61e3 59a8 8394 1ea8
000000a0: 4674 d527 889f f726 dc2e 5ca6 9853 e6a7
000000b0: 7f30 7e27 58e9 f526 3cc1 0bb2 d0a1 3e27
000000c0: c001 e624 6c27 f8a6 0589 e027 0842 3aa7
000000d0: dc23 1a26 86e7 fc26 622c 18a7 7036 8ea8
000000e0: 4a38 a4a7 02ce a927 2331 f027 9981 93a7
000000f0: 0820 94a7 865c 00a8 3b5f 9727 25dc 2628
00000100: 9a61 1728 5258 c2a6 fafd cba6 ce6f ae27
00000110: 1cc6 8c27 8b5f 41a7 abb1 a9a7 6627 83a7
00000120: 08cb e426 b8db 9126 1cf8 af35 ac95 14a7
00000130: e81c a4a6 9301 86a7 7408 73b7 bd5b 21a7
00000140: 68b5 bc26 6e27 3527 4053 0327 ef7d 77a7
00000150: 3008 79a8 7047 fda7 cf45 ada7 1881 a8a6
00000160: 6360 40a7 fe26 1ba7 bec1 efa7 61a1 14a7
00000170: 4cd0 5e27 93de a226 fc6f e5a7 c2d8 1128
00000180: b202 e127 025f d5a6 1207 45a7 a863 4ca6
00000190: 22b8 d6a7 ecec e927 8426 84a7 1694 ea27
000001a0: 62f1 18a8 43e7 4927 6e95 3ca7 e643 f7a7
000001b0: ead1 0228 6010 8327 4089 06a8 b7d3 3f28
000001c0: 3251 2ca7 7422 03a8 80a6 d0a4 18bb 30a6
000001d0: 4c1f 9ba6 50a7 b325 f7b0 9e27 5040 e4a5
000001e0: 49f5 8427 8814 aca6 ca68 09a8 5a85 9526
000001f0: 9394 3928 8bb2 c2a7 d8fa 3925 83fa 0427
00000200: 9016 9f27 7624 a926 7bd9 c4a7 1e98 87a6
00000210: 807f 33a5 d073 6fa6 b5e2 a327 92c0 27a7
00000220: 19bd e326 77c4 90a7 c2dd 59a7 8e2c f927
00000230: 98e8 1c27 af41 f726 782c 58b2 1078 d9a6
00000240: 0c7a 2e27 bbd3 71a7 9c96 3926 e4a9 9fa7
00000250: 2eb8 aba6 22fc 4127 a2d1 0ca8 0464 1e27
00000260: 16a0 2528 d4cb 2428 18cf 0828 d13b 83a7
00000270: b9ab 65a7 3e84 e327 e0fa 9f26 56bf d327
00000280: a378 8127 7959 eca7 adbe d0a7 a708 24a7
00000290: 927f 9726 ea01 fc26 f2c2 44a7 4560 15a8
000002a0: 241f 41a7 2326 2ca7 92b8 e9a6 6e48 d8a6
000002b0: 5e2d 4fa7 1a79 be27 3a70 05a7 7020 5428
000002c0: 6007 4da7 044d 8828 24c8 73a7 031d cca6
000002d0: e0c7 81a6 0bcd 6228 c025 a0a6 58a7 a3a7
000002e0: 0f75 3ca7 680a 89a6 a5bf 8a27 5093 1f27
000002f0: 447d da27 8417 8b26 f0da 25a6 c8e0 b5a6
00000300: 3e24 a437 d225 fe26 7ffa 4c26 3e22 1027
00000310: ad85 0335 de0e 3427 7835 c8a6 ac5a 5f27
00000320: 5282 a727 bd74 97a7 384a 2928 e7d9 d327
00000330: d806 6b27 c810 dca6 f0f3 2428 083d 4027
00000340: cc39 4333 0022 1926 c2a6 2a28 0028 44a7
00000350: 5b96 a427 7d7d af26 fdf1 8d28 0092 23a7
00000360: 212c aea6 9024 2226 5822 f1b3 88e4 3d28
00000370: f1c0 f527 3cd3 6627 eaa0 49a7 ee79 4c28
00000380: 5651 3427 80eb 0826 c07a 6524 55bc 4da7
00000390: 887d 82a5 78f1 a0a8 768e 1528 7c94 0ca6
000003a0: 926e 60a8 15e0 1527 8846 1928 26f5 d7a6
000003b0: 8c8e 6326 08fd 9daf 14d0 a1a7 d8a8 cca7
000003c0: 188d a226 3c86 f2a7 8e01 0aa7 a031 c5a6
000003d0: 7093 1e27 b83c 0cb3 7aa6 42a8 9088 4728
000003e0: 384a 3228 6e69 32a7 4ce4 4128 32c9 c6a7
000003f0: a243 e2a6 2736 9727 8001 9e24 bd15 83a7
4.5787806e-15 -8.499875e-15 -2.2242105e-15 2.2616265e-15 7.49908e-16 -1.6996613e-15 1.0517578e-15 3.1203862e-15
2.3570653e-15 -4.7335733e-15 1.5061883e-15 -1.2146462e-14 8.64888e-15 -9.106729e-15 5.8616107e-15 -7.804629e-15
-2.0483033e-15 4.1411847e-15 7.5787926e-15 -7.980554e-16 1.1007456e-15 -3.4970312e-15 -1.0100966e-14 -1.4036045e-16
4.8509924e-15 7.1023852e-15 -4.0241205e-15 8.013499e-15 -7.963524e-16 -3.453494e-15 7.0623515e-15 -6.7792833e-15
-6.5756396e-16 -2.8513742e-15 4.883334e-15 4.1874556e-15 -1.5374003e-16 3.1741033e-15 -1.2095225e-14 -8.802965e-15
5.924544e-15 1.7182309e-15 -7.639134e-16 -6.3928456e-15 3.527587e-15 1.7063538e-15 -8.134801e-09 2.6455516e-15
9.9749564e-17 -1.7219142e-15 6.2321046e-15 -2.584848e-15 5.347808e-16 1.7548767e-15 -2.1118297e-15 -1.5788775e-14
-4.5580173e-15 4.7130277e-15 6.6666656e-15 -4.0941206e-15 -4.111298e-15 -7.12549e-15 4.201417e-15 9.262587e-15
8.403348e-15 -1.3485393e-15 -1.4154795e-15 4.841592e-15 3.9072596e-15 -2.6835924e-15 -4.709955e-15 -3.640252e-15
1.587571e-15 1.0120951e-15 1.3110725e-06 -2.0620263e-15 -1.1387621e-15 -3.719418e-15 -1.4485897e-05 -2.239297e-15
1.3094291e-15 2.514017e-15 1.8225032e-15 -3.4346405e-15 -1.3824052e-14 -7.029906e-15 -4.8092832e-15 -1.1692333e-15
-2.6697604e-15 -2.1531709e-15 -6.654588e-15 -2.062661e-15 3.0921607e-15 1.1301337e-15 -6.368168e-15 8.096119e-15
6.2452967e-15 -1.4805596e-15 -2.7343075e-15 -7.0911777e-16 -5.959657e-15 6.4927362e-15 -3.667912e-15 6.51086e-15
-8.4900365e-15 2.801972e-15 -2.6171247e-15 -6.8629887e-15 7.2619675e-15 3.6377558e-15 -7.468256e-15 1.0648538e-14
-2.3913811e-15 -7.279432e-15 -9.048768e-17 -6.1315826e-16 -1.0763769e-15 3.1164926e-16 4.4045675e-15 -3.9595275e-16
3.69033e-15 -1.1940463e-15 -7.62775e-15 1.0375097e-15 1.030178e-14 -5.4039393e-15 1.6131181e-16 1.8454483e-15
4.4155828e-15 1.1736613e-15 -5.463672e-15 -9.408738e-16 -1.5568974e-16 -8.307674e-16 4.5487385e-15 -2.3280298e-15
1.5802544e-15 -4.0181036e-15 -3.0235015e-15 6.915969e-15 2.1775438e-15 1.7156872e-15 -1.2582966e-08 -1.5089943e-15
2.4213513e-15 -3.3560248e-15 6.438888e-16 -4.431556e-15 -1.1915431e-15 2.6920812e-15 -7.817018e-15 2.1981123e-15
9.194053e-15 9.148027e-15 7.594423e-15 -3.6424657e-15 -3.1873225e-15 6.3148534e-15 1.1100841e-15 5.877171e-15
3.5935487e-15 -6.5600165e-15 -5.793833e-15 -2.2764262e-15 1.0512308e-15 1.7486531e-15 -2.7306144e-15 -8.292037e-15
-2.6801012e-15 -2.389047e-15 -1.6217651e-15 -1.5007643e-15 -2.8751614e-15 5.2866892e-15 -1.8518296e-15 1.1775398e-14
-2.8453463e-15 1.5132433e-14 -3.383152e-15 -1.4163207e-15 -9.005349e-16 1.2589982e-14 -1.1112462e-15 -4.5423023e-15
-2.6153699e-15 -9.509105e-16 3.8510476e-15 2.214554e-15 6.064297e-15 9.651436e-16 -5.754259e-16 -1.2620325e-15
1.95672e-05 1.7635042e-15 7.1116203e-16 2.0002577e-15 4.8995827e-07 2.4988078e-15 -1.3892281e-15 3.099662e-15
4.6493105e-15 -4.2037487e-15 9.397478e-15 5.8800515e-15 3.2616511e-15 -1.5270115e-15 9.156724e-15 2.6678438e-15
4.545454e-08 5.3128617e-16 9.4730555e-15 -2.7222148e-15 4.568216e-15 1.2177078e-15 1.575909e-14 -2.269994e-15
-1.2085637e-15 5.625459e-16 -1.1228684e-07 1.0541162e-14 6.8210348e-15 3.2033422e-15 -2.7981585e-15 1.1350714e-14
2.502411e-15 4.750364e-16 4.9760433e-17 -2.855156e-15 -2.2636468e-16 -1.7868289e-14 8.302053e-15 -4.877349e-16
-1.2458474e-14 2.079938e-15 8.5085e-15 -1.498507e-15 7.8949633e-16 -2.8737923e-10 -4.4912075e-15 -5.6804435e-15
1.1279252e-15 -6.731403e-15 -1.915219e-15 -1.3683072e-15 2.200683e-15 -3.2651513e-08 -1.0805262e-14 1.1076331e-14
9.8970785e-15 -2.4759616e-15 1.0763156e-14 -5.5174176e-15 -1.5700232e-15 4.196963e-15 6.852412e-17 -3.6383373e-15

layers.6.bias f4 [25]
00000000: f20a 3628 f67e 432b bcb1 05ac 7572 e3aa
00000010: 2847 ce29 7b93 c2a9 6b8a bda9 f0a6 15ab
00000020: 4d36 ac2c 706e a4a9 80bf f128 94a6 6b2a
00000030: dfc6 c72b 8a4c a52a a6d8 7aa7 b4cf 21a9
00000040: c26f 04ab 1482 cfa9 cb50 b7aa 0080 8028
00000050: 30ca aba8 ca41 63a9 a470 342b 90f2 d72d
00000060: 0ab4 a929
1.0105403e-14 6.945411e-13 -1.89991e-12 -4.040272e-13 9.1605814e-14 -8.6409145e-14 -8.417298e-14 -5.3167106e-13
4.8945626e-12 -7.302221e-14 2.6839425e-14 2.0929986e-13 1.4194998e-12 2.9362997e-13 -3.4811915e-15 -3.5929335e-14
-4.7050916e-13 -9.2152116e-14 -3.2563392e-13 1.4266366e-14 -1.9072499e-14 -5.0461188e-14 6.4105166e-13 2.455039e-11
7.5363394e-14

layers.8.weight f4 [20, 25]
00000000: 7432 92a6 cc34 6027 7597 1e29 9818 3c27
00000010: 9c7d 01a8 4067 e624 807b 26a7 0cbf a927
00000020: d22c a7a8 a26c 2ba9 1ba4 5ca8 7adf 3fa8
00000030: 0cd1 1da8 949b 7028 09e3 d7a7 4e07 20a8
00000040: d667 1028 dc2c 6da7 5808 12a8 9a2f 2da8
00000050: 568a c8a7 878f e6a7 d018 a425 82ab 9229
00000060: c24f 83a7 95f9 7ca8 e4e2 34a8 6bcc c528
00000070: c039 20a8 11eb 4128 ea61 9d27 d935 48a8
00000080: 6e4d f9a8 a83d bf28 5f1b daa8 1aec 1127
00000090: 834f 1ba8 9406 a6a7 cd4d 8ea8 77de 12a8
000000a0: 1e23 7928 c19f a0a8 447b 72a8 8876 8727
000000b0: 6076 8a26 c40a 27a7 2424 17a8 f421 af26
000000c0: 24a1 7928 161b c2a8 88cc d926 91aa 9b27
000000d0: 1854 6726 60a2 97a5 787d 56a6 64b4 0ea8
000000e0: 5a5a bf27 b30c 93a7 ea97 11a7 9cf2 b9a6
000000f0: 8276 6028 6bcf 45a7 3b12 6227 a0ba 5da8
00000100: d8f8 5426 8945 e9a7 5270 aba7 6933 2028
00000110: 4e84 ba26 746a b4a6 6c8a 68b4 5872 c9a7
00000120: 4655 3c28 7a1c ab27 fe6e 1227 af1a 8928
00000130: 2797 3929 6018 07aa f281 68a9 fc6b 0528
00000140: 81c9 09a8 f2b4 8929 409f 6c28 71db 1629
00000150: b64b b729 a3b3 97a9 643a ed26 e18b 9228
00000160: 84c5 1da9 97e2 0fa8 3e73 41a9 48d8 01a7
00000170: b85d 9e26 0259 7ba8 9088 2829 1818 2228
00000180: 74f0 a3a7 59f3 a5a8 e6de a728 742a baa6
00000190: fe69 3ba8 c06b eca6 06c2 292c 4bca 81a8
000001a0: 8f88 2f29 ba4b b528 1ce0 afa8 9021 a6aa
000001b0: 2d5a d028 8b6b ae29 2c43 e9a7 ff46 4eb0
000001c0: c299 722b b40e 272a 6e3d 7a28 330a 42a8
000001d0: 5296 67aa 291b 482b 68df a0a9 2040 78a8
000001e0: 7f3f 072b 82b8 a228 7479 982b 0849 b32a
000001f0: 113f 75a9 8822 db25 c9d9 6426 3e01 0ba8
00000200: fc3f 2ea6 c659 0427 b8c1 aa26 1ca4 90a6
00000210: 70c7 e826 c57d f027 9cc6 29a8 d9fe 00a7
00000220: f81c 5026 c8ff 9227 9745 af27 18c7 8126
00000230: 7bc3 8ba8 9ca5 01a7 0442 07a7 bbe3 2927
00000240: f2cd e527 7776 79a7 91c0 34a7 42bb 2128
00000250: dc7a 58a7 c840 1826 b818 0b27 4c15 2328
00000260: 74d5 b4a6 18a9 eba7 4a5f 2228 08d6 b126
00000270: d6f1 0527 1867 13a8 40c5 61a7 929b 1fa7
00000280: 1011 89a6 1442 4426 2638 7ca8 c45b 3a28
00000290: 5559 aca7 989a 8ca7 7e1e aa26 e75e 8b29
000002a0: 001c aba7 a21e 1328 b8d1 6f28 f40f 5626
000002b0: 0602 bda8 17f9 8836 cd0d a8a7 c2b8 2427
000002c0: d888 7327 c2c2 9526 b482 0027 a07d 7425
000002d0: 76e3 c6a6 dc09 8727 9d3c a227 ccf8 dea5
000002e0: e0da 9126 a4e9 6326 502d 6c26 5067 86a7
000002f0: 54d4 a7a7 a9bf a1a8 a863 aba6 66e4 9727
00000300: 86de 5f27 6885 0528 46e3 5827 a0fb 7ba7
00000310: 7a1b 6928 b696 5c27 719e 04a8 465d b827
00000320: bdcf 16a8 dac9 c527 999d eca7 1036 f727
00000330: 8023 7227 6eea 9928 dc53 e426 f341 06a8
00000340: c412 3ea7 0092 e1a6 a819 15a6 6017 4626
00000350: a425 b827 11ce 4028 8e97 01a7 f498 6b27
00000360: 8858 1b26 b0d0 1928 3ec7 0728 f899 83a6
00000370: f0aa d1a5 00b8 4223 19e1 40a8 6fb7 3ca6
00000380: 80ca f0a4 f45a 99a7 a803 9a27 1634 03b6
00000390: 5c15 0927 e2ca 55a8 b2f8 0128 71e2 8228
000003a0: a6a6 46a8 c764 cea7 60a6 3aa5 4d5f 1fa8
000003b0: 1a83 d327 1243 dba6 fc6e ada6 70c6 1fa6
000003c0: 501c 4628 b783 b027 4b2f 7aa7 5cf0 2ba7
000003d0: 9be7 8927 e043 b427 72dc b2a7 d735 7128
000003e0: 84d9 cfa7 e429 24a7 2778 94a7 c021 55a7
000003f0: b50a c0a7 4cd3 c127 cf20 1e28 662d 31a8
-1.014446e-15 3.1114866e-15 3.5214416e-14 2.6103573e-15 -7.188176e-15 9.992151e-17 -2.3104077e-15 4.7114056e-15
-1.8560162e-14 -3.806385e-14 -1.2248038e-14 -1.0651089e-14 -8.7605806e-15 1.3356412e-14 -5.992064e-15 -8.883368e-15
8.016122e-15 -3.2914675e-15 -8.106437e-15 -9.613751e-15 -5.5661135e-15 -6.3993437e-15 2.8466279e-16 6.513454e-14
-3.6446278e-15 -1.404293e-14 -1.0041206e-14 2.1960046e-14 -8.894307e-15 1.0764624e-14 4.3682412e-15 -1.1113907e-14
-2.7678133e-14 2.1231999e-14 -2.4214732e-14 2.0250783e-15 -8.62147e-15 -4.6081388e-15 -1.5798908e-14 -8.1528675e-15
1.38298915e-14 -1.783285e-14 -1.34604276e-14 3.759854e-15 9.607759e-16 -2.3181742e-15 -8.390021e-15 1.2152267e-15
1.38572185e-14 -2.1550073e-14 1.5112838e-15 4.320607e-15 8.0258193e-16 -2.6304354e-16 -7.4416207e-16 -7.9216995e-15
5.311111e-15 -4.0814465e-15 -2.0205145e-15 -1.2902713e-15 1.2460195e-14 -2.7451683e-15 3.1373683e-15 -1.2308432e-14
7.388952e-16 -6.474588e-15 -4.7583812e-15 8.892932e-15 1.2942204e-15 -1.2518863e-15 -2.1657041e-07 -5.591268e-15
1.0454587e-14 4.749291e-15 2.032174e-15 1.5221628e-14 4.1209356e-14 -1.1998865e-13 -5.1627058e-14 7.4063985e-15
-7.648722e-15 6.115411e-14 1.31351635e-14 3.3497026e-14 8.139966e-14 -6.736909e-14 1.6461005e-15 1.6269919e-14
-3.503232e-14 -7.9872285e-15 -4.2954565e-14 -1.8019593e-15 1.0988855e-15 -1.39525995e-14 3.7421943e-14 8.998031e-15
-4.550229e-15 -1.8424215e-14 1.8637391e-14 -1.291785e-15 -1.0403569e-14 -1.6404995e-15 2.412405e-12 -1.4409608e-14
3.897625e-14 2.0127878e-14 -1.9526095e-14 -2.9510812e-13 2.3131746e-14 7.745808e-14 -6.474332e-15 -7.5043255e-10
8.6189053e-13 1.4837681e-13 1.3891108e-14 -1.0771375e-14 -2.0569074e-13 7.1091966e-13 -7.144182e-14 -1.378067e-14
4.8049753e-13 1.806563e-14 1.083396e-12 3.1847463e-13 -5.445563e-14 3.8013843e-16 7.9398544e-16 -7.716319e-15
-6.045509e-16 1.8367346e-15 1.1848627e-15 -1.0036489e-15 1.6152291e-15 6.674974e-15 -9.424451e-15 -1.7901722e-15
7.2203757e-16 4.080046e-15 4.8647707e-15 9.005138e-16 -1.5516876e-14 -1.7992123e-15 -1.87708e-15 2.3576914e-15
6.3783555e-15 -3.4619912e-15 -2.5084409e-15 8.9779e-15 -3.0042624e-15 5.282339e-16 1.9303525e-15 9.052936e-15
-1.2547866e-15 -6.5408935e-15 9.013469e-15 1.2339855e-15 1.8588557e-15 -8.182494e-15 -3.1331952e-15 -2.2150017e-15
-9.510909e-16 6.8090713e-16 -1.4000985e-14 1.0344973e-14 -4.7836444e-15 -3.9025417e-15 1.1804385e-15 6.189303e-14
-4.749239e-15 8.166782e-15 1.3312641e-14 7.4267785e-16 -2.0984093e-14 4.0821137e-06 -4.664433e-15 2.285973e-15
3.3797208e-15 1.0391741e-15 1.7834423e-15 2.120619e-16 -1.3800663e-15 3.7480717e-15 4.502975e-15 -3.8679452e-16
1.0120722e-15 7.907309e-16 8.194036e-16 -3.7304483e-15 -4.658202e-15 -1.795771e-14 -1.189252e-15 4.215855e-15
3.1068097e-15 7.411911e-15 3.0099227e-15 -3.4969654e-15 1.2940056e-14 3.0612834e-15 -7.3618285e-15 5.1171386e-15
-8.371719e-15 5.489733e-15 -6.5674026e-15 6.8614886e-15 3.3603491e-15 1.708808e-14 1.5843408e-15 -7.452795e-15
-2.637797e-15 -1.5652085e-15 -5.172953e-16 6.872673e-16 5.111107e-15 1.07028246e-14 -1.7984504e-15 3.2695717e-15
5.389641e-16 8.538458e-15 7.537209e-15 -9.131684e-16 -3.6371552e-16 1.0555725e-17 -1.0706951e-14 -6.54742e-16
-1.0442646e-16 -4.2564642e-15 4.274755e-15 -1.955084e-06 1.9024148e-15 -1.1867868e-14 7.214866e-15 1.4531103e-14
-1.1027344e-14 -5.728575e-15 -1.6189298e-16 -8.846938e-15 5.8706405e-15 -1.5214357e-15 -1.2034369e-15 -5.543314e-16
1.0997347e-14 4.899262e-15 -3.4720107e-15 -2.3861316e-15 3.8276246e-15 5.0033626e-15 -4.964393e-15 1.3389862e-14
-5.7689872e-15 -2.278228e-15 -4.120852e-15 -2.9577984e-15 -5.3302314e-15 5.379735e-15 8.777876e-15 -9.835318e-15

layers.8.bias f4 [20]
00000000: 8227 47b2 2cab 8eb9 ed89 15b1 4bd4 97b9
00000010: 1cd7 6c37 1b01 06b1 68d9 7cb5 7003 4431
00000020: 6636 eaaf 4fc0 4fb3 e43d d4b5 0402 c4b0
00000030: ceae c8b0 2b12 8fbb 96b9 deb9 7357 0eb4
00000040: 4616 b72e e672 12b1 aaa1 b9b0 109c 7831
-1.1592308e-08 -0.00027211884 -2.1760755e-09 -0.00028959135 1.411678e-05 -1.9500195e-09 -9.4193683e-07 2.8523708e-09
-4.2603004e-10 -4.8370847e-08 -1.5813243e-06 -1.426145e-09 -1.4601598e-09 -0.0043661795 -0.00042481412 -1.3256594e-07
8.325833e-11 -2.1311108e-09 -1.3506469e-09 3.617746e-09

layers.10.weight f4 [10, 20]
00000000: 053d 1ab0 cd4a 82b2 c0c4 7a2c 5ece c1b7
00000010: b7c6 8db7 c2f8 2ba8 b647 d1b4 7aef 9eae
00000020: 5ca6 e42a 7cb6 62b0 5c65 2128 624a 0131
00000030: 8382 182a a656 5739 c8a5 5638 c738 8f32
00000040: aec9 af2d 72b4 87af 0d3d e7a9 1fa9 8cb0
00000050: 463a 4131 4042 6c31 f8e8 092e 6fcb 4237
00000060: 051a da37 5a44 9127 9820 9d35 f30a 9431
00000070: 4bff 8b2a 3060 37b1 c886 1429 7e7b 002f
00000080: d47e 8e28 8645 dbb9 471e 36b8 e36b 4033
00000090: f4e9 8dad 9368 5bb0 6b6b 35a8 dad3 ce31
000000a0: f610 9930 d4b9 072f 527b cbae 4af9 4934
000000b0: 5882 2bb6 72b2 012a 9c2b fbb4 1a3d d430
000000c0: 662e d229 4d16 31b1 9702 a5a9 00b4 332a
000000d0: 84e6 572a 93cb c1b8 6119 02b9 94aa 3db3
000000e0: 6a55 29ae 2df5 2fb0 7453 56aa 2832 8b30
000000f0: 6c16 b6af af6a 8a30 8809 dbae 79a3 11b6
00000100: c4c0 1c38 b810 9e29 10ed 3a36 6f6d ca31
00000110: 574f 412a a90b 76b2 3690 ff29 4888 f930
00000120: e429 5a29 5b1a 233a 718e f1b7 1fb9 3433
00000130: 432d 502e 85e5 6b2f eb4e 7fa9 cc2d 1132
00000140: 6463 aa30 e258 962f c2de cfae f0e5 4bb6
00000150: 61cc 0cb8 5454 2f2a 2539 4fb5 38ef 85b1
00000160: 3aae 81ab ea2c d231 f79a 2b2a 9fe3 b430
00000170: def4 502a 2e8e 0ab9 b4a2 7cb8 33c6 87b2
00000180: d8c6 d2ad a68c 0930 0a89 50aa 6689 b6b1
00000190: a5bd 02b1 a1c7 4db1 da7e 932f 98bf 7137
000001a0: 85a2 8db7 97f8 a429 23d6 44b6 4093 89b1
000001b0: 7d79 91a9 f7be c432 8aa2 a3a9 90a7 4330
000001c0: 1357 ad28 7417 deb9 935f 7838 969d 79b1
000001d0: 2342 71ad 6984 49b0 937b b429 6e22 97b1
000001e0: 8e27 14b1 7a9e a2b1 1000 da2f 6321 c3b6
000001f0: 4402 c0b6 d601 a0a9 5172 1e34 91dd deb0
00000200: 3b18 6c2a b1cb 32b2 b87d 6ea9 f83c 9730
00000210: 0f8f 7daa 1a31 84b9 9b1e c2b7 821a 8bb0
00000220: ee6f d02c a403 e32f 7ce1 422a b970 beb0
00000230: 1fab a830 595d ee30 4901 49b0 1701 36b6
00000240: 6967 07b8 365d a8a9 0f59 f8b5 5697 54b1
00000250: 39cd a0ab d89d 23b2 50f6 d7a8 8859 9baf
00000260: 26d5 732a 4b4a 603a c472 14b8 5492 aa30
00000270: 5263 b9ad e5c9 b930 40e2 01aa 4078 95b1
00000280: 731d 2b31 c745 8332 c8c9 382f 600c d334
00000290: a90d fe37 7f0f 132a 8974 8735 fca2 6331
000002a0: 68a6 d5a8 0a5d 4f30 7ca3 32aa 7af2 712f
000002b0: dbba 812a 1195 3db8 4a96 a739 3422 f732
000002c0: 3806 9c2e 3985 4aaf f2d3 72aa 26d7 9c31
000002d0: e853 fdaf 1af8 13af 4dfb 46af b040 8335
000002e0: e972 89b7 2125 6ba9 eaaf 1136 a08a d4b0
000002f0: b6a3 cd2b e9d1 9531 3df3 81a9 b8cd 822f
00000300: 31fa 85a9 2e3b bd39 9c2e 7537 9a44 2cb3
00000310: 03c0 11ae b523 232f 5ded 7029 04ee 61b1
-5.611159e-10 -1.5168007e-08 3.5636355e-12 -2.310349e-05 -1.6901044e-05 -9.546348e-15 -3.898146e-07 -7.227548e-11
4.061637e-13 -8.2477647e-10 8.959274e-15 1.8814252e-09 1.3545592e-13 0.00020536277 5.117597e-05 1.667321e-08
1.998476e-11 -2.468457e-10 -1.02690514e-13 -1.0234408e-09 2.811832e-09 3.4380179e-09 3.135711e-11 1.1610667e-05
2.5999741e-05 4.031969e-15 1.1706898e-06 4.3086117e-09 2.4868505e-13 -2.6684681e-09 3.2979506e-14 1.1685405e-10
1.582017e-14 -0.00041822734 -4.342038e-05 4.4801606e-08 -1.613374e-11 -7.9820345e-10 -1.0070811e-14 6.019474e-09
1.1137036e-09 1.2344198e-10 -9.253277e-11 1.8810275e-07 -2.5556856e-06 1.1519412e-13 -4.6784123e-07 1.5442396e-09
9.333922e-14 -2.5769566e-09 -7.327921e-14 1.5960844e-13 1.9175812e-13 -9.240876e-05 -0.0001240722 -4.416013e-08
-3.8502014e-11 -6.4013045e-10 -1.9035972e-13 1.0127836e-09 -3.312154e-10 1.0071143e-09 -9.96066e-11 -2.1701837e-06
3.7372825e-05 7.01951e-14 2.7854148e-06 5.891415e-09 1.716937e-13 -1.4321736e-08 1.13492915e-13 1.8155868e-09
4.8442058e-14 0.0006221884 -2.8795768e-05 4.2077883e-08 4.7333925e-11 2.1454667e-10 -5.6689825e-14 8.450524e-09
1.2397376e-09 2.7347996e-10 -9.45284e-11 -3.0383198e-06 -3.3568944e-05 1.557238e-13 -7.7196665e-07 -3.8980055e-09
-9.214359e-13 6.1169105e-09 1.5241615e-13 1.3161418e-09 1.8559067e-13 -0.00013213672 -6.023301e-05 -1.5806199e-08
-2.396254e-11 5.0040183e-10 -1.8521656e-13 -5.3125175e-09 -1.902529e-09 -2.9944902e-09 2.6829278e-10 1.4409328e-05
-1.6884189e-05 7.3261865e-14 -2.933092e-06 -4.003965e-09 -6.4603684e-14 2.2904244e-08 -7.26685e-14 7.117871e-10
1.924462e-14 -0.00042360614 5.9216818e-05 -3.6323846e-09 -1.3713949e-11 -7.331154e-10 8.0150425e-14 -4.3985926e-09
-2.1559319e-09 -4.7328372e-09 3.9654013e-10 -5.8153396e-06 -5.7223097e-06 -7.105746e-14 1.4756485e-07 -1.6215599e-09
2.0969417e-13 -1.0407278e-08 -5.295566e-14 1.1004024e-09 -2.2520547e-13 -0.00025213585 -2.3140854e-05 -1.0121115e-09
5.9241423e-12 4.1293646e-10 1.7308892e-13 -1.3856357e-09 1.2272244e-09 1.734331e-09 -7.31252e-10 -2.7120748e-06
-3.2282816e-05 -7.476868e-14 -1.8503359e-06 -3.0936085e-09 -1.1425645e-12 -9.523738e-09 -2.3976616e-14 -2.8257952e-10
2.1656686e-13 0.00085559924 -3.5392834e-05 1.2410717e-09 -2.1076172e-11 1.3517903e-09 -1.1535998e-13 -4.3501416e-09
2.4900515e-09 1.5282138e-08 1.680639e-10 3.9310817e-07 3.028552e-05 1.3061599e-13 1.00922e-06 3.3125493e-09
-2.3719918e-14 7.543838e-10 -1.5866296e-13 2.2004967e-10 2.304466e-13 -4.519994e-05 0.00031964696 2.8770138e-08
7.095163e-11 -1.8419123e-10 -2.1567451e-13 4.564657e-09 -4.608005e-10 -1.3457715e-10 -1.8097275e-10 9.779087e-07
-1.6385182e-05 -5.2212686e-14 2.170908e-06 -1.546443e-09 1.4611565e-12 4.3603348e-09 -5.770946e-14 2.3793034e-10
-5.949788e-14 0.00036092981 1.461399e-05 -4.0109263e-08 -3.3139724e-11 1.483745e-10 5.3496585e-14 -3.2877105e-09

layers.10.bias f4 [10]
00000000: 6c81 bf3b 5ad2 fabb 4b7a 653a b60e 94bb
00000010: 813a 0d3c 134f 003b b6ef e33a 334f dd3a
00000020: 62a9 00bc 0c8a e2b9
0.0058442857 -0.0076544704 0.000875388 -0.0045183552 0.008619905 0.0019578382 0.0017390165 0.0016884565
-0.007852884 -0.00043208932
