DNN_models/DNN_model3.ckpt (torch_old, 633516 bytes, 10 tensors)

layers.0.weight f4 [50, 3072]
000000 30 58 d7 a7 7b a5 0b a8 b0 65 72 a6 cd 6b 64 a6
       -5.97701e-15 -7.751933e-15 -8.409843e-16 -7.924949e-16
000010 90 58 ef a6 40 4d e3 26 12 7d 85 a8 c5 f1 4f 28
       -1.6607961e-15 1.5772228e-15 -1.4820207e-14 1.1543234e-14
000020 60 f4 23 a7 30 3e 56 28 70 1d 70 a7 1c a7 d3 a7
       -2.275327e-15 1.1892871e-14 -3.3322649e-15 -5.8745445e-15
000030 52 f3 32 a8 1b 61 1e 28 c6 ee 64 35 17 aa 89 27
       -9.933747e-15 8.791818e-15 8.528408e-07 3.820955e-15
000040 c0 1d b3 a5 b6 9c 06 a7 c5 db 89 a8 f0 5d 91 a5
       -3.107171e-16 -1.8681189e-15 -1.5305365e-14 -2.5217145e-16
000050 67 63 a7 27 ec 55 6b 27 79 96 26 27 84 f6 61 a8
       4.6459584e-15 3.265938e-15 2.31187e-15 -1.2543464e-14
000060 80 3f 01 26 fc 7e 1d a8 6e b5 40 27 7c 49 10 28
       4.4841924e-16 -8.742786e-15 2.6743706e-15 8.00954e-15
000070 29 3e 5d 27 34 35 4d 28 82 c9 da a7 d8 d8 75 27
       3.0703608e-15 1.1391323e-14 -6.072563e-15 3.4118131e-15
000080 5c a0 e3 27 e0 fc b9 a5 63 df 13 28 02 5e 03 b8
       6.317902e-15 -3.226374e-16 8.2085785e-15 -3.1320385e-05
000090 24 7a 87 a7 52 6a ba 26 52 53 cd 27 78 e3 52 26
       -3.7602452e-15 1.2935161e-15 5.6989266e-15 7.3166664e-16
0000a0 24 4d 58 a7 a0 d7 46 a5 a0 09 67 26 c8 56 e6 a6
       -3.001784e-15 -1.7246819e-16 8.015727e-16 -1.5982978e-15
0000b0 b4 02 02 28 34 cc 27 28 a8 94 64 a6 9e 9d 33 a7
       7.217036e-15 9.314642e-15 -7.9304857e-16 -2.4926685e-15
0000c0 9f 0b aa a7 bc ae 69 a8 ad 9d 72 a8 fe 80 63 27
       -4.719708e-15 -1.2971988e-14 -1.3467889e-14 3.1572505e-15
0000d0 ad 91 9e 27 18 ba d0 a6 77 9d bf 27 00 da 07 27
       4.401175e-15 -1.448334e-15 5.3183873e-15 1.8853192e-15
0000e0 e5 93 16 a8 a3 4d 93 27 f2 3a 00 37 28 99 f9 a6
       -8.358742e-15 4.088487e-15 7.643119e-06 -1.7319359e-15
0000f0 ea 92 49 a8 ec 7c dc 27 d4 6b 84 a7 cf e6 50 a8
       -1.1189598e-14 6.1197707e-15 -3.6754267e-15 -1.1596368e-14
000100 98 06 c1 a6 b8 35 e4 a6 4d 9a 80 a7 5a 20 c6 26
       -1.3393852e-15 -1.5835239e-15 -3.569443e-15 1.3747779e-15
000110 4e b1 07 27 9a f3 3c a7 69 59 6b 28 2c 71 9f 26
       1.883113e-15 -2.6222298e-15 1.3064508e-14 1.1063517e-15
000120 22 39 f8 a7 02 45 8c 27 7b 60 24 a8 5c 96 07 a8
       -6.889577e-15 3.8932624e-15 -9.12475e-15 -7.526609e-15
000130 50 69 35 a6 2c 14 58 a7 42 09 6d a8 32 3b 60 a7
       -6.2939715e-16 -2.9986957e-15 -1.315815e-14 -3.1118335e-15
000140 66 26 a9 27 29 6a 78 a7 43 61 28 27 66 8a e2 27
       4.6948554e-15 -3.4474463e-15 2.336741e-15 6.2877653e-15
000150 80 89 0e 25 c8 e6 69 a7 ba d2 9c 26 0a 7c 1e 27
       1.2363123e-16 -3.2460352e-15 1.0881792e-15 2.1994146e-15
000160 60 b8 59 a8 c8 85 49 26 64 68 98 26 58 69 35 27
       -1.20859e-14 6.991719e-16 1.0575414e-15 2.5175903e-15
000170 1b fc 45 a8 c8 58 71 27 5c 8e 2d 27 c8 24 52 a8
       -1.09903635e-14 3.3493597e-15 2.4085746e-15 -1.1665317e-14
000180 e0 9f 25 a5 d4 b9 ed 26 86 d2 f8 26 55 b8 dc 27
       -1.4365636e-16 1.6495547e-15 1.7265519e-15 6.126212e-15
000190 b6 06 bc a7 6d 11 7e 27 c8 09 8b 32 8b c7 12 28
       -5.218776e-15 3.5259028e-15 1.6186178e-08 8.147897e-15
0001a0 68 c1 42 27 f8 a9 25 a6 a1 b9 4f a8 c1 28 8b 27
       2.7027754e-15 -5.7476225e-16 -1.153106e-14 3.8624436e-15
0001b0 4c b7 3a a7 40 77 42 25 0e 20 10 a8 38 95 50 26
       -2.591205e-15 1.6867221e-16 -8.0005565e-15 7.2366726e-16
0001c0 94 e1 db a7 4d 25 7f 27 7c 53 a9 26 fc c6 39 28
       -6.1029283e-15 3.540858e-15 1.1749359e-15 1.0312711e-14
0001d0 64 dd 01 a7 20 c1 e2 a7 4c 98 65 27 38 32 f5 27
       -1.8022362e-15 -6.2936987e-15 3.1862694e-15 6.8055608e-15
0001e0 bd ef af 28 02 20 3b a7 00 d0 d5 a2 d1 ac 51 a8
       1.9532873e-14 -2.5968815e-15 -5.7953994e-18 -1.1639304e-14
0001f0 16 47 34 a8 14 c3 71 27 a3 ee c7 27 07 ad a6 a7
       -1.00074215e-14 3.355122e-15 5.5492326e-15 -4.6261852e-15
000200 08 ff ee a7 68 bc d1 a6 68 eb b9 a7 6e 83 78 27
       -6.6334775e-15 -1.4553356e-15 -5.1603043e-15 3.4488162e-15
000210 76 0a 82 28 30 7a 75 26 ca 6c 1f 36 70 17 ce 26
       1.4437436e-14 8.5167045e-16 2.375617e-06 1.4300474e-15
000220 00 7a 3c a6 70 d6 2e a6 c8 77 df 36 ed 02 03 a8
       -6.5390944e-16 -6.0658994e-16 6.6598623e-06 -7.272595e-15
000230 64 0a 12 28 45 b4 e7 28 42 1b 1d a7 5b 85 91 28
       8.106881e-15 2.5724331e-14 -2.1802903e-15 1.6156068e-14
000240 2e 46 28 a8 2e 2d 19 a7 52 55 95 a8 57 45 83 a8
       -9.341091e-15 -2.1257507e-15 -1.6579325e-14 -1.4573993e-14
000250 9a 33 d3 a6 a8 ca e1 27 86 f0 dc a7 df ab cc 27
       -1.4655053e-15 6.2669765e-15 -6.1323042e-15 5.6807717e-15
000260 d0 98 dd a6 d0 17 61 26 92 e4 b7 27 bd 0b bc 26
       -1.5376375e-15 7.809483e-16 5.104052e-15 1.3048302e-15
000270 82 b2 4b a8 7d b8 3d a8 75 b4 df a7 28 11 18 a7
       -1.1307471e-14 -1.0531612e-14 -6.2090586e-15 -2.1103538e-15
000280 3c cd de 27 d5 17 d1 a7 30 b8 da 33 7a 8f 37 28
       6.1839893e-15 -5.803499e-15 1.01849196e-07 1.0189652e-14
000290 28 e6 02 28 03 3d ed a7 46 5b b8 a7 27 38 e7 a7
       7.266357e-15 -6.5846863e-15 -5.116922e-15 -6.417626e-15
0002a0 a3 e7 b1 27 ec 7d 63 28 a8 6f f3 26 9b 06 ad a8
       4.937851e-15 1.2628336e-14 1.6891777e-15 -1.9209723e-14
0002b0 c0 58 77 a7 73 c1 3a 28 5b 9a 39 a7 86 a3 00 a8
       -3.4326247e-15 1.0367022e-14 -2.5757584e-15 -7.140886e-15
0002c0 ba 8d 9c a7 54 62 05 a8 80 1d 60 27 38 bc 6a a7
       -4.345236e-15 -7.404305e-15 3.1102237e-15 -3.2576057e-15
0002d0 32 6c f0 a7 a0 6b 92 a5 0e 6c 8c a6 bf b8 a0 27
       -6.6730687e-15 -2.5399892e-16 -9.74374e-16 4.4609223e-15
0002e0 be 15 03 a8 80 ac a1 27 d4 6c 75 27 57 2e ae 27
       -7.276675e-15 4.48735e-15 3.4059576e-15 4.8344943e-15
0002f0 30 8f 71 26 35 b5 61 28 b7 26 37 27 51 84 00 a8
       8.3807727e-16 1.2529302e-14 2.541734e-15 -7.134119e-15
000300 f4 77 86 26 1a 30 1a 27 6c c2 a0 a7 f6 7a 3a a7
       9.330631e-16 2.139787e-15 -4.4619714e-15 -2.5879343e-15
000310 74 1f 28 27 8a 23 86 a7 d8 3a cb 26 43 f7 f3 a7
       2.3331734e-15 -3.7231003e-15 1.4101904e-15 -6.771413e-15
000320 30 87 b3 26 38 45 b4 a7 9c 31 01 a8 79 f2 d2 a7
       1.2457263e-15 -5.0035083e-15 -7.171696e-15 -5.85496e-15
000330 68 ab 54 26 c8 8d 06 27 ae 96 29 28 98 ef 00 a7
       7.3784574e-16 1.8673095e-15 9.414058e-15 -1.7893452e-15
000340 32 39 17 a7 b1 29 08 a8 2a fc 18 b8 a8 ea 1b 28
       -2.0986465e-15 -7.558557e-15 -3.647447e-05 8.655111e-15
000350 e4 58 95 a6 c8 d1 98 26 27 49 86 27 fc 42 f3 a7
       -1.0363046e-15 1.060398e-15 3.7271783e-15 -6.7518673e-15
000360 80 37 81 26 22 1b 36 29 1a f8 e2 a7 17 3a e5 27
       8.966216e-16 4.0435652e-14 -6.2996593e-15 6.362325e-15
000370 74 28 b7 27 34 d4 18 a8 3d 4e de 25 aa 43 d7 27
       5.0836563e-15 -8.483709e-15 3.8563877e-16 5.974785e-15
000380 24 b7 4f a8 94 bf ca 26 a0 92 7b a8 da 38 bf 27
       -1.1530521e-14 1.4068493e-15 -1.3965093e-14 5.307479e-15
000390 20 f2 f8 a5 37 3b 98 27 a2 f1 90 27 62 45 fd 26
       -4.3185212e-16 4.2252676e-15 4.0230008e-15 1.7574208e-15
0003a0 e8 ce fa a7 6f 33 13 a8 ea b8 02 28 38 d5 5f a8
       -6.9613267e-15 -8.171292e-15 7.2565465e-15 -1.2425221e-14
0003b0 70 81 8b a6 c8 b5 35 27 6e 64 6a a7 ec 38 7e 27
       -9.680147e-16 2.521734e-15 -3.2528467e-15 3.5280438e-15
0003c0 80 27 c8 27 2a 6b e5 27 f6 56 cd a7 df 66 90 a8
       5.5553977e-15 6.3676456e-15 -5.6993213e-15 -1.6031825e-14
0003d0 aa 78 0e 28 52 be 0b 27 08 78 a5 26 ef da d6 27
       7.908748e-15 1.9393298e-15 1.148171e-15 5.96343e-15
0003e0 7c 82 b2 25 80 fa 6b 26 9d c5 7b a7 2e 46 53 a7
       3.0966498e-16 8.1871494e-16 -3.4940374e-15 -2.9320177e-15
0003f0 c2 ce a5 27 04 d0 0e a8 28 fb 99 38 dc 03 94 a7
       4.6020867e-15 -7.92769e-15 7.34239e-05 -4.1082436e-15

layers.0.bias f4 [50]
000000 9c fa 2e b3 56 db 15 b4 f0 05 11 34 a8 e0 e4 b4
       -4.074046e-08 -1.39565e-07 1.3506337e-07 -4.2631768e-07
000010 30 33 95 34 c4 26 83 b4 f8 c1 8f 34 ba f9 f4 b4
       2.7790657e-07 -2.4428857e-07 2.6776956e-07 -4.5630242e-07
000020 56 88 bb b4 50 6c 37 b4 e0 52 3c b4 66 6e 4c 34
       -3.4930662e-07 -1.7082607e-07 -1.7539014e-07 1.9039143e-07
000030 f0 ae a3 b1 da 21 71 34 a6 d0 a0 34 62 fa 54 34
       -4.7638125e-09 2.2457189e-07 2.9954134e-07 1.9835127e-07
000040 14 20 91 b4 b4 d1 22 34 bc 52 a5 34 09 0c 1a b5
       -2.7031695e-07 1.5163715e-07 3.0793842e-07 -5.7386984e-07
000050 9e 99 31 33 8e 30 91 b4 58 4a 46 34 b8 1f 2d 34
       4.1350738e-08 -2.7043683e-07 1.8467233e-07 1.612342e-07
000060 1b 79 4a b4 2c 22 03 b4 7b 61 83 b4 86 f6 df 33
       -1.8856774e-07 -1.2212757e-07 -2.4471578e-07 1.0429089e-07
000070 38 1b bd 33 aa 79 05 35 07 f8 42 b3 60 0d a9 34
       8.8059494e-08 4.9723405e-07 -4.5394724e-08 3.1488435e-07
000080 00 cd 70 34 1c b3 c2 b4 b7 d7 a6 34 ba 92 5d b3
       2.242632e-07 -3.6265635e-07 3.1076863e-07 -5.158902e-08
000090 06 70 3b 34 c2 f9 be 34 45 00 08 b5 e8 bc 83 b4
       1.7456486e-07 3.557198e-07 -5.066434e-07 -2.45381e-07
0000a0 40 64 57 b4 3c 1f 96 32 50 ad 77 34 f8 dd 6b b4
       -2.0059906e-07 1.7476502e-08 2.3066718e-07 -2.1966832e-07
0000b0 6c 6e 67 b4 d4 ec 39 34 4e 03 43 34 8c 07 b0 b3
       -2.1553723e-07 1.7315625e-07 1.8161992e-07 -8.1970114e-08
0000c0 3d b1 49 b4 97 6a 42 b4
       -1.8784063e-07 -1.8106435e-07

layers.2.weight f4 [40, 50]
000000 48 9a b3 a6 04 d1 25 a8 f1 36 e5 27 c6 ff 87 a8
       -1.2462438e-15 -9.204663e-15 6.3619836e-15 -1.5098935e-14
000010 a0 86 e9 a6 d8 4b 6d 26 ed cb cb 27 d3 59 41 27
       -1.6204113e-15 8.232868e-16 5.6564915e-15 2.6832824e-15
000020 40 77 0a a7 30 e7 57 26 cd ad 48 a8 bc 34 70 b2
       -1.9215993e-15 7.4906427e-16 -1.1139917e-14 -1.3981829e-08
000030 12 03 08 a8 ce ae c7 36 5a 36 1a a7 3f 6b 48 a7
       -7.550182e-15 5.951012e-06 -2.1401257e-15 -2.7813714e-15
000040 8e 2b 1a 27 54 4e 46 35 34 e1 2a a7 4d 4a 34 28
       2.1395404e-15 7.387473e-07 -2.3714322e-15 1.0008119e-14
000050 90 0b 5b 26 d3 2f e6 a7 30 35 24 26 9d 5d a1 27
       7.599656e-16 -6.3889675e-15 5.697101e-16 4.4787972e-15
000060 42 c6 c8 a5 50 d0 4c 28 60 59 dc 25 82 1c e9 27
       -3.4828814e-16 1.13694454e-14 3.822448e-16 6.47014e-15
000070 f9 40 56 a8 71 c5 4f a8 aa 8f b2 a7 c4 e1 20 a8
       -1.1893475e-14 -1.1533622e-14 -4.9560685e-15 -8.930739e-15
000080 60 15 09 26 73 07 16 29 ba b7 6f 27 07 4f ad 27
       4.756039e-16 3.3313152e-14 3.3267511e-15 4.8102827e-15
000090 d6 75 10 a8 48 0e b9 a7 f0 b8 b5 27 9b 01 d0 b6
       -8.019157e-15 -5.13633e-15 5.04381e-15 -6.19907e-06
0000a0 5f 0d 88 a7 00 4d e5 27 12 62 fe a6 54 c3 ed 27
       -3.776208e-15 6.364375e-15 -1.7651373e-15 6.599249e-15
0000b0 7d 19 a1 27 fc ea a8 26 52 c1 22 a8 e1 93 16 28
       4.471411e-15 1.1721034e-15 -9.034726e-15 8.358739e-15
0000c0 2f c5 c2 a7 a7 16 1c a8 0a cd ec a7 a8 ad bd 34
       -5.4059604e-15 -8.6646515e-15 -6.5725462e-15 3.5330345e-07
0000d0 44 e6 0c 28 02 39 2e 32 84 f8 8b 26 f0 14 9f b2
       7.821492e-15 1.0141095e-08 9.712423e-16 -1.8519557e-08
0000e0 1c 6c 8e 27 20 7a 11 a7 95 e4 9b a7 d4 fa db 27
       3.953013e-15 -2.0188996e-15 -4.326897e-15 6.105666e-15
0000f0 46 08 9f a7 5c 55 c4 a7 a6 c5 cc 27 25 f2 a9 27
       -4.4140335e-15 -5.4493475e-15 5.6835665e-15 4.7169456e-15
000100 5b fa 9a 2d 90 ec 17 26 7d 4e 31 27 8a 5b 26 27
       1.7618953e-11 5.270925e-16 2.4606233e-15 2.3086751e-15
000110 0e a7 2f 28 dc 7d 31 a8 10 81 9a a6 c4 9f b0 27
       9.750676e-15 -9.852765e-15 -1.0720879e-15 4.902303e-15
000120 da c1 c7 a6 28 69 0e 26 30 f2 68 a7 18 3c 3b 27
       -1.3860942e-15 4.940866e-16 -3.2327758e-15 2.598404e-15
000130 ff 85 7d a7 70 10 8e 25 5c 38 84 27 d1 71 58 a7
       -3.5183443e-15 2.4644212e-16 3.6698465e-15 -3.0037722e-15
000140 18 2f 52 25 1d 8f a0 aa ae 0b 1f 27 c2 51 ac 27
       1.8230552e-16 -2.8521014e-13 2.2072014e-15 4.782823e-15
000150 a6 9d f4 26 16 22 5e a8 1a 84 1a 34 c4 f1 73 27
       1.6973632e-15 -1.2330867e-14 1.4390426e-07 3.3854086e-15
000160 b0 05 35 26 17 80 00 a7 10 3a a6 a5 72 3a 89 b8
       6.28047e-16 -1.7833006e-15 -2.8835754e-16 -6.543555e-05
000170 d8 b6 ee a7 4e ea fe a7 ad 79 1a 28 7d ab 1f 28
       -6.625651e-15 -7.0753196e-15 8.5751015e-15 8.863459e-15
000180 c6 72 05 27 87 63 91 a7 e8 25 ec 26 10 d9 77 a7
       1.8519677e-15 -4.0353492e-15 1.6386064e-15 -3.4395806e-15
000190 98 d3 1c 26 b0 a7 7c a7 a2 6f 77 a7 00 be 2e 25
       5.4410135e-16 -3.5062929e-15 -3.4338652e-15 1.5156469e-16
0001a0 18 dc 62 26 c7 7e 86 a7 9a d3 01 ae f0 c3 bd a7
       7.8707784e-16 -3.7329924e-15 -2.9519144e-11 -5.2670474e-15
0001b0 d8 44 e5 26 78 6d 96 a6 ba 5d 8c a7 c9 d6 82 27
       1.5908727e-15 -1.0438012e-15 -3.8959424e-15 3.631512e-15
0001c0 6a 76 4f 28 38 4a 45 28 84 99 8c aa 6a 6a 19 a8
       1.1516485e-14 1.095179e-14 -2.4975519e-13 -8.516281e-15
0001d0 32 e4 c7 a7 f5 2b 09 a8 80 62 55 a5 42 bf 48 b7
       -5.5481005e-15 -7.614559e-15 -1.8508178e-16 -1.196546e-05
0001e0 9c f1 f3 a7 f0 cc 2b a8 5d 76 96 a7 f1 94 56 28
       -6.7708002e-15 -9.536846e-15 -4.1761693e-15 1.1911683e-14
0001f0 a0 72 93 27 56 89 a9 27 41 e3 ec a7 e6 d1 43 27
       4.0924973e-15 4.7055823e-15 -6.5749548e-15 2.7175472e-15
000200 cd 62 7c a7 f3 ce a6 27 e4 d1 05 26 57 3d 22 28
       -3.5025585e-15 4.629863e-15 4.64281e-16 9.0061075e-15
000210 94 f2 7a 27 98 4a bf 34 0e 9b 4e 27 10 8d 60 28
       3.4825971e-15 3.5630796e-07 2.8672298e-15 1.2465086e-14
000220 02 2f 41 a7 f4 1e 05 a7 b3 c6 94 27 82 47 22 27
       -2.6809613e-15 -1.8474238e-15 4.129368e-15 2.252078e-15
000230 cc e4 94 36 e7 5c e5 a7 06 c1 1d 27 1d 6d b3 27
       4.437379e-06 -6.3660993e-15 2.1892765e-15 4.980078e-15
000240 1f b7 3d 27 5b c2 c6 a7 66 2a c8 a7 08 5f 0c 27
       2.632829e-15 -5.516676e-15 -5.555712e-15 1.948042e-15
000250 6e f9 7d 27 94 e4 8f a7 a4 a0 96 a9 02 3f b8 29
       3.524602e-15 -3.99383e-15 -6.689205e-14 8.1821716e-14
000260 d2 38 dc 28 7e e8 da a9 fd d6 af a9 4f 0f fa 29
       2.4449548e-14 -9.721476e-14 -7.808856e-14 1.1104886e-13
000270 cc d1 2f 29 10 57 8b a7 b4 4b aa a8 b2 48 6c a9
       3.9039776e-14 -3.8674643e-15 -1.8906622e-14 -5.246558e-14
000280 07 b4 46 a9 9f 82 79 29 04 57 50 aa b0 63 06 28
       -4.412098e-14 5.5402402e-14 -1.8504301e-13 7.4601105e-15
000290 e0 5d 46 32 60 88 bf 27 04 c3 a8 28 00 44 8c a5
       1.1546462e-08 5.3161007e-15 1.8736321e-14 -2.4332207e-16
0002a0 74 5f 2b 29 88 95 a8 28 d3 fa 28 aa f8 f6 1f aa
       3.805242e-14 1.8716596e-14 -1.500842e-13 -1.4207721e-13
0002b0 50 90 c2 26 8b 73 ce aa be 92 6b a9 4c 90 c2 b7
       1.350057e-15 -3.6673125e-13 -5.230776e-14 -2.3193796e-05
0002c0 3f 78 dd a9 6d b5 4d 2a 81 d0 88 a9 2b 72 bc ab
       -9.835231e-14 1.8270602e-13 -6.075783e-14 -1.3389891e-12
0002d0 00 4a 0e aa 6c 36 5b 29 85 97 ac 29 50 67 32 29
       -1.2637807e-13 4.8674972e-14 7.664619e-14 3.961355e-14
0002e0 06 a8 aa a7 95 ad 90 aa 32 22 8e a9 74 fa 27 aa
       -4.736665e-15 -2.5699985e-13 -6.311999e-14 -1.4919473e-13
0002f0 98 a8 4c aa ea ca 51 2a 90 0e c0 a8 78 8d af a8
       -1.8177332e-13 1.8633329e-13 -2.1322598e-14 -1.9490255e-14
000300 4a f0 25 a9 05 14 15 aa 7b 59 b5 a8 e4 2c 5e aa
       -3.6845777e-14 -1.3240804e-13 -2.0133843e-14 -1.9733135e-13
000310 ec fe 51 29 b7 a8 89 a9 20 52 89 27 98 b4 b3 28
       4.6628432e-14 -6.1132895e-14 3.811418e-15 1.9951312e-14
000320 91 f5 32 2a 73 75 9b 28 58 ec fe a7 7e ff 86 a7
       1.5894774e-13 1.7259392e-14 -7.0755406e-15 -3.7469477e-15
000330 dd 6c 26 2a c4 18 ce a7 58 01 d8 27 3d 0d f6 27
       1.4781531e-13 -5.7203337e-15 5.99535e-15 6.829307e-15
000340 9e c0 6f a9 a0 f2 43 27 a1 4f 17 28 60 d7 ae a8
       -5.323573e-14 2.7193214e-15 8.399451e-15 -1.9411285e-14
000350 0c 05 67 a7 3b cd 3f 29 9c cd a0 a6 9f e7 af 27
       -3.2060426e-15 4.258853e-14 -1.1157961e-15 4.882338e-15
000360 f0 4d c4 a8 2a 2f 22 28 84 81 9e 28 8c 1e 25 a9
       -2.1794171e-14 9.0030336e-15 1.7597692e-14 -3.6663855e-14
000370 14 23 6a 27 75 bc d6 a8 ef cd 82 28 2a 97 3d 27
       3.249304e-15 -2.3840503e-14 1.4522209e-14 2.6310965e-15
000380 20 2d 4c 29 da 61 c4 28 08 60 f3 27 24 89 6c a8
       4.533624e-14 2.1802808e-14 6.7550166e-15 -1.3130369e-14
000390 64 52 77 a7 fb b0 4b a7 d3 64 22 a8 f5 c0 29 a8
       -3.43228e-15 -2.826785e-15 -9.014669e-15 -9.4232254e-15
0003a0 94 5e 55 a6 e8 90 65 28 a7 14 f0 a8 54 d9 56 a8
       -7.4027397e-16 1.2743475e-14 -2.6654309e-14 -1.1926512e-14
0003b0 96 59 2e a9 dc 5c 02 a7 c0 0d 95 27 48 7b c2 a8
       -3.8713465e-14 -1.8091463e-15 4.1370715e-15 -2.1591791e-14
0003c0 a8 71 f5 31 98 2b ad 28 b5 18 cf 27 92 e0 fd a7
       7.1433597e-09 1.9225764e-14 5.748083e-15 -7.0465086e-15
0003d0 62 0e af a8 68 35 8c 28 2f 4a 7e a8 43 09 2c a8
       -1.943514e-14 1.5566284e-14 -1.4115918e-14 -9.549926e-15
0003e0 b0 d4 8c a6 00 96 87 27 60 c3 b1 25 04 b1 3c a7
       -9.7721e-16 3.7632657e-15 3.0836997e-16 -2.6186201e-15
0003f0 98 75 43 27 40 ca 3a 25 a6 cb ab a6 bc 09 0d a7
       2.7125434e-15 1.6201453e-16 -1.1920708e-15 -1.9572958e-15

layers.2.bias f4 [40]
000000 f4 ae 11 37 04 31 6f b7 35 c7 e0 b5 5a 65 a1 b7
       8.683408e-06 -1.4256922e-05 -1.6747277e-06 -1.9239891e-05
000010 19 8a 0d b7 33 92 3a 37 81 b4 ab b7 96 6c 2f 37
       -8.436408e-06 1.1120504e-05 -2.0468842e-05 1.0456095e-05
000020 1d 28 cc b3 b3 9d b1 37 b0 75 13 b5 2e ea 9f b7
       -9.506787e-08 2.1173479e-05 -5.4933025e-07 -1.9063325e-05
000030 6c 1a 92 36 90 48 1c 36 60 96 e8 b5 ea a6 5a b7
       4.354215e-06 2.3288048e-06 -1.7329112e-06 -1.3032675e-05
000040 8c 1b 1f b7 df a5 4b b7 a9 6a 5e b4 d4 c8 b9 32
       -9.483552e-06 -1.2138363e-05 -2.0714164e-07 2.162816e-08
000050 f4 98 19 b8 a2 ac 59 b5 7b 2e 97 37 28 33 06 34
       -3.662049e-05 -8.1090013e-07 1.8022247e-05 1.2498333e-07
000060 fe 81 8a 33 69 bd 84 b7 7f 13 75 b7 b0 7a fa b7
       6.449771e-08 -1.5823827e-05 -1.4607677e-05 -2.9859453e-05
000070 78 5d 8d 37 d0 45 91 b6 e9 c9 7c b8 c0 d4 8f 31
       1.6852035e-05 -4.329464e-06 -6.0269525e-05 4.1860346e-09
000080 ea a8 a5 b4 63 62 aa b6 6e 3b 3c b4 48 5d 89 37
       -3.0856546e-07 -5.0778485e-06 -1.7530485e-07 1.637511e-05
000090 3a 7e 3a b7 28 34 3e 37 76 d9 99 36 fc 50 41 b8
       -1.1115853e-05 1.1337026e-05 4.585071e-06 -4.609021e-05

layers.4.weight f4 [30, 40]
000000 80 e2 a4 a9 a5 64 9d af 64 27 91 2c fb bd 7f 2d
       -7.3223545e-14 -2.8629646e-10 4.125521e-12 1.4537256e-11
000010 44 a1 bc 2d e3 94 a5 b0 68 6e 64 ae 8c 7d 3c 36
       2.1444742e-11 -1.2047646e-09 -5.193926e-11 2.808726e-06
000020 fe f6 12 2f 17 aa 47 2e 86 dc 2a 2f 71 2e 37 ae
       1.3366372e-10 4.539843e-11 1.5539756e-10 -4.165063e-11
000030 88 cc 41 af 89 e1 a4 ac e6 5f 3c ae c0 4f 25 ab
       -1.7625912e-10 -4.6861998e-12 -4.2831426e-11 -5.873045e-13
000040 40 e0 fd ac 88 b6 a4 af a0 a2 43 ad 82 d7 a2 2e
       -7.2155892e-12 -2.9961122e-10 -1.1120577e-11 7.405189e-11
000050 c0 ae c8 ad 2d 48 59 ac 12 64 9f ae f1 71 9c 2d
       -2.2814972e-11 -3.087762e-12 -7.248259e-11 1.7785747e-11
000060 f8 12 3e 2d e0 6e c1 2e 5a ed 6a 30 c8 b2 cf 2c
       1.08044615e-11 8.796319e-11 8.5466e-10 5.9031426e-12
000070 3c c8 f1 ad 4c 89 5f ac 58 e5 7c ad de 75 9b 2d
       -2.748745e-11 -3.1766421e-12 -1.4375466e-11 1.7673803e-11
000080 24 41 47 2e 59 c2 2c 2f 10 df 34 2d 64 bc 6d 2d
       4.5305218e-11 1.5712355e-10 1.0281345e-11 1.3513721e-11
000090 50 61 a3 b6 00 68 51 2c dc e1 92 2d 3d 78 48 ad
       -4.869107e-06 2.9758418e-12 1.669858e-11 -1.1395382e-11
0000a0 36 f2 45 ae 94 17 4d ad 5c e5 ef ad 68 01 98 ac
       -4.500774e-11 -1.1658136e-11 -2.727301e-11 -4.320256e-12
0000b0 18 93 ef 2d a0 97 8a 2b 40 a8 d3 aa 8b 7f a7 38
       2.7236477e-11 9.847574e-13 -3.7597876e-13 7.986937e-05
0000c0 dc 1e 81 2e a6 85 12 2e 00 23 17 2c 1e d9 08 2e
       5.8717226e-11 3.331526e-11 2.147782e-12 3.111566e-11
0000d0 a1 a9 f8 2d c6 24 96 2d 36 32 92 2c fe 6e d3 2d
       2.8269666e-11 1.7069356e-11 4.155144e-12 2.4037213e-11
0000e0 35 75 15 2d 78 08 c7 ad fa d7 be ae da 58 ae 2e
       8.495695e-12 -2.2627442e-11 -8.678565e-11 7.928387e-11
0000f0 4a 95 01 ae c8 e9 80 ad a9 1a 32 2d 94 68 20 2e
       -2.94638e-11 -1.4655735e-11 1.0124048e-11 3.6472672e-11
000100 66 98 3d af 08 f8 8d 2b a8 67 08 ae 04 61 a3 2c
       -1.7243593e-10 1.0087495e-12 -3.1014885e-11 4.6435095e-12
000110 e0 89 26 ac 62 2a 5e 2d a8 51 0b 2d e4 c1 cd ad
       -2.3666555e-12 1.262865e-11 7.9193666e-12 -2.3391906e-11
000120 a4 24 7e 2d 68 66 81 ae de 95 a1 ae f1 57 d4 ad
       1.4446364e-11 -5.884432e-11 -7.348054e-11 -2.4140663e-11
000130 2e 47 40 ad 7b 64 28 2d c7 24 73 ae 12 a7 b4 2d
       -1.09297415e-11 9.5720055e-12 -5.5284468e-11 2.0537825e-11
000140 ec 75 00 ac ec 89 43 2c 2f f8 20 2c 62 2b 24 2c
       -1.8255354e-12 2.7787729e-12 2.2875137e-12 2.3329884e-12
000150 70 f7 85 ac 24 7f 74 2e 9a 1f 2a 2c 9a 6b 83 35
       -3.8075584e-12 5.55921e-11 2.4175995e-12 9.791577e-07
000160 68 b1 93 2c c7 e4 11 ad a5 31 68 2d 16 80 6b ac
       4.1976873e-12 -8.2930945e-12 1.31986965e-11 -3.346661e-12
000170 f8 2b 3c ad fe 65 4c 2b 3c 51 77 2c c5 c3 76 2d
       -1.0696326e-11 7.26169e-13 3.5145905e-12 1.4026951e-11
000180 90 11 0a ac 00 4a aa 28 96 6c fe 2c 9b 0b 2e ad
       -1.9620729e-12 1.8905884e-14 7.2311697e-12 -9.893332e-12
000190 c1 38 da ac 60 03 c3 2b 9b 12 a8 ab cb de 8d 2d
       -6.2022336e-12 1.385652e-12 -1.1942282e-12 1.6128784e-11
0001a0 38 82 72 2c 80 f3 98 2c fe b1 2b 2d a8 30 00 2e
       3.4462554e-12 4.3471338e-12 9.759747e-12 2.9147046e-11
0001b0 0c 81 b7 ac d1 fb 1e 2d 48 0b 0f 2d 78 bf a7 ac
       -5.2155e-12 9.037175e-12 8.131114e-12 -4.7676828e-12
0001c0 2e 28 1b ad ed 97 d7 2c 87 62 29 2e 70 2a 95 29
       -8.819652e-12 6.1275347e-12 3.851366e-11 6.624291e-14
0001d0 fc 50 bc ac 30 f0 58 2b 7a 19 76 2e 04 af 1b 2d
       -5.3522724e-12 7.707194e-13 5.5956552e-11 8.849591e-12
0001e0 22 f8 de 2c 16 b9 b3 ad 2f 3f 00 37 c0 ff 4d 2a
       6.3371678e-12 -2.0432139e-11 7.644106e-06 1.8296389e-13
0001f0 47 5d a3 ac 28 e6 c7 31 14 b4 12 2d 50 1d 03 2c
       -4.6430945e-12 5.817828e-09 8.3391245e-12 1.8632491e-12
000200 60 d5 8a ad 50 5d 81 2c 82 e9 39 2c f4 80 58 ad
       -1.5783541e-11 3.6767603e-12 2.6419704e-12 -1.2306812e-11
000210 32 43 f0 2e ef 1d 58 ad d7 8d 89 2d 02 2f 0d ac
       1.0925873e-10 -1.2284825e-11 1.5638086e-11 -2.00634e-12
000220 54 69 07 2f 1c 07 5c ae 6a bf bd 2c 99 43 e4 ad
       1.2315599e-10 -5.0028523e-11 5.3929543e-12 -2.5950618e-11
000230 00 33 26 a9 91 7f d2 2c 6a 53 10 ae 8f 5d 1e 2d
       -3.690364e-14 5.9827217e-12 -3.2815896e-11 9.002034e-12
000240 77 9c a8 2e 90 c8 ba 2c 71 6a 08 2f 94 66 fe ac
       7.667549e-11 5.308705e-12 1.2406944e-10 -7.2305027e-12
000250 5b 60 ad 2c c8 d1 dd 2b bc bb 7e ad f6 6a 0d ad
       4.9276533e-12 1.576122e-12 -1.4479914e-11 -8.038672e-12
000260 ae ce 4b 2d 70 af 18 2d 00 bb ad ac 82 af 96 ac
       1.1585106e-11 8.679155e-12 -4.937717e-12 -4.2827417e-12
000270 a4 72 fd 2d a0 70 90 ab 08 7b 52 ad 52 f5 99 ac
       2.881368e-11 -1.0263075e-12 -1.1964436e-11 -4.3757576e-12
000280 bb 89 9c b4 c8 d5 48 2d 54 8a 19 2d cd 20 10 2e
       -2.9157476e-07 1.1416153e-11 8.727758e-12 3.2770942e-11
000290 6d df 80 2c 5a e9 8a af 14 9b 99 2c e0 2c d8 ac
       3.662784e-12 -2.526786e-10 4.3657387e-12 -6.1440714e-12
0002a0 b0 ba a4 ad 6f cb 99 2d 30 05 d5 ae c1 00 ba 2e
       -1.8727547e-11 1.7484429e-11 -9.68704e-11 8.4584346e-11
0002b0 11 24 2b af cc 9e d9 34 c3 87 e4 2b ef 00 e5 ad
       -1.5565173e-10 4.053494e-07 1.6238056e-12 -2.60347e-11
0002c0 8b 04 e7 2e c8 0f ac 2c 92 46 58 ae 36 52 95 ae
       1.0505471e-10 4.890286e-12 -4.9175393e-11 -6.790339e-11
0002d0 26 16 0b b4 04 b3 03 ae 6c 2f 43 ae a8 7c 60 ad
       -1.2953441e-07 -2.994495e-11 -4.4379986e-11 -1.2760605e-11
0002e0 9a 43 38 af 69 e5 5a ae 18 ae 99 ae 8a 02 e2 ae
       -1.675872e-10 -4.977122e-11 -6.98856e-11 -1.0277741e-10
0002f0 38 54 a6 ad 42 cc 30 2e d0 6e 62 b3 b7 8d 07 2e
       -1.8909416e-11 4.0199184e-11 -5.272051e-08 3.0821314e-11
000300 52 b2 85 ae 8d a9 3d af a1 8d b5 2e 26 11 5b 2e
       -6.079816e-11 -1.7249686e-10 8.2560854e-11 4.9810066e-11
000310 a0 99 3f 2c ca 66 92 2d 2e 85 65 af 80 9b 04 ab
       2.7228012e-12 1.6643926e-11 -2.0874744e-10 -4.711162e-13
000320 4a ea 8d ad 5c d3 8d 2d 18 b2 4f ae d0 0c ac 2d
       -1.613389e-11 1.6123707e-11 -4.722453e-11 1.9559826e-11
000330 fc 67 fa 2d 50 15 4b ae 72 25 c1 ad ac 54 2c ae
       2.8467888e-11 -4.6175785e-11 -2.1958189e-11 -3.9183476e-11
000340 22 ea c1 ae 32 32 e3 2d 8f 0f c5 2e 36 0f f0 2d
       -8.818214e-11 2.5829203e-11 8.9612866e-11 2.7291596e-11
000350 b3 2e 04 ae bd 8e b8 ae 95 78 30 ae 30 67 ad 2e
       -3.0054802e-11 -8.392707e-11 -4.0124865e-11 7.885459e-11
000360 e2 3f 96 ad 60 e5 cb ae c2 8b 96 2e 48 b3 2c 2f
       -1.7081395e-11 -9.2721164e-11 6.846036e-11 1.5707002e-10
000370 94 f9 8a b4 af 0d cd 35 d6 d9 99 ae 70 5a ca af
       -2.5886095e-07 1.5277673e-06 -6.99633e-11 -3.6807846e-10
000380 9b 7d 96 ae 47 d3 32 ae 8e e0 55 af 92 af 0a 2c
       -6.843522e-11 -4.0660166e-11 -1.9452015e-10 1.970844e-12
000390 87 9d 77 2d ec b9 4c ad 82 71 bf 2e 0e e2 20 ae
       1.40753026e-11 -1.163734e-11 8.7058374e-11 -3.6580565e-11
0003a0 b0 10 43 ad 52 b5 28 af 68 1f b9 ad 34 ee e7 2d
       -1.1088172e-11 -1.5343929e-10 -2.1046012e-11 2.6367443e-11
0003b0 b9 91 e8 2f 70 63 8d ac 85 8e 90 ae 21 55 fd ac
       4.2304096e-10 -4.018501e-12 -6.5736784e-11 -7.2001437e-12
0003c0 40 11 c7 2b 0f 16 09 2e f2 00 ed 2e 97 0c f6 ad
       1.4144588e-12 3.1169786e-11 1.077768e-10 -2.7972553e-11
0003d0 f2 8c 29 2d d2 7e ec 2f a8 cf fe 2c 33 8d 17 ae
       9.637834e-12 4.301826e-10 7.2421687e-12 -3.4458835e-11
0003e0 90 80 b7 af 94 ca 66 af 24 1c df 2e 20 5a b8 ac
       -3.3378855e-10 -2.0990348e-10 1.0145865e-10 -5.2396004e-12
0003f0 76 77 90 ae 23 14 df 2d 48 76 9e ac c0 38 db 2d
       -6.5695824e-11 2.5361107e-11 -4.503762e-12 2.492262e-11

layers.4.bias f4 [30]
000000 6f 92 79 b7 cd e4 60 b6 2d ed 39 b3 ec 86 19 36
       -1.4875651e-05 -3.351178e-06 -4.328938e-08 2.2877311e-06
000010 27 59 2a b6 c6 2a be b5 df a0 24 37 54 a0 ba b4
       -2.5383868e-06 -1.4168552e-06 9.8126175e-06 -3.4761854e-07
000020 ae cf 3e 37 58 26 37 b6 be cd d2 35 30 ac f5 b7
       1.1373237e-05 -2.7291444e-06 1.5706098e-06 -2.9286457e-05
000030 b9 9f 2b 37 36 48 46 36 07 21 41 b5 10 92 49 b6
       1.0229583e-05 2.9546331e-06 -7.1946164e-07 -3.0036354e-06
000040 4f 5b 26 37 5e 67 f8 35 0b 12 d2 b6 3c a7 90 36
       9.9156305e-06 1.8507524e-06 -6.260588e-06 4.311003e-06
000050 16 51 c5 34 00 fb 1c 38 1c 41 28 36 2c 34 df 35
       3.6753107e-07 3.742706e-05 2.507185e-06 1.6629979e-06
000060 63 8b 97 36 74 5c db 37 fa ab bb 36 8f f8 ed b4
       4.5163774e-06 2.6149886e-05 5.593055e-06 -4.432554e-07
000070 80 e3 03 34 0a 43 1e 37
       1.228309e-07 9.433143e-06

layers.6.weight f4 [25, 30]
000000 db 80 96 2e dd 6d 81 30 7f 86 20 b1 bd 37 21 ad
       6.8440996e-11 9.41721e-10 -2.3359517e-09 -9.164167e-12
000010 40 ab 42 2c 91 1e f1 af 44 b1 15 31 27 1a 4a ae
       2.766412e-12 -4.3859363e-10 2.1783118e-09 -4.595271e-11
000020 c2 d2 63 ae 22 3b 7e b1 00 2c 29 2d bc 8d 26 ac
       -5.1801015e-11 -3.6995478e-09 9.616308e-12 -2.3668697e-12
000030 84 ba 7e 30 fe d5 39 2f 80 63 0a ad 1e 9d d6 ab
       9.2669716e-10 1.6901677e-10 -7.866485e-12 -1.5249223e-12
000040 08 86 64 2d 42 67 1d ae e3 aa ac ad 9e 71 a7 af
       1.299006e-11 -3.578938e-11 -1.9630025e-11 -3.0457853e-10
000050 13 d3 7c ae a9 d4 48 ad 82 26 2b 2d 18 a7 03 2f
       -5.7485638e-11 -1.1415904e-11 9.728775e-12 1.1973744e-10
000060 2b ff c5 ad f9 c4 a9 30 67 1d 25 ac a2 5f b3 b1
       -2.2509624e-11 1.2352351e-09 -2.3464232e-12 -5.220458e-09
000070 d6 ee e8 ae ff 90 76 2e ac 4d 1a 36 d8 da 88 a7
       -1.0592564e-10 5.6062707e-11 2.2993e-06 -3.7984854e-15
000080 c0 12 be 25 f0 4c 88 a6 40 c5 cd a5 be cc ad a7
       3.2972452e-16 -9.45775e-16 -3.5695493e-16 -4.8239128e-15
000090 fe d0 d0 27 24 1e 72 a7 f0 8d 52 27 7f 46 7c 27
       5.7958187e-15 -3.3600586e-15 2.9220299e-15 3.5010241e-15
0000a0 de f7 56 28 d2 c9 60 a8 ad e7 3e 28 a9 f2 2a 28
       1.1933134e-14 -1.2478261e-14 1.0597355e-14 9.489514e-15
0000b0 93 76 06 28 ca 9e 18 a8 d0 bf 16 26 ba f1 ff 27
       7.464206e-15 -8.472127e-15 5.230166e-16 7.10388e-15
0000c0 8c 57 ea 26 74 3c 2c a8 22 95 07 28 21 67 21 a8
       1.6260741e-15 -9.561027e-15 7.5263434e-15 -8.959658e-15
0000d0 50 68 eb 27 cc c8 87 27 48 dc 25 26 ac d9 fb a6
       6.53387e-15 3.768773e-15 5.754441e-16 -1.7475624e-15
0000e0 0b 24 32 28 b3 05 59 28 0b f0 cc a7 da 2b 2b a7
       9.8888005e-15 1.2047156e-14 -5.688163e-15 -2.375479e-15
0000f0 90 3e 85 35 2c e1 49 ae 44 b9 16 2b bc 89 23 af
       9.92748e-07 -4.59021e-11 5.3547813e-13 -1.4873697e-10
000100 97 8b 28 ae 3e e2 75 2f 20 b1 08 b0 78 b1 33 2c
       -3.8322758e-11 2.2362998e-10 -4.972822e-10 2.5535945e-12
000110 db 41 a3 b0 10 e8 ac 2f 80 7e 6c 2d b6 fe 10 30
       -1.1878528e-09 3.1451508e-10 1.34431355e-11 5.274886e-10
000120 4c 69 fb 2f 00 54 33 2f 0d 34 00 ae 2a fa b2 2e
       4.5731452e-10 1.6309798e-10 -2.915006e-11 8.138941e-11
000130 98 9f d8 af 99 9f 39 af 16 be 21 30 25 d1 15 31
       -3.940357e-10 -1.6882352e-10 5.8841587e-10 2.1801239e-09
000140 6c 25 96 ae 40 f1 ee af 02 a3 8a ad 86 8f 93 2f
       -6.827858e-11 -4.3463366e-10 -1.5761174e-11 2.6841124e-10
000150 0c 05 04 ae e3 83 59 30 82 08 06 30 8c 51 b1 ac
       -3.0017808e-11 7.913156e-10 4.8761006e-10 -5.039696e-12
000160 b0 f8 b0 b0 00 8f ce 2e 4c c3 28 2d 14 98 31 ab
       -1.2876367e-09 9.393197e-11 9.593059e-12 -6.3094083e-13
000170 00 f4 c3 27 d8 48 32 ab fa 8d b9 2b 54 31 aa 2a
       5.4387918e-15 -6.3339394e-13 1.3184447e-12 3.0232295e-13
000180 5f d4 1f ad 58 0a 35 2a e9 4a 06 ae 53 a7 cc ad
       -9.0852595e-12 1.6079618e-13 -3.0534606e-11 -2.3266422e-11
000190 00 f8 33 ad ec ff c0 ac 88 e9 95 ab 13 d9 29 2d
       -1.0230039e-11 -5.4853812e-12 -1.0651905e-12 9.654738e-12
0001a0 68 8f d0 2b 66 48 80 2d 86 d3 c2 ac 31 99 78 2b
       1.4819092e-12 1.4584067e-11 -5.5372954e-12 8.8319895e-13
0001b0 78 c8 7e ad e0 39 e3 2c 31 93 4d ab 80 42 8c 2a
       -1.4482741e-11 6.4581535e-12 -7.30349e-13 2.491514e-13
0001c0 5f 5d 39 ac 9f be 38 ac 3c c1 b8 ab 02 76 3f 2e
       -2.6341913e-12 -2.6253789e-12 -1.312762e-12 4.3533184e-11
0001d0 60 10 14 ac dc a9 48 2a 08 31 2f 2d 49 72 e7 ac
       -2.1041155e-12 1.78225e-13 9.958485e-12 -6.578103e-12
0001e0 65 a0 3f 37 05 8c 88 35 04 b1 92 34 2e dc 33 36
       1.1421832e-05 1.0173541e-06 2.7323415e-07 2.680124e-06
0001f0 ec c1 56 35 4c e7 58 36 3a 90 3e b6 0c 14 d3 b4
       8.0003406e-07 3.232114e-06 -2.8396157e-06 -3.93164e-07
000200 a5 a7 14 37 00 fb a5 b4 09 e0 bb b6 1c 51 da b7
       8.86052e-06 -3.0916271e-07 -5.5991154e-06 -2.6025395e-05
000210 ef 28 10 b7 b5 34 6e b7 83 35 55 35 a0 ae 8c b4
       -8.592599e-06 -1.4198177e-05 7.9426553e-07 -2.6204088e-07
000220 a5 92 02 b8 f6 00 2a b6 06 67 93 35 fc d1 e9 b7
       -3.113099e-05 -2.5332533e-06 1.0982337e-06 -2.7873546e-05
000230 b8 70 c0 34 f9 99 27 38 69 23 0b b6 42 d8 b3 b6
       3.58448e-07 3.99593e-05 -2.0733225e-06 -5.3597914e-06
000240 0a 09 23 b6 fa de f3 b7 d0 d0 74 b5 70 00 57 35
       -2.4294154e-06 -2.9071689e-05 -9.1200945e-07 8.009438e-07
000250 24 8e c3 b7 fa 3e d5 b5 b7 06 98 27 14 45 20 a7
       -2.3312e-05 -1.5888065e-06 4.2195755e-15 -2.2241908e-15
000260 26 dd f0 a7 3a 40 b2 a8 d4 94 15 28 01 02 92 a7
       -6.685315e-15 -1.9789824e-14 8.3034335e-15 -4.0525313e-15
000270 05 3c db 27 93 71 33 a7 aa 5f 34 27 16 38 82 26
       6.0849784e-15 -2.4902809e-15 2.5031878e-15 9.035764e-16
000280 54 c1 15 28 12 d2 75 28 dc 15 ff 27 f4 d9 ef 26
       8.313083e-15 1.3645784e-14 7.0800418e-15 1.6643033e-15
000290 4e c1 40 27 99 7c 69 a8 18 b8 78 27 f0 de db a7
       2.6750143e-15 -1.2961116e-14 3.4516711e-15 -6.102642e-15
0002a0 ee 88 42 a8 cf 76 45 27 6c 63 45 26 58 91 15 a6
       -1.0798855e-14 2.7403648e-15 6.8482847e-16 -5.1891737e-16
0002b0 f8 4c 15 a8 70 ad 02 26 c1 29 09 a7 e4 9c 04 28
       -8.2878515e-15 4.533786e-16 -1.9035204e-15 7.361492e-15
0002c0 4a d8 ed a7 e8 77 03 a8 ca 63 87 27 2f 1e 70 28
       -6.6015215e-15 -7.297961e-15 3.757822e-15 1.3329221e-14
0002d0 da e4 45 ab 3f 79 7c 29 13 c0 26 a8 10 95 64 a8
       -7.0306055e-13 5.6060405e-14 -9.2565006e-15 -1.2688865e-14
0002e0 16 fa ab aa 64 30 e7 29 ce 94 b5 a9 42 99 ca a8
       -3.0549234e-13 1.0266855e-13 -8.063828e-14 -2.249297e-14
0002f0 70 c0 89 aa 3c 03 b3 2a 2c f5 73 a9 f4 74 bd aa
       -2.446962e-13 3.1799032e-13 -5.4169492e-14 -3.3654297e-13
000300 4e c4 87 2a f3 cb d9 aa 2a 6e 98 a8 3d f8 d4 aa
       2.411703e-13 -3.8688462e-13 -1.6923166e-14 -3.7831015e-13
000310 39 2d 4a 2a ff 22 18 29 e9 c9 d2 aa d0 66 9e aa
       1.7956894e-13 3.3781134e-14 -3.7443597e-13 -2.8137779e-13
000320 bc c0 31 a7 50 a2 ae aa bc a5 06 aa 62 b3 2f 2a
       -2.4668166e-15 -3.1021236e-13 -1.1959091e-13 1.5605358e-13
000330 65 af 08 2a 9c a0 15 ad 58 06 1c 2a 84 aa a7 a8
       1.2140079e-13 -8.505332e-12 1.3857784e-13 -1.8614674e-14
000340 d0 17 32 ab 62 bb 91 a8 3d 42 18 33 0c d6 97 b1
       -6.327135e-13 -1.6179498e-14 3.54505e-08 -4.4190127e-09
000350 00 7b 99 af 5f 31 01 31 74 2c f7 31 8e d7 a7 b1
       -2.7917935e-10 1.8800035e-09 7.1937e-09 -4.8848454e-09
000360 58 f1 01 34 cc 8e 3b 31 1b 27 27 b3 1f 44 bc 32
       1.2101862e-07 2.7293252e-09 -3.8918284e-08 2.1917058e-08
000370 62 4e e2 b2 27 6e 99 b2 c0 82 22 b4 af 7d 2d 33
       -2.6345507e-08 -1.7861636e-08 -1.5134992e-07 4.039401e-08
000380 6a 19 26 b2 78 52 21 b2 a7 ec 07 34 65 e2 18 32
       -9.66825e-09 -9.390185e-09 1.2658948e-07 8.899041e-09
000390 08 ff 22 b3 c8 08 8d 34 d8 05 28 b2 47 42 bd b4
       -3.7950514e-08 2.6269686e-07 -9.780216e-09 -3.5252216e-07
0003a0 e4 79 22 b5 a9 61 ad b2 68 d5 88 b1 62 5e 35 33
       -6.0527077e-07 -2.0184261e-08 -3.9823824e-09 4.2228187e-08
0003b0 2a e7 f9 b2 90 ec e6 30 f5 1e b6 33 6f cc a8 33
       -2.9092536e-08 1.6801938e-09 8.4806665e-08 7.860296e-08
0003c0 ec 38 83 27 72 8f da 27 62 fe c8 a6 00 d4 6a a7
       3.642152e-15 6.066268e-15 -1.3946738e-15 -3.2588949e-15
0003d0 66 cb 87 27 8a 61 77 27 07 26 4c 27 60 95 a5 a5
       3.769055e-15 3.4331012e-15 2.8331302e-15 -2.8724158e-16
0003e0 68 a2 fa a6 73 5b 05 27 ce 45 c8 a7 a0 0b 8f 28
       -1.7391255e-15 1.8507033e-15 -5.5586834e-15 1.588123e-14
0003f0 7a c1 1b a8 f4 8a c2 26 20 4e 7b 26 8a 5a d1 a7
       -8.646182e-15 1.3499117e-15 8.7189e-16 -5.8107316e-15

layers.6.bias f4 [25]
000000 b6 e5 1e b4 f6 1d e8 b7 8d e1 b2 35 52 8d f3 b2
       -1.4798465e-07 -2.7670507e-05 1.3327677e-06 -2.8353188e-08
000010 03 a3 c1 b9 9c 97 ad b8 63 5f 14 b0 f6 2f b1 37
       -0.00036933282 -8.277522e-05 -5.397764e-10 2.1122378e-05
000020 27 99 36 b8 a3 82 8e b0 e3 7e 5c ba 48 c2 1d b4
       -4.3534816e-05 -1.0368989e-09 -0.00084112416 -1.4692444e-07
000030 43 a8 e5 bb a9 1e 42 30 6b 26 af b6 78 1f f4 2d
       -0.0070085838 7.062036e-10 -5.219879e-06 2.7753563e-11
000040 eb af a3 b9 74 a0 16 b4 94 60 05 b9 5e 1b e1 b6
       -0.00031220852 -1.4028211e-07 -0.00012719847 -6.7087085e-06
000050 a8 6b 8c b2 20 ab 99 b3 a9 bb 5e b5 74 48 8f b9
       -1.6347101e-08 -7.155745e-08 -8.2974526e-07 -0.00027329067
000060 e7 02 28 b6
       -2.503564e-06

layers.8.weight f4 [10, 25]
000000 14 6d 07 33 d7 04 20 ac 7a 5f ee 35 31 f1 88 b1
       3.1531343e-08 -2.2740054e-12 1.7760169e-06 -3.9855412e-09
000010 fb 88 d1 bb c6 d8 f7 2b 9b f4 a9 ae f2 cb 3a 37
       -0.006394503 1.7610572e-12 -7.728681e-11 1.1133949e-05
000020 ae 54 96 a9 f2 b9 f1 2f 42 f8 4b ae 7a d0 10 ab
       -6.676028e-14 4.3969767e-10 -4.6377353e-11 -5.1448396e-13
000030 9a 2f 90 bb f6 81 c2 30 bb 94 cd 2b b8 cc 52 2d
       -0.004400206 1.4152295e-09 1.4607407e-12 1.1982575e-11
000040 74 52 bf 38 c2 c6 e7 a9 31 9f 06 b6 be 29 2c 2b
       9.122948e-05 -1.029294e-13 -2.0060218e-06 6.1164604e-13
000050 4e 05 03 31 dd f3 e6 31 1b 46 ef 2b 4f d4 df b7
       1.9066024e-09 6.721605e-09 1.700143e-12 -2.6682535e-05
000060 b3 eb d6 a9 f2 07 3f 32 e5 11 22 2c 1e 31 93 b5
       -9.5443964e-14 1.111947e-08 2.3031518e-12 -1.0966648e-06
000070 4d 16 64 30 1d b0 b5 3b fc 3f ce 29 66 ee 17 ad
       8.297761e-10 0.005544676 9.159337e-14 -8.636291e-12
000080 e4 e2 3b b5 b4 ce 82 2a 1b 79 48 2e de 8f 34 b5
       -6.99931e-07 2.3236068e-13 4.55823e-11 -6.726458e-07
000090 6d 70 e8 ab 44 31 84 3c 8f 66 c5 af 59 cc d1 aa
       -1.6515796e-12 0.016136773 -3.5906964e-10 -3.7267653e-13
0000a0 01 ee b8 2c af b7 cd b8 34 7e 11 ab ae 54 c6 b5
       5.2560183e-12 -9.8093755e-05 -5.168949e-13 -1.4776795e-06
0000b0 24 d6 18 2a db b4 ff af d2 8c e7 31 5f f4 43 2c
       1.3574607e-13 -4.6512735e-10 6.7389943e-09 2.784682e-12
0000c0 ad 95 1b 38 e7 08 2d ab 2b 79 29 33 a9 1d 0a ad
       3.7094276e-05 -6.14743e-13 3.945858e-08 -7.850978e-12
0000d0 e8 c1 00 b6 78 87 10 31 d3 8d 07 bc 6c a4 c4 2c
       -1.9186355e-06 2.1031763e-09 -0.00827356 5.5889095e-12
0000e0 1a d6 fd 2e a3 d8 fb b6 12 9c a7 2a f0 99 1f b0
       1.154314e-10 -7.5056028e-06 2.9773455e-13 -5.806262e-10
0000f0 38 12 58 b3 35 f5 bc 2b b8 d9 dd 3a 5b 51 ee b0
       -5.030799e-08 1.3426262e-12 0.0016925847 -1.7339902e-09
000100 93 a3 23 2c 85 87 63 ad f6 ee bf b7 5b 05 07 2a
       2.3254495e-12 -1.29335475e-11 -2.288025e-05 1.1992267e-13
000110 5a 06 91 36 11 55 b5 2c 79 38 05 30 76 ab 00 31
       4.322076e-06 5.1537737e-12 4.846537e-10 1.8723916e-09
000120 9b 11 c2 ab 3c 4b 2c 38 05 b7 82 aa de 22 6d b3
       -1.3789416e-12 4.1078063e-05 -2.3219634e-13 -5.5212574e-08
000130 0d c2 21 af f4 61 0d 35 a7 c0 dc 30 cd c2 e9 bb
       -1.4711805e-10 5.2669134e-07 1.6061862e-09 -0.0071338178
000140 e9 66 98 ad f5 e3 4c 2e 26 30 2e 37 8c f9 e6 aa
       -1.73261e-11 4.6586696e-11 1.0382419e-05 -4.1029365e-13
000150 44 bf b6 af 1a 23 0e 34 f7 75 d8 2b 9a 82 67 bc
       -3.324151e-10 1.323755e-07 1.5380465e-12 -0.014130259
000160 7c 90 a8 b0 b9 b2 56 2e b0 48 c2 2d a0 ba dc b8
       -1.2264674e-09 4.8816704e-11 2.2087526e-11 -0.00010525179
000170 c6 70 ee a9 d9 55 6f b6 36 ae c5 2b fc ca 89 b0
       -1.0588886e-13 -3.5663745e-06 1.4046045e-12 -1.0025754e-09
000180 2b 2d 0c b1 a8 40 42 2c 6c 58 f1 35 d6 0b 6d ac
       -2.0398356e-09 2.760495e-12 1.7981633e-06 -3.3686296e-12
000190 40 68 82 32 5a 42 3d 30 c8 50 37 36 5c cc 6d 31
       1.51814e-08 6.885209e-10 2.7316146e-06 3.4604204e-09
0001a0 3c 6b ae bb 90 27 87 29 a9 26 1a 2f d5 db ff b6
       -0.005322842 6.002067e-14 1.4019953e-10 -7.625184e-06
0001b0 52 55 c7 aa 39 ea ae af 4e 41 dc b3 0c e6 b6 2b
       -3.5408704e-13 -3.181684e-10 -1.0256427e-07 1.2995729e-12
0001c0 22 e1 ac bb 42 15 20 31 46 a8 48 ae ae de 38 2e
       -0.0052758614 2.3295148e-09 -4.5624192e-11 4.2034536e-11
0001d0 08 23 35 39 12 d5 c2 29 71 07 72 34 6f 64 d2 ab
       0.00017274555 8.6522925e-14 2.2540713e-07 -1.4949273e-12
0001e0 aa d3 e0 30 82 b8 81 31 f3 1c b2 ac 13 14 5c b8
       1.6358304e-09 3.7753702e-09 -5.0622783e-12 -5.2470783e-05
0001f0 74 7e e3 2c 34 af 35 b2 f6 c2 ba 2b f4 66 16 35
       6.465767e-12 -1.0575423e-08 1.3270207e-12 5.602917e-07
000200 bc 5b 4d b0 29 5f bd 3c 94 59 be 2c 7c 4c 0b ad
       -7.470893e-10 0.023116665 5.41007e-12 -7.918218e-12
000210 ad 81 11 b7 27 f8 67 2a 01 7f 62 b0 3e 13 31 31
       -8.672866e-06 2.0603017e-13 -8.2398804e-10 2.5767828e-09
000220 ff 76 a9 ab 9a b1 11 3c 07 36 cb 2f ad 56 9a 2a
       -1.20412e-12 0.008892441 3.6963874e-10 2.741604e-13
000230 f4 15 11 ad 34 56 2d b8 e4 ed 94 2a 75 de 84 35
       -8.24717e-12 -4.1326697e-05 2.645515e-13 9.89951e-07
000240 ba 81 49 ac 84 64 ad b0 4f 90 a5 b1 f6 f9 6f ab
       -2.863583e-12 -1.2615975e-09 -4.818538e-09 -8.525675e-13
000250 00 c6 c6 37 d2 3d 05 29 32 5b 87 b2 f2 e5 3e 2d
       2.369564e-05 2.9585553e-14 -1.575754e-08 1.0851308e-11
000260 29 8f 16 b4 d3 50 fa 2f 34 ad cc ba 9a 38 6f 2a
       -1.402192e-07 4.5532164e-10 -0.0015615583 2.1247102e-13
000270 18 af 15 2c 73 c8 6b 36 92 a7 0e aa 5e 16 6e 30
       2.127137e-12 3.5134406e-06 -1.2670271e-13 8.661568e-10
000280 af d6 73 b4 82 23 55 ac 55 bb 3a bc 6c 28 35 af
       -2.270924e-07 -3.0288831e-12 -0.0113972025 -1.6476215e-10
000290 d4 54 8f ac 94 12 39 ac b4 7f df b7 b6 7e 64 ab
       -4.0737223e-12 -2.6300394e-12 -2.6643138e-05 -8.117772e-13
0002a0 c8 21 f1 34 9b cf b9 2b 55 8b 3d 31 22 d9 3f 30
       4.4914327e-07 1.3202663e-12 2.758232e-09 6.979396e-10
0002b0 cc 52 a6 2c 57 94 9a 37 c2 80 e7 ab fc f9 e1 32
       4.727196e-12 1.8427307e-05 -1.6449275e-12 2.6307127e-08
0002c0 19 06 bd 2c e1 8b 80 b4 db b8 8b b0 84 8f 40 b9
       5.37238e-12 -2.3943633e-07 -1.016612e-09 -0.0001836401
0002d0 d0 49 39 29 43 43 ef ad 07 33 43 37 64 43 da 2a
       4.1142274e-14 -2.7201024e-11 1.16347865e-05 3.877134e-13
0002e0 19 55 25 af b7 3d 54 32 c8 17 84 2b 04 3f 31 3b
       -1.5036895e-10 1.23540564e-08 9.385765e-13 0.0027045617
0002f0 16 db 3b 30 b6 8b ec ab f1 de 3d 2d a6 0e a2 38
       6.8341544e-10 -1.6807586e-12 1.0792909e-11 7.7274904e-05
000300 fb 78 c2 2a 2a 48 e6 b4 d2 0c e1 2b ba 37 89 b0
       3.454527e-13 -4.2893345e-07 1.599077e-12 -9.9839e-10
000310 7a 19 ae 31 c2 2e 4a 2b 21 75 2e b8 a6 da dd 2b
       5.066963e-09 7.1829706e-13 -4.1593918e-05 1.5763682e-12
000320 01 58 71 b2 a0 bc 23 2d 24 81 f6 b5 b9 21 10 b1
       -1.4048056e-08 9.3073604e-12 -1.8366013e-06 -2.0973927e-09
000330 41 51 8a 3b 4f 89 79 ab 2a 32 95 ae 06 ae 9a b7
       0.004221112 -8.8653125e-13 -6.7846465e-11 -1.8439267e-05
000340 9c 11 0b ab 7a c9 0b af 3c f5 75 34 04 f0 03 2d
       -4.940716e-13 -1.2713555e-10 2.2906619e-07 7.499782e-12
000350 4a c0 c2 ba 4f fe 9c b0 42 27 b9 ac 3c f1 aa ad
       -0.0014858332 -1.1422773e-09 -5.2623747e-12 -1.9433892e-11
000360 f7 22 78 b8 69 cb c8 ab 86 89 06 b6 54 ec b4 2b
       -5.916037e-05 -1.4267312e-12 -2.0047605e-06 1.2855363e-12
000370 d8 66 06 b0 e0 7c fc b0 10 a9 3e 2c 1e 78 4f b8
       -4.8895066e-10 -1.8370905e-09 2.7094472e-12 -4.9464514e-05
000380 80 27 55 2b 9f 6c 42 b3 97 f1 0d 2c 49 05 44 34
       7.572762e-13 -4.5267935e-08 2.0171414e-12 1.8255845e-07
000390 72 e2 57 31 30 e6 e4 ba 52 30 fa 2c 35 a5 c5 2e
       3.1415337e-09 -0.0017463621 7.110792e-12 8.9878695e-11
0003a0 b5 59 4e 36 aa e6 56 2b 17 eb 9b 2f 0d b7 15 b0
       3.0748608e-06 7.6348183e-13 2.8361377e-10 -5.4466015e-10
0003b0 c4 08 ec ab 34 ac 70 bb 7c b3 61 30 98 89 57 ab
       -1.6771242e-12 -0.0036723735 8.2109586e-10 -7.6574294e-13
0003c0 0c 6f 97 a9 54 fc 11 b8 0a 9f fe 2a 04 46 d4 b3
       -6.7250106e-14 -3.4805693e-05 4.522982e-13 -9.884755e-08
0003d0 b9 b1 25 2c b4 74 4e b0 0e fd 64 32 e3 14 8f ac
       2.3546566e-12 -7.510821e-10 1.3328885e-08 -4.0666233e-12
0003e0 2e 3a 8a b7 aa 4e 73 ab
       -1.6477974e-05 -8.644011e-13

layers.8.bias f4 [10]
000000 b3 1b 67 3b 8b 2c 97 3a cf 68 df 3a 77 e7 d7 ba
       0.0035264313 0.001153366 0.0017044785 -0.001647218
000010 12 bb 86 bb d2 ff 14 3b 08 1b d1 b9 5e d0 b5 bb
       -0.004111656 0.0022735489 -0.00039883726 -0.005548521
000020 31 cc 71 3b f0 8b 14 39
       0.003689539 0.0001416651
