DNN_models/DNN_model0.ckpt (torch_old, 617506 bytes, 4 tensors)

layers.0.weight f4 [50, 3072]
0.0186914 0.011210979 0.0015626433 0.0053564077 -0.008442726 -0.012299866 -0.011585526 -0.010914958
-0.01512516 -0.012985331 -0.018011132 -0.024516676 -0.033990484 -0.031897943 -0.029668992 -0.025876831
-0.021920176 -0.021650435 -0.017767314 -0.018043898 0.0057876064 0.008578176 0.0072366414 0.0046018832
0.006509986 0.01277463 0.015621995 0.012949892 0.0070666424 0.0057018707 0.015277403 0.021684727
0.013684373 0.0015963779 -0.0138955675 -0.015620601 -0.026454125 -0.024796184 -0.027216908 -0.025621573
-0.035630044 -0.034555558 -0.037175 -0.032510404 -0.029129414 -0.025558243 -0.02082547 -0.016184669
-0.014525287 -0.018068993 -0.021734811 -0.024058448 -0.023903035 -0.018220352 -0.013640697 0.0021050137
0.015418488 0.021444287 0.02389121 0.0203264 0.011338011 0.007015325 0.01494989 0.023738291
0.0007273881 -0.008508758 -0.010714245 -0.016632346 -0.028069243 -0.0376992 -0.029270677 -0.029051349
-0.028162561 -0.027252564 -0.028778052 -0.027659483 -0.029809082 -0.03129872 -0.029498171 -0.02797643
-0.029975574 -0.02960209 -0.026305955 -0.02194791 -0.016061934 -0.008400873 -0.008639456 -0.0033034754
0.0006166353 -0.0048805503 0.00056090916 0.00354945 -0.00045483361 0.0016824051 0.0025383178 0.016706279
-0.0071929414 -0.0124333445 -0.017519938 -0.026089389 -0.03564681 -0.03547558 -0.02514325 -0.025297558
-0.023121476 -0.018511867 -0.018827757 -0.02158979 -0.019144947 -0.017412256 -0.012371078 -0.0080679525
-0.009743461 -0.0060832305 -0.0059742155 -0.008386186 -0.011567035 -0.01252714 -0.015015467 -0.009510081
-0.004442107 -0.010697734 -0.013901336 -0.009918005 -0.0073198625 -0.009748984 -0.0051882365 0.012511343
-0.012665164 -0.00999023 -0.017777937 -0.029982839 -0.037885267 -0.035679493 -0.033089865 -0.028001921
-0.025285149 -0.022884237 -0.022173807 -0.01706331 0.002798294 0.018461514 0.02761666 0.029888732
0.029060703 0.02763926 0.01299082 0.0051198397 -0.005383651 -0.020212539 -0.02803917 -0.023569968
-0.016396686 -0.019226212 -0.018260632 -0.01030308 -0.010981119 -0.015187721 -0.01423038 -0.002024231
-0.005230783 -0.0021647802 -0.0070498427 -0.013446368 -0.023780711 -0.021788916 -0.022756223 -0.01023501
-0.0048897224 0.0055401367 0.011415107 0.0081454525 0.009735455 0.008384522 0.00026274176 -0.004426008
-0.001781075 0.0019571155 -0.0010413391 0.0037450981 0.017461559 0.0118873855 -0.00039758327 -0.0015422862
-0.0045087533 -0.011203966 -0.019979104 -0.016289162 -0.016466834 -0.013799554 -0.0098556215 -0.0066637993
0.0026569853 -0.004688978 -0.008762498 0.0016934653 -0.0067891385 -0.0014659521 0.009497892 0.021009332
0.013172513 0.009957101 0.005181396 -0.002523706 -0.00049107324 0.0024018844 -0.0057473527 -0.011163889
-0.011812904 -0.009810127 -0.009208489 -0.0050349473 0.008005038 0.009902689 0.00070037285 0.002551565
0.0054029454 0.003062898 -0.0057731676 -0.007158138 -0.007599081 -0.005167131 -0.008863729 -0.007895949
0.00576885 0.013777359 0.010347462 0.022886692 0.013818034 0.015778372 0.016103692 0.013919059
0.00853295 0.006976555 0.0077118254 0.0037455966 0.0039895987 0.008356028 0.0019948795 -0.0053066765
-0.010800251 -0.007282964 -0.004137345 -0.0008981994 0.0064902436 0.007302599 -0.0004394435 -0.0013761886
0.00028018333 0.00294425 0.0039441874 0.009590238 0.009754289 0.0054584043 0.010066543 0.0022959406
00000000: b51e 993c 41ae 373c 9cd1 cc3a ce84 af3b
00000010: 5c53 0abc 6185 49bc 38d1 3dbc a7d4 32bc
00000020: 85cf 77bc 6dc0 54bc 158c 93bc 32d7 c8bc
00000030: 9b39 0bbd 6ba7 02bd 630c f3bc a6fb d3bc
00000040: f191 b3bc 415c b1bc c28c 91bc ccd0 93bc
00000050: f6a5 bd3b 7a8b 0c3c 5921 ed3b 65cb 963b
00000060: b851 d53b af4c 513c 65f3 7f3c c92b 543c
00000070: 4b8f e73b c2d6 ba3b 134e 7a3c 2ba4 b13c
00000080: 6c34 603c 8e3d d13a 3caa 63bc 8ded 7fbc
00000090: 52b6 d8bc 5e21 cbbc fef5 debc 55e4 d1bc
000000a0: cff0 11bd 218a 0dbd d044 18bd a129 05bd
000000b0: cfa0 eebc 855f d1bc 2d9a aabc b695 84bc
000000c0: 78fb 6dbc 6d05 94bc 340d b2bc 3916 c5bc
000000d0: 4cd0 c3bc d942 95bc 3b7d 5fbc 45f4 093b
000000e0: d39d 7c3c eeab af3c 80b7 c33c 8d83 a63c
000000f0: 11c3 393c d0e0 e53b 62f0 743c ce76 c23c
00000100: 30ae 3e3a 5168 0bbc cd8a 2fbc 8f40 88bc
00000110: 78f1 e5bc 7a6a 1abd 0fc9 efbc 18fd edbc
00000120: 2cb5 e6bc c540 dfbc f3bf ebbc 2496 e2bc
00000130: 2d32 f4bc 1633 00bd 26a6 f1bc d32e e5bc
00000140: 568f f5bc 1580 f2bc 967f d7bc 1acc b3bc
00000150: 5194 83bc d1a3 09bc 818c 0dbc 1f7f 58bb
00000160: b2a5 213a 06ed 9fbb fa09 133a e49d 683b
00000170: bc76 eeb9 2684 dc3a e859 263b 9bdb 883c
00000180: c4b2 ebbb 3ab5 4bbc f985 8fbc 6ab9 d5bc
00000190: 6402 12bd d74e 11bd 38f9 cdbc d33c cfbc
000001a0: 4069 bdbc 33a6 97bc ab3c 9abc 12dd b0bc
000001b0: ddd5 9cbc 26a4 8ebc 10b0 4abc 722f 04bc
000001c0: 0aa3 1fbc d655 c7bb 5ac3 c3bb 3766 09bc
000001d0: a983 3dbc a23e 4dbc 6f03 76bc 2cd0 1bbc
000001e0: 188f 91bb 8c45 2fbc 6ec2 63bc 217f 22bc
000001f0: 75db efbb 34ba 1fbc 1502 aabb 60fc 4c3c
00000200: 8c81 4fbc 10ae 23bc 09a3 91bc 929e f5bc
00000210: 952d 1bbd a924 12bd 3d89 07bd 4964 e5bc
00000220: cd22 cfbc b977 bbbc d8a5 b5bc 5bc8 8bbc
00000230: 9563 373b 9a3c 973c 553c e23c 37d9 f43c
00000240: b610 ee3c bb6b e23c 73d7 543c 54c4 a73b
00000250: 5669 b0bb c494 a5bc 67b2 e5bc ce15 c1bc
00000260: 5852 86bc 4a80 9dbc 5297 95bc 40ce 28bc
00000270: 27ea 33bc ebd5 78bc 8a26 69bc f6a8 04bb
00000280: fd66 abbb fcde 0dbb 5e02 e7bb 284e 5cbc
00000290: c4cf c2bc ab7e b2bc 426b babc beb0 27bc
000002a0: f739 a0bb 098a b53b 6e06 3b3c 8174 053c
000002b0: 7581 1f3c 3c5f 093c 9ac0 8939 0c08 91bb
000002c0: f672 e9ba f342 003b 8b7d 88ba 5270 753b
000002d0: 8b0b 8f3c 4fc3 423c b972 d0b9 8a26 caba
000002e0: 2abe 93bb d790 37bc 38ab a3bc d970 85bc
000002f0: 74e5 86bc 8617 62bc 7979 21bc 005c dabb
00000300: d120 2e3b 00a6 99bb 9590 0fbc 44f7 dd3a
00000310: 6c77 debb 3125 c0ba 0c9d 1b3c c31b ac3c
00000320: 86d1 573c 1c23 233c b3c8 a93b c364 25bb
00000330: 5ebb 00ba ef68 1d3b 4a54 bcbb bfe8 36bc
00000340: e98a 41bc a8ba 20bc 34df 16bc 33fc a4bb
00000350: 9027 033c e33e 223c 3a99 373a 2838 273b
00000360: 310b b13b e7ba 483b d72c bdbb d08e eabb
00000370: b601 f9bb 0951 a9bb 2d39 11bc 035e 01bc
00000380: 9f08 bd3b 6fba 613c 6788 293c df7c bb3c
00000390: 0965 623c a541 813c e4eb 833c c40c 643c
000003a0: c9cd 0b3c 969b e43b 7bb3 fc3b af78 753b
000003b0: 2ebb 823b b9e7 083c 86bc 023b a1e3 adbb
000003c0: 89f3 30bc eea5 eebb 9192 87bb 2475 6bba
000003d0: 1cac d43b a44a ef3b 1c65 e6b9 3a61 b4ba
000003e0: 92e5 9239 51f4 403b 3e3e 813b 6020 1d3c
000003f0: 74d0 1f3c 6adc b23b 24ee 243c 7e77 163b

layers.0.bias f4 [50]
-0.041697744 -0.028724732 -8.1221864e-05 0.046173 0.043359686 0.034380876 -0.0036670116 -0.026014976
-0.0352822 -0.013831215 0.03988864 0.06810969 0.02285105 0.04791791 0.024324553 0.026934402
-0.013869531 -0.00087630015 0.02267169 -0.011113919 0.0068350434 -0.01248903 -0.04821931 -0.015723376
0.038697038 0.009264898 0.026686374 -0.025233952 -0.029404081 -0.024599148 -0.053426605 -0.05513621
0.02807772 0.045810815 0.03476615 -0.015138587 -0.032618977 -0.020185282 -0.0266382 -0.03493212
-0.023678921 0.051789597 0.05496726 0.05292127 0.015796097 -0.018524844 -0.03768935 -0.013396734
-0.005667796 0.08261216
00000000: 41cb 2abd 2150 ebbc a855 aab8 e61f 3d3d
00000010: ed99 313d f6d2 0c3d 3f52 70bb 5c1d d5bc
00000020: 1184 10bd 529c 62bc 4562 233d 187d 8b3d
00000030: 2032 bb3c 9245 443d 4944 c73c 89a5 dc3c
00000040: 083d 63bc 82b7 65ba fbb9 b93c 2817 36bc
00000050: 80f8 df3b ca9e 4cbc 9c81 45bd 4fce 80bc
00000060: c980 1e3d cccb 173c 629d da3c 6fb7 cebc
00000070: d4e0 f0bc 2784 c9bc dbd5 5abd 82d6 61bd
00000080: 3f03 e63c 1fa4 3b3d f366 0e3d d607 78bc
00000090: 7a9b 05bd 9b5b a5bc 5b38 dabc fc14 0fbd
000000a0: 4cfa c1bc 5421 543d 5a25 613d f9c3 583d
000000b0: d166 813c 6ac1 97bc 2660 1abd fa7d 5bbc
000000c0: ebb8 b9bb 9030 a93d

layers.2.weight f4 [10, 50]
0.040959086 0.011610775 0.0011910845 0.012695945 0.03147585 -0.01930074 0.09258572 -0.0039000236
-0.11972032 -0.06755194 -0.06525644 0.0010490578 -0.027086703 0.024607908 -0.06670932 0.036889788
0.0021555172 -0.04298227 0.054924678 0.065484576 -0.035814147 -0.05254654 0.0067130844 0.017644405
-0.05637686 0.02277629 0.05208945 -0.082587086 0.054240383 -0.11105663 0.020845875 -0.07056948
0.0059816022 0.03642319 0.05240633 0.013963171 0.099491514 -0.0028453332 -0.007245414 -0.014107437
-0.061946627 -0.0067920685 -0.004518987 0.01779874 0.025224302 -0.11121751 -0.017206894 0.031208968
0.009514364 0.02167061 0.050032996 0.11705542 0.04631737 -0.11783491 -0.025563622 -0.06939331
-0.049066298 0.051205147 0.04870082 -0.05453878 -0.08023531 -0.048063528 0.07273862 -0.08088964
0.04603721 -0.026864283 -0.05310516 -0.052559946 -0.08812916 0.17042138 -0.11914423 0.023237446
0.04734228 0.17720331 -0.00013774357 -0.0052770944 0.04825805 -0.053235397 0.07461759 -0.01794544
0.03328757 0.12267024 -0.037777722 -0.015345019 -0.08638937 -0.004977174 0.110541806 0.0900635
0.07154761 0.0138305435 0.101448275 -0.02419915 -0.053882595 -0.047083545 -0.052289087 -0.049153496
-0.036395285 -0.007878598 0.0067191916 -0.073629975 -0.042127658 -0.086503685 0.031878397 0.0449492
0.046909142 0.023285 0.060872532 -0.07444426 -0.014979053 0.048768062 0.04812925 0.04328168
-0.041032538 0.023772206 -0.005968383 0.030462086 -0.0115021765 -0.025361579 0.03254703 -0.051002298
0.08256965 -0.10872178 -0.10551618 -0.050153572 0.009580949 0.004120494 -0.0034952 0.017983587
-0.06440611 -0.03142785 -0.071753435 -0.1469396 0.019470813 0.035435654 0.016585313 0.0025201058
-0.08932057 -0.07896994 -0.07333952 -0.105269246 -0.09508152 0.013780804 0.027301904 0.0018900257
0.026586745 0.00040543475 -0.017381178 -0.018794503 0.05966723 0.019673238 -0.07573243 0.009077452
-0.003292911 -0.035883524 0.025426734 0.03130933 0.0065497025 -0.022980042 0.052532606 0.037392378
0.0592102 0.00035009652 0.01176289 -0.018907571 -0.020925233 -0.02402486 0.011654916 0.072435215
-0.032366246 -0.12946951 0.056854885 0.032268487 -0.07402888 -0.08466122 0.0047967993 -0.01068233
-0.019488059 0.056230947 -0.046774384 0.053277005 -0.045288634 -0.047970947 0.027338462 -0.08031336
-0.023891786 0.042777188 -0.11773492 -0.05288941 -0.06050276 0.021633547 -0.023690883 0.007010006
-0.025042294 -0.029002862 0.019564072 0.09726135 0.06739778 -0.017175468 0.021721128 0.0066247
-0.035864107 -0.03209569 -0.011211051 0.06430972 -0.035159577 0.018645559 -0.0027463343 -0.045547586
-0.100660734 -0.022948502 0.0009569337 0.03858725 -0.033170026 0.030757671 0.041439045 -0.00014008593
-0.019005824 -0.042448163 0.009337344 -0.07268561 0.007561279 -0.0065018837 -0.031002514 -0.09083506
0.04048666 -0.04761808 -0.03278021 -0.0980434 0.0034645156 -0.09485237 -0.027441703 -0.09758277
0.029842919 0.025089594 0.03992067 -0.047101133 -0.042481158 -0.09118357 -0.04668475 -0.08694797
-0.034507338 0.038861845 0.0487918 0.0015981732 0.0324997 -0.0628351 -0.002911051 0.039756354
-0.0005570981 0.03490081 -0.06129281 -0.062941745 -0.022675764 0.008419337 0.0022735659 0.024010884
00000000: b7c4 273d 1f3b 3e3c 2a1e 9c3a a702 503c
00000010: d2ec 003d 961c 9ebc 959d bd3d 8a97 7fbb
00000020: ed2f f5bd ac58 8abd 2ba5 85bd 8a80 893a
00000030: efe4 ddbc 8696 c93c e59e 88bd bf19 173d
00000040: 9443 0d3b 2d0e 30bd b3f8 603d c71c 863d
00000050: dbb1 12bd 0a3b 57bd 6ff9 db3b 008b 903c
00000060: 6ceb 66bd 5895 ba3c bf5b 553d 6b23 a9bd
00000070: 2a2b 5e3d a971 e3bd f8c4 aa3c bb86 90bd
00000080: 5101 c43b 7c30 153d 05a8 563d c9c5 643c
00000090: 35c2 cb3d c578 3abb f06a edbb e122 67bc
000000a0: bfbb 7dbd 0090 debb 0314 94bb aace 913c
000000b0: 32a3 ce3c 02c6 e3bd 79f5 8cbc f3a9 ff3c
000000c0: 23e2 1b3c 9086 b13c 66ef 4c3d c1ba ef3d
000000d0: 48b7 3d3d 6e53 f1bd cd6a d1bc 141e 8ebd
000000e0: bef9 48bd 7dbc 513d 837a 473d 0e64 5fbd
000000f0: 6952 a4bd 43de 44bd fcf7 943d 78a9 a5bd
00000100: 8391 3c3d 7c12 dcbc cc84 59bd 1949 57bd
00000110: 107d b4bd f182 2e3e e401 f4bd 755c be3c
00000120: fbe9 413d c974 353e 426f 10b9 7aeb acbb
00000130: 3caa 453d 5c0d 5abd 1bd1 983d 5102 93bc
00000140: 8c58 083d 893a fb3d d0bc 1abd ad69 7bbc
00000150: e9ec b0bd 9017 a3bb be63 e23d 3673 b83d
00000160: 8e87 923d 8199 623c 1dc4 cf3d 4c3d c6bc
00000170: ffb3 5cbd adda 40bd 152d 56bd 2d55 49bd
00000180: 3913 15bd 3c15 01bc aa2c dc3b 50cb 96bd
00000190: 0d8e 2cbd d828 b1bd ec92 023d a71c 383d
000001a0: cd23 403d 2fc0 be3c 7a55 793d 3b76 98bd
000001b0: b46a 75bc 05c1 473d 2d23 453d 2248 313d
000001c0: bc11 28bd eebd c23c 6d92 c3bb a08b f93c
000001d0: a073 3cbc 16c3 cfbc 0950 053d c9e7 50bd
000001e0: 471a a93d 86a9 debd de18 d8bd d56d 4dbd
000001f0: 6af9 1c3c 3505 873b ba0f 65bb 5152 933c
00000200: 5ae7 83bd 7dba 00bd 77f3 92bd 5677 16be
00000210: 4181 9f3c fa24 113d ecdd 873c 5c28 253b
00000220: b4ed b6bd feba a1bd 0833 96bd 6797 d7bd
00000230: 1aba c2bd e2c8 613c 3ea8 df3c bdba f73a
00000240: 72cc d93c 8890 d439 f962 8ebc eef6 99bc
00000250: a065 743d c529 a13c 9b19 9bbd 98b9 143c
00000260: e1cd 57bb 9afa 12bd ba4b d03c 363e 003d
00000270: e39e d63b a440 bcbc 6e2c 573d c028 193d
00000280: 6586 723d 298d b739 23b9 403c 0de4 9abc
00000290: 656b abbc c8cf c4bc 43f4 3e3c ea58 943d
000002a0: 7892 04bd a893 04be abe0 683d f62b 043d
000002b0: 749c 97bd dd62 adbd 782e 9d3b f004 2fbc
000002c0: 6ca5 9fbc 6c52 663d 7f96 3fbd fd38 5a3d
000002d0: 9380 39bd 2f7d 44bd e9f4 df3c 557b a4bd
000002e0: b5b8 c3bc 2237 2f3d 011f f1bd 91a2 58bd
000002f0: bed1 77bd d638 b13c 6213 c2bc 31b4 e53b
00000300: 7f25 cdbc 6997 edbc d544 a03c f530 c73d
00000310: d907 8a3d 91b3 8cbc 82f0 b13c 0314 d93b
00000320: 3ee6 12bd c576 03bd 8eae 37bc d1b4 833d
00000330: 7d03 10bd 92be 983c d8fb 33bb 1b90 3abd
00000340: 3727 cebd 7ffe bbbc bcda 7a3a aa0d 1e3d
00000350: 4bdd 07bd 83f7 fb3c fdbb 293d 08e4 12b9
00000360: 1ab2 9bbc 20de 2dbd a9fb 183c 31dc 94bd
00000370: 9bc4 f73b c10d d5bb fcf8 fdbc bb07 babd
00000380: 57d5 253d 2d0b 43bd 8b44 06bd faca c8bd
00000390: ed0c 633b f641 c2bd 6ccd e0bc 7ad9 c7bd
000003a0: 2379 f43c b188 cd3c db83 233d 1eed 40bd
000003b0: b900 2ebd 74be babd 8238 3fbd c711 b2bd
000003c0: 9157 0dbd 992d 1f3d e9d9 473d cb79 d13a
000003d0: 681e 053d b0af 80bd 55c7 3ebb 8fd7 223d
000003e0: 380a 12ba 27f4 0e3d 2b0e 7bbd 9ae7 80bd
000003f0: 86c2 b9bc 42f1 093c 1b00 153b 79b2 c43c

layers.2.bias f4 [10]
-0.023542868 -0.113763995 0.048337113 -0.07164696 0.09829204 -0.045027375 0.10185643 -0.008577845
0.052981693 -0.04776654
00000000: f9dc c0bc 19fd e8bd 23fd 453d a4bb 92bd
00000010: 564d c93d a06e 38bd 1b9a d03d 178a 0cbc
00000020: 5503 593d d9a6 43bd
