DNN_models/DNN_model2.ckpt (torch_old, 630340 bytes, 8 tensors)

layers.0.weight f4 [50, 3072]
00000000: 58e0 1d20 b03b db9e 3134 3e20 eaeb 01a1
00000010: 6e4d 031f a842 9f35 7c59 a79f e39f 9ba0
00000020: 1325 b61f 9c59 3a9f f8cc b91f f653 3620
00000030: add9 9721 074d b021 a5dc eea0 340c 6521
00000040: 304d 49a1 8048 1e9f 8d2a 6622 0ef9 bd28
00000050: 1006 8d1f 8c7c ad20 c705 bd20 5e1c 692b
00000060: f276 fd9f c693 8120 550b 45a0 e4f7 0a1f
00000070: cbf2 a1a0 5e17 68a0 5eb7 991f c2e0 7fa0
00000080: dc9f fd33 e916 7c9f e40f 64a1 2bac a420
00000090: b4dd 2321 af2c 01a1 88ab ea9e 30c8 19a1
000000a0: 9053 7c21 3140 e5a0 d927 5021 7a7f b72e
000000b0: ef3f 4221 f2f1 00a1 21bc 8828 24a1 4920
000000c0: b406 542b 2f11 1aa1 b88a 511f 2a12 1dac
000000d0: 5e67 8620 fe1c a620 3922 5b20 2a76 0220
000000e0: d4fc 7f22 a733 139f d022 422c 6799 db1f
000000f0: 1c32 b620 b025 dc1f 0c6f 949f d4f0 1d20
00000100: 96a1 d8a0 e927 2ea0 1a88 8aa0 a8fa 2020
00000110: d9d1 1321 f2df 9834 bab2 89a1 16ad c8a0
00000120: 2af0 11aa a843 8420 164a 76a1 6ac0 4b20
00000130: b428 16a1 40b7 dd9f 2e4a 48a6 b0af 379f
00000140: 18e0 9220 004d 90a0 1687 db24 5037 d41e
00000150: 337f b0a0 f4f4 d59f 3c08 5d20 b267 09a0
00000160: 07b6 351f 1fad ba9f 59bc 2120 484b 1da1
00000170: 3014 f7a0 4cf3 46a5 d0db 1720 1482 1b1f
00000180: 913b ada0 dd21 aba0 18dc 8aa1 2520 d9ab
00000190: 3f96 99a1 4e53 8ba1 fc3e 8921 f2e5 052d
000001a0: d24a 09a1 9ab8 efa0 4ad7 92b5 2e1f af21
000001b0: cd7e aba0 3c7e 2920 af95 c7a0 081b d51f
000001c0: d2a9 b220 c849 42a0 3d24 4122 ad07 ab20
000001d0: 687c 6e9f 3d19 06a1 6e1c a4a0 860d d69f
000001e0: 1949 de1f c175 fb9f c8af 571f 9802 8321
000001f0: 3ee8 5f20 f032 9ba0 e920 6720 baf4 079f
00000200: 6910 ae1f aa4a e422 4ca7 0121 17a5 d8a1
00000210: 2ce5 4da0 d4ad deab 3a59 2021 6b83 ec21
00000220: cd36 4321 07fd 9320 97b5 0138 e28c f8ac
00000230: c058 2c20 29b3 242c db2e 0221 404a fca0
00000240: 9882 c2a1 807b 649f e8c7 a121 d0a6 9d1f
00000250: 5004 c11e 82d5 2aa1 8eb3 1ba0 68bb 4b1f
00000260: ddda 34a0 f89d d39f 2066 2b9d b39c 41a9
00000270: 14f1 2c21 b5bc 0baa 5035 641f 2380 ed1f
00000280: e636 d62c 27c7 85a0 c9f2 9722 5c78 57a1
00000290: 553a 9721 e6e8 8b34 9105 e736 3679 9020
000002a0: d2e1 b3a0 e0d4 ea20 74fa 0ba2 f0cb f620
000002b0: 12c4 49a0 e020 cf1e 1c70 4b21 40f2 951e
000002c0: 8c36 cd20 d91e 2521 461f aaa1 44f1 7d22
000002d0: 409c ae36 bce1 b51f 962b 3a34 defc c1a1
000002e0: b910 58a0 15f3 c4ab 6a1d 5020 1aa0 02a1
000002f0: dc33 1aa1 330e a5a1 02d6 3121 64cd b31f
00000300: 16cd 7c20 e20a 5aa0 4eb4 1021 c492 86a0
00000310: a047 a41e ebd6 10a1 6710 4221 9417 ca21
00000320: eec0 1629 e4e4 0121 c249 79a0 3834 75a0
00000330: e2c6 82a0 0465 4c21 44a3 12a1 9055 b81f
00000340: 1c37 be22 6994 e320 7839 aa20 5097 f69e
00000350: 9845 e320 6a8f 09a0 2b4e fa2b 3ba7 b2a0
00000360: e2d8 4531 c12d 9720 cc73 25a0 8deb 42a4
00000370: 2985 1b21 9bb8 0f22 86f5 1421 0c7d 681f
00000380: a6c8 ac20 2be8 9e25 4e13 f52b 2807 a721
00000390: e678 6ba8 787a e42c b291 1ba1 6c64 faa0
000003a0: 10a9 d2a0 73b7 2121 80d3 05a9 47be d6a0
000003b0: 9e1e 0321 2743 0121 583b 6721 06fe 9fa0
000003c0: 5a6b f4a0 1ade 0221 3224 6620 6c33 9b9f
000003d0: 60d0 89a0 a42d 1e2f e6d5 f620 98f1 e79f
000003e0: 344d 6f20 9dda 9c20 21fd 47a0 8c2a 18a0
000003f0: b4d8 0621 0a7b f720 4b01 07a2 1a0f a09f
1.3372646e-19 -2.3212213e-20 1.6110895e-19 -4.401913e-19 2.7804377e-20 1.1865823e-06 -7.087529e-20 -2.6363826e-19
7.714133e-20 -3.9461155e-20 7.868964e-20 1.544378e-19 1.0289776e-18 1.1946613e-18 -4.0464779e-19 7.760437e-19
-6.8203606e-19 -3.3517772e-20 3.1193339e-18 2.1091225e-14 5.972585e-20 2.9389758e-19 3.2021669e-19 8.2817596e-13
-1.07346446e-19 2.1951238e-19 -1.6690299e-19 2.9427687e-20 -2.7435128e-19 -1.9658896e-19 6.5101376e-20 -2.1673706e-19
1.1810309e-07 -5.3382027e-20 -7.7270436e-19 2.7896612e-19 5.551997e-19 -4.376604e-19 -2.4846657e-20 -5.210336e-19
8.5491515e-19 -3.8836587e-19 7.052588e-19 8.344521e-11 6.581437e-19 -4.36883e-19 1.5180621e-14 1.7078679e-19
7.532683e-13 -5.219997e-19 4.4372217e-20 -2.2321125e-12 2.2768886e-19 2.814068e-19 1.8561345e-19 1.1050526e-19
3.469279e-18 -3.1171187e-20 2.7588383e-12 9.300389e-20 3.086516e-19 9.323597e-20 -6.286415e-20 1.33781e-19
-3.6698752e-19 -1.4751578e-19 -2.3468174e-19 1.3635462e-19 5.008327e-19 2.8475148e-07 -9.33079e-19 -3.3995857e-19
-1.2961911e-13 2.240644e-19 -8.3446094e-19 1.7258433e-19 -5.0875847e-19 -9.39003e-20 -6.948947e-16 -3.8897083e-20
2.4881655e-19 -2.4445503e-19 9.5204955e-17 2.246925e-20 -2.9899733e-19 -9.061425e-20 1.8722153e-19 -1.1638661e-19
3.847881e-20 -7.906047e-20 1.369955e-19 -5.3293303e-19 -4.1856787e-19 -1.7256195e-16 1.2862927e-19 3.2930125e-20
-2.9346758e-19 -2.8990936e-19 -9.409502e-19 -1.5427699e-12 -1.0407453e-18 -9.441057e-19 9.300153e-19 7.611233e-12
-4.651643e-19 -4.0610334e-19 -1.0940505e-06 1.1866714e-18 -2.9052437e-19 1.4356624e-19 -3.3810964e-19 9.025373e-20
3.026675e-19 -1.6456851e-19 2.6175562e-18 2.8973606e-19 -5.0501367e-20 -4.543437e-19 -2.7801494e-19 -9.06549e-20
9.414159e-20 -1.0649744e-19 4.5673424e-20 8.877592e-19 1.8965677e-19 -2.629173e-19 1.957735e-19 -2.8789795e-20
7.3719015e-20 6.1878577e-18 4.3928316e-19 -1.4680428e-18 -1.7440002e-19 -1.5822296e-12 5.43282e-19 1.6026768e-18
6.61411e-19 2.5070208e-19 3.0925115e-05 -7.064225e-12 1.4598332e-19 2.3405256e-12 4.4107726e-19 -4.2739595e-19
-1.3180519e-18 -4.8383035e-20 1.0962699e-18 6.6768054e-20 2.0436453e-20 -5.7880816e-19 -1.318842e-19 4.314194e-20
-1.5319009e-19 -8.9623313e-20 -2.2684459e-21 -4.2990524e-14 5.859493e-19 -1.2411151e-13 4.8324977e-20 1.0058539e-19
6.0883408e-12 -2.2662864e-19 4.118569e-18 -7.300413e-19 1.0247598e-18 2.6060223e-07 6.8849845e-06 2.447476e-19
-3.0473215e-19 3.978201e-19 -1.8970602e-18 4.1808976e-19 -1.7090236e-19 2.1930574e-20 6.892745e-19 1.5876181e-20
3.4764447e-19 5.5945e-19 -1.1527926e-18 3.4415619e-18 5.203794e-06 7.702993e-20 1.7338456e-07 -1.3145122e-18
-1.8301445e-19 -1.3994106e-12 1.7628018e-19 -4.4257606e-19 -5.2245865e-19 -1.1184593e-18 6.025317e-19 7.614924e-20
2.1413088e-19 -1.8468919e-19 4.902773e-19 -2.2797604e-19 1.7393799e-20 -4.907354e-19 6.5751465e-19 1.3694294e-18
3.347403e-14 4.4009834e-19 -2.1115525e-19 -2.0769585e-19 -2.2154466e-19 6.925158e-19 -4.9682804e-19 7.806858e-20
5.1557953e-18 3.8553505e-19 2.883715e-19 -2.6108845e-20 3.850135e-19 -1.1651803e-19 1.7785264e-12 -3.0265037e-19
2.8790557e-09 2.5610672e-19 -1.4014358e-19 -4.2266564e-17 5.269228e-19 1.9477843e-18 5.04693e-19 4.9231347e-20
2.9270711e-19 2.7565954e-16 1.7413655e-12 1.1318254e-18 -1.3071336e-14 6.4937465e-12 -5.270887e-19 -4.24181e-19
-3.568726e-19 5.4791715e-19 -2.971538e-14 -3.6378925e-19 4.442505e-19 4.3795775e-19 7.8344385e-19 -2.7103746e-19
-4.1406247e-19 4.433966e-19 1.9493734e-19 -6.5730124e-20 -2.3346594e-19 1.4386231e-10 4.1815567e-19 -9.823199e-20
2.0269632e-19 2.6572094e-19 -1.6939709e-19 -1.2888978e-19 4.568777e-19 4.1924848e-19 -1.8296596e-18 -6.778762e-20

layers.0.bias f4 [50]
00000000: 240f 3c21 58ca 45b4 9c1b 11a2 a1c1 f7b3
00000010: ce2d cfab e822 a0a6 021d 08a0 31b7 f122
00000020: c05b 499e 34a7 0e22 562e 47ad 6440 3424
00000030: b4a7 58ad cbe1 1125 e41f 0aa7 acce d622
00000040: f4b4 0b26 7803 10a3 92ea 80b2 a075 96a3
00000050: dfad 2cac 03e1 f923 416a a025 b3ef 0024
00000060: 100c 7820 b6dd c821 c3bd 28a1 9851 d923
00000070: 80f0 44a9 9e73 64a4 dfef b322 44ac 7e2d
00000080: cc9b 6aac 744e b820 4eba 7ca3 0731 2526
00000090: c446 a929 cb6b ceb6 f286 d2ad 1e65 0023
000000a0: 385a 8925 282f 5da4 94be 8c23 e9d0 00b6
000000b0: 7be1 9d2d 769e 0fad aa7d a422 60ce c42d
000000c0: 64cb 48af 35d4 e922
6.3716916e-19 -1.8420667e-07 -1.966578e-18 -1.1537055e-07 -1.4720948e-12 -1.1111692e-15 -1.1529246e-19 6.5517142e-18
-1.0659825e-20 1.9333105e-18 -1.1322129e-11 3.908582e-17 -1.2315416e-11 1.2653247e-16 -1.9168635e-15 5.822364e-18
4.847055e-16 -7.80699e-18 -1.5007831e-08 -1.6312849e-17 -2.4539188e-12 2.709193e-17 2.7827576e-16 2.795861e-17
2.1010408e-19 1.3611214e-18 -5.717176e-19 2.3561743e-17 -4.3729343e-14 -4.953755e-17 4.877202e-18 1.4476479e-11
-3.3339885e-12 3.1222728e-19 -1.3700399e-17 5.731232e-16 7.5173835e-14 -6.151827e-06 -2.3934164e-11 6.960306e-18
2.3826846e-16 -4.796168e-17 1.5259543e-17 -1.9195088e-06 1.7948967e-11 -8.163794e-12 4.458534e-18 2.2374269e-11
-1.8262153e-10 6.337946e-18

layers.2.weight f4 [40, 50]
00000000: 1ac5 0c25 f0db 80a4 6834 e922 2c6f 1a24
00000010: 3d60 d923 840e 8432 5476 9124 3ec7 4f37
00000020: b693 6824 8931 b124 e6be 07a6 7846 fb23
00000030: a151 a1a4 0e41 9a26 4a91 1ba5 b0ca 43a2
00000040: 9c10 6423 27d2 d3a4 723a 41a3 3976 caa3
00000050: b913 a7a3 cc69 e023 80bf 1ba3 20f9 1023
00000060: 05a2 2f23 4e33 85a4 5f28 34a4 0097 5324
00000070: 8cd9 4aa4 10f1 df24 3249 e1a4 ed9e 0922
00000080: c4a7 0aa5 2885 af22 39e8 eb24 1ef5 3ca4
00000090: 350d aaa4 3426 b0a3 d8be 4ba5 f755 3c24
000000a0: 3cf4 b323 70ef e224 48fc 07a4 1aba 8ea4
000000b0: 6388 62a4 202e a5a7 40bf afb1 28e2 3525
000000c0: 1325 4da4 148e 62a4 9642 bdaa 5135 0da5
000000d0: 00b5 60a2 d79d 4b24 d85f 90a4 578d 89a2
000000e0: e7f6 8623 ce85 9a25 174c f9a9 dcdd eea4
000000f0: 3c3a 2a23 b25a 12a4 c4f1 2326 ca75 8ba4
00000100: 3dde 12a4 8c8f 7324 08fe 15a4 04d5 a8a4
00000110: b4a8 e023 8bac aea4 dc47 b1a2 d649 68a3
00000120: e875 ac22 896f 3424 1e93 94a4 3462 9a23
00000130: cefc a824 fa69 94a3 6ef2 7da5 2c3d 77ae
00000140: 38a9 5a24 1a85 1da3 7e16 d023 408c 35a5
00000150: c07e 5fa1 4c5e 2925 76c9 9fa4 0d2b 52a4
00000160: 1642 b423 ff60 c1a3 8b17 8c24 f0c8 d822
00000170: f8f9 76a1 b2ee ae23 d0a7 8324 e76d c1b6
00000180: 643d 76a4 a6c2 4d23 5ed1 0424 2a03 1ca3
00000190: d0d3 7fa1 d4f5 a124 359d 09a5 7ee1 0aae
000001a0: 060f 54a3 69c5 dba5 30e2 97a3 285e 23a3
000001b0: 70d6 4323 a9e9 a524 f4ab 0f2b 40ff 4324
000001c0: 0897 6f23 1415 86a1 995d 7ba4 7c5f 7aa4
000001d0: 973e 8423 926a 082b ea38 9ca2 c23a 27a3
000001e0: ca4e 4ba3 8ec0 be24 d9ae 3c23 f8ec a522
000001f0: e30a fd23 da11 c9a2 4fa0 d521 04f9 ff21
00000200: 5680 40a4 ac77 8e23 7ac6 bea5 6479 9433
00000210: 3e7d 24a4 53ad 3124 38be 97a2 75d8 70a7
00000220: f9d7 aca3 da33 39a3 1f93 65a3 0258 592b
00000230: a9cc efa3 1acd 09a4 4fcc 37b5 d343 0723
00000240: 4f73 5c24 2075 5fa2 ba40 a7a3 57ee cfa4
00000250: 7869 9923 5802 b922 0092 ab22 e467 8a24
00000260: 2a8a 7224 a62b b6b7 c72f b323 eee0 aba3
00000270: 7f4a 2faf e3f3 a3a3 cd58 f6a2 7363 a1a3
00000280: 8633 a1a3 cb4d 6124 9e27 9e24 2c3c b1a1
00000290: 0018 1a1f 2206 91a9 5cd7 5824 d012 0321
000002a0: 50d9 0823 44b7 63a3 10ef 0523 985a 19a4
000002b0: 4415 3736 d764 172c fe63 dba4 e1ff 1e25
000002c0: 7981 2ea4 0033 16a2 b038 18a3 6046 16a1
000002d0: 141a 0a23 4a5a 9d24 d993 26a4 55b2 0325
000002e0: 30ad a323 e5cf 59a3 6ee7 7ba4 d822 c0a3
000002f0: 42c6 5834 3e4b 9524 5a56 0da4 6775 e0a3
00000300: 6282 0ea4 aa96 b6a5 3aea 0624 1431 eaa3
00000310: 7592 9ba4 1877 dda2 44de b5a6 a36c 1c24
00000320: 70d6 0a23 ef9a 2924 7c87 3724 aafd 702c
00000330: e95e 29a4 ea37 78a3 7f46 45a3 78ab f223
00000340: 6885 5fa3 90c1 2c24 6355 2ea4 5663 04a3
00000350: 0cb7 f9a2 3802 8ba2 c6fc a2a3 96d5 e0a3
00000360: 708e 5ea3 8b0f 8aaa e279 a7a6 b731 4ab7
00000370: b053 4222 5847 2aa4 d8a7 5623 aa6e 57a4
00000380: b4c0 9823 0606 5823 afd7 db23 70c4 a022
00000390: 2885 3222 bc56 2ba4 be1f 04a4 306f 5fa2
000003a0: 123b f1a2 a661 87a4 2cb4 1f21 22ba b923
000003b0: 74dc 9ca3 bd16 3fa5 0019 7a23 e051 8b25
000003c0: 08ba 5222 808b 8aa0 de7f 5223 4142 9024
000003d0: 7faa 20a3 faab f6b7 c6d4 0aa3 68fd a0a2
000003e0: dcc3 cf24 26de 1e23 de7c a423 fd2c b523
000003f0: c9a1 80a3 af52 92a4 8019 5b21 4b78 9ba2
1.2209845e-16 -5.588374e-17 6.3210264e-18 3.3487593e-17 2.3567946e-17 1.5373423e-08 6.308418e-17 1.2384551e-05
5.0432097e-17 7.684543e-17 -4.709625e-16 2.724332e-17 -6.9960905e-17 1.070353e-15 -1.3493333e-16 -2.653473e-18
1.2363422e-17 -9.1862675e-17 -1.0474927e-17 -2.1950953e-17 -1.8114529e-17 2.4330935e-17 -8.4431185e-18 7.85901e-18
9.521078e-18 -5.776647e-17 -3.9065474e-17 4.5881234e-17 -4.3986037e-17 9.711921e-17 -9.770219e-17 1.8651097e-18
-1.2026433e-16 4.757483e-18 1.02308405e-16 -4.0973624e-17 -7.374812e-17 -1.9098138e-17 -1.7672104e-16 4.0838817e-17
1.9510656e-17 9.84175e-17 -2.948715e-17 -6.189795e-17 -4.9121462e-17 -4.584671e-15 -5.114913e-09 1.5775872e-16
-4.4483692e-17 -4.9126283e-17 -3.3619348e-13 -1.2247865e-16 -3.0453481e-18 4.4152304e-17 -6.261241e-17 -3.7283574e-18
1.4632876e-17 2.680541e-16 -1.1071021e-13 -1.0359189e-16 9.22805e-18 -3.1735525e-17 5.687964e-16 -6.048118e-17
-3.1846947e-17 5.2813815e-17 -3.2524398e-17 -7.321925e-17 2.4357577e-17 -7.575277e-17 -4.805203e-18 -1.25923806e-17
4.674553e-18 3.9125752e-17 -6.4433995e-17 1.6738304e-17 7.3286654e-17 -1.6091075e-17 -2.202639e-16 -5.621563e-11
4.741455e-17 -8.539172e-18 2.2560931e-17 -1.5746766e-16 -7.572309e-19 1.4690362e-16 -6.9296546e-17 -4.5572957e-17
1.9543628e-17 -2.0966181e-17 6.0755205e-17 5.875967e-18 -8.3678873e-19 1.896621e-17 5.709648e-17 -5.7646425e-06
-5.3394747e-17 1.1154291e-17 2.8800278e-17 -8.457447e-18 -8.667769e-19 7.023907e-17 -1.193612e-16 -3.1577845e-11
-1.1495724e-17 -3.8124214e-16 -1.6467247e-17 -8.856186e-18 1.061638e-17 7.195318e-17 5.104244e-13 4.250009e-17
1.2988198e-17 -9.085773e-19 -5.450623e-17 -5.4290987e-17 1.4337977e-17 4.84648e-13 -4.2344145e-18 -9.065531e-18
-1.1021336e-17 8.2725565e-17 1.0228526e-17 4.497424e-18 2.7434926e-17 -5.450006e-18 1.4475875e-18 1.7345386e-18
-4.1742068e-17 1.5446354e-17 -3.309424e-16 6.913868e-08 -3.5667916e-17 3.8527568e-17 -4.1130034e-18 -3.3424032e-15
-1.8739745e-17 -1.003985e-17 -1.2445269e-17 7.721602e-13 -2.5999109e-17 -2.9880867e-17 -6.847012e-07 7.332727e-18
4.7802566e-17 -3.028414e-18 -1.8133589e-17 -9.01757e-17 1.6632961e-17 5.014683e-18 4.6504226e-18 6.002396e-17
5.2592415e-17 -2.1716416e-05 1.9427453e-17 -1.8635119e-17 -1.5942624e-10 -1.7775785e-17 -6.6772455e-18 -1.7497773e-17
-1.7477476e-17 4.885499e-17 6.858869e-17 -1.2009914e-18 3.263062e-20 -6.4403574e-14 4.701995e-17 4.4409425e-19
7.4185925e-18 -1.2344503e-17 7.260568e-18 -3.3253322e-17 2.7281503e-06 2.1514368e-12 -9.5145504e-17 1.379101e-16
-3.7839903e-17 -2.035579e-18 -8.2519406e-18 -5.0915117e-19 7.486517e-18 6.824085e-17 -3.6120744e-17 1.142286e-16
1.7745843e-17 -1.1807617e-17 -5.4622978e-17 -2.0831439e-17 2.0188693e-07 6.4745915e-17 -3.0647644e-17 -2.433585e-17
-3.090178e-17 -3.167406e-16 2.9255016e-17 -2.5391116e-17 -6.746864e-17 -6.0028265e-18 -1.2619643e-15 3.3919127e-17
7.526404e-18 3.6777267e-17 3.979656e-17 3.4246863e-12 -3.6726425e-17 -1.3455947e-17 -1.06943195e-17 2.6310312e-17
-1.2117104e-17 3.746051e-17 -3.780256e-17 -7.1767695e-18 -6.7685394e-18 -3.7678375e-18 -1.7671129e-17 -2.4376586e-17
-1.20648064e-17 -2.452451e-13 -1.1620989e-15 -1.2051713e-05 2.6336206e-18 -3.6923304e-17 1.16365055e-17 -4.671443e-17
1.6561486e-17 1.1710659e-17 2.3835373e-17 4.3576073e-18 2.419399e-18 -3.715318e-17 -2.8649824e-17 -3.0280998e-18
-6.5385724e-18 -5.871234e-17 5.410975e-19 2.013657e-17 -1.700692e-17 -1.6574313e-16 1.3557821e-17 2.4168137e-16
2.8558791e-18 -2.3470423e-19 1.14112e-17 6.2562284e-17 -8.709721e-18 -2.9405568e-05 -7.5260515e-18 -4.363639e-18
9.010374e-17 8.612239e-18 1.7833799e-17 1.9643113e-17 -1.3946306e-17 -6.345748e-17 7.4233835e-19 -4.21402e-18

layers.2.bias f4 [40]
00000000: f99e eb2a c134 462b ec6f 1a2b 74e4 252b
00000010: c7f6 daa9 d4a6 9929 683e 27aa 0846 74aa
00000020: af73 ae2a 9d30 93aa 0a5f fa2c ec1b 11b4
00000030: bcae 3d2b 3053 fc2a 80b9 efab d230 d82b
00000040: 4912 e82a d89e 982a f404 3ba2 5886 31a9
00000050: 0642 4c2b bae6 d22d 360b 25a3 1560 ceab
00000060: 007a 8f2c b151 9929 3744 ff24 778a 67a5
00000070: a0da 702b b829 0e28 bf95 4e2d 8045 2fa4
00000080: 2034 0aaa a69c 97aa 56cc 4f29 0cb0 c12a
00000090: ea6e efa9 c830 f2a9 706f 0925 b445 75a2
4.1854695e-13 7.041694e-13 5.4867113e-13 5.893682e-13 -9.723954e-14 6.823505e-14 -1.4854231e-13 -2.169585e-13
3.098888e-13 -2.6146178e-13 7.115979e-12 -1.3514335e-07 6.738878e-13 4.4821915e-13 -1.7033458e-12 1.5361273e-12
4.1224167e-13 2.7110844e-13 -2.5345848e-18 -3.941842e-14 7.2566985e-13 2.3976699e-11 -8.947042e-18 -1.4663848e-12
4.077849e-12 6.808736e-14 1.1070418e-16 -2.008297e-16 8.556853e-13 7.89163e-15 1.1742995e-11 -3.8005945e-17
-1.2274947e-13 -2.6931685e-13 4.6140466e-14 3.4405844e-13 -1.06329726e-13 -1.0755421e-13 1.1920612e-16 -3.3240592e-18

layers.4.weight f4 [30, 40]
00000000: b8ba 0100 0279 d080 28e7 7901 2664 0a03
00000010: b097 0100 8aff 1381 a2e5 ba02 d0d7 0e00
00000020: e4c5 59b7 d623 2901 6156 1682 920c 1d97
00000030: d68b 2800 6a1b 4f80 00dd 0e81 c032 4c18
00000040: 5c14 6e81 5679 3301 700d c001 e184 492e
00000050: ac23 7801 9ef7 2f80 fc69 318a ec9b 2781
00000060: e6db 0a81 1c0a 4081 08a1 8b99 d869 cb81
00000070: 6a6d 928f de9b 2a81 5276 0a81 988e 3800
00000080: 4094 aa00 74f3 8b81 e455 8d01 f815 f000
00000090: d23a 5d01 cb19 5b29 6a9b 0201 6e59 ce00
000000a0: bf9d ba1b f021 371d 005e e096 da41 c49c
000000b0: c2c0 7f1e 4618 3b1a 2c9e b61c f28c ec9d
000000c0: b874 939c c87b d799 fb7d 869d 1894 b59a
000000d0: 2005 4f98 1985 171c f7a9 b636 9e43 ec1a
000000e0: 08ca a9a6 c73f 341d 8661 8892 d75d f39a
000000f0: 3c95 f41b 0b2d 909a be17 eb12 ccd9 769b
00000100: 34b0 129c c871 911d ac30 7494 1e8f 0416
00000110: 7eaa cb9b e651 2f19 5a81 4595 0361 5314
00000120: e0eb 761b f0c0 fe1d 5370 6e97 baec 439c
00000130: f2bf 7018 c04e 1b97 0a76 4f15 7226 1c12
00000140: b66e 6814 c09f 5481 02f2 8402 105d 9b02
00000150: 86fd 7005 7cf6 8882 b8af ae02 1bc1 c503
00000160: 7ed6 9283 989b 1104 e0cd 9603 4450 c181
00000170: bd1f c982 343f 9184 7efd 5c03 536a 4502
00000180: 7280 ca83 d88e 7503 12ad b981 7c1d 1203
00000190: ea7e 9a82 fc5f 8283 d31e 0883 ea8a 3a04
000001a0: f8dd b881 a99d f404 c8ce 4503 5a04 7502
000001b0: ee8e 4403 2dcc a901 4b2f 3489 ef7f c683
000001c0: 2e84 9c83 0d04 bc04 f827 1a03 b4b3 8f82
000001d0: fa32 1404 a545 db83 5c5b ce92 6d3e 4903
000001e0: bf17 7b23 3da7 15a6 3c5d d423 3049 aca2
000001f0: c114 7ba4 d9ec 28a3 f0b1 73a4 084f fba4
00000200: ce4d 5024 f0c9 0ca7 67a0 5126 98c6 d0a1
00000210: 3cd4 5e23 20a8 6b25 6297 c8b4 c940 2da3
00000220: efc8 2723 acbd d2a4 b00a 359c aa4f 2923
00000230: a8f5 8f24 338a 85a4 3476 889b eae1 7aa4
00000240: aa6c aaa0 78d4 fea4 8ecb 599d e821 481b
00000250: c5fe 1023 0b18 d1a3 cccd 9d20 ac2a f29d
00000260: a7b0 9fa1 46e0 df22 0387 c123 3131 89a5
00000270: 285c cca0 6893 63a3 9caf 1f9f 202d 4d24
00000280: e0cb 0c16 f43e 2d96 c4da 9814 0082 9390
00000290: db90 c517 3ece 2c16 2a73 1e2e 49c7 0298
000002a0: bba9 c996 242a 8b14 de17 1298 edfd 2515
000002b0: 98f9 9d13 546e 5c97 4dae b997 96a7 6196
000002c0: 6826 3295 a4a0 a497 365c d912 22f3 2c16
000002d0: c43a 271d b7ce cb95 0071 9336 323e ba95
000002e0: 5265 d415 e285 bc97 2c43 7fb0 f059 8616
000002f0: d02c 8b16 0098 7516 9abd 1e16 d47e 0694
00000300: 5cd7 8815 4478 6a16 c73c 8293 4e4a 1897
00000310: 9bf9 2816 2e51 4e95 e871 0295 6c6a 6811
00000320: 1a3a c41c 0d60 f69e 70f6 ff1a 58f8 c31b
00000330: 20c0 6ca0 42cf 3c9f 7954 d41c 8684 c99f
00000340: 803e ef9e d7c4 b11b 5c4e 8337 a8c6 e81f
00000350: 1e59 0399 3ff8 769e 6cd0 b79e dfc1 6f9d
00000360: 0008 ce9a 562f 179f 163b 6814 3361 a59c
00000370: b8a4 299d 8899 109b d28d 2a98 ab21 e51e
00000380: 38b7 881f 4f6e f69e 1597 9119 88d7 bf9c
00000390: f775 819d 0a2b 881a 80e5 ce9a 6384 1299
000003a0: 404c e01c 047e 149e 3128 e997 deab 1b1d
000003b0: fe2a c0b7 9ee8 779f 91a5 1115 c60e b419
000003c0: 904e aa16 279a 351a d3b6 db1b 341a 8fb6
000003d0: 322c 3d1c 10d3 7b98 9872 8c9c aa5a 61a2
000003e0: f8ad d31b 1648 009a 1082 349b edc6 921a
000003f0: 4877 4326 0445 2b9c 1e9b 4b1c 587e 009c
1.58818e-40 -1.9145193e-38 4.5899924e-38 4.066952e-37 1.46251e-40 -2.7182976e-38 2.7462046e-37 1.363116e-39
-1.2980283e-05 3.106611e-38 -1.1045049e-37 -5.07453e-25 3.723584e-39 -7.264839e-39 -2.623984e-38 2.6392004e-24
-4.3728303e-38 3.2964162e-38 7.0548943e-38 4.582013e-11 4.5576e-38 -4.405097e-39 -8.5421734e-33 -3.0784924e-38
-2.5504366e-38 -3.5272084e-38 -1.4437303e-23 -7.47223e-38 -1.4438856e-29 -3.1335898e-38 -2.5431488e-38 5.193941e-39
1.5665216e-38 -5.1409874e-38 5.1918467e-38 2.20484e-38 4.063349e-38 4.865014e-14 2.3988733e-38 1.8950194e-38
3.087306e-22 2.4237394e-21 -3.6248474e-25 -1.2987214e-21 1.3539449e-20 3.86903e-23 1.2084636e-21 -6.2614414e-21
-9.757815e-22 -2.2280474e-23 -3.5599765e-21 -7.5099104e-23 -2.675671e-24 5.0133734e-22 5.443809e-06 9.7716554e-23
-1.1781491e-15 2.3855774e-21 -8.606848e-28 -1.0065405e-22 4.0462854e-22 -5.9629775e-23 1.4836438e-27 -2.0419017e-22
-4.8535085e-22 3.8498827e-21 -1.2328451e-26 1.0708035e-25 -3.369371e-22 9.063827e-24 -3.9885874e-26 1.067191e-26
2.0424858e-22 6.7432733e-21 -7.704372e-25 -6.482605e-22 3.111618e-24 -5.01826e-25 4.1896433e-26 4.927231e-28
1.17348406e-26 -3.9052865e-38 1.9534562e-37 2.2828618e-37 1.1331311e-35 -2.012488e-37 2.566786e-37 1.1622954e-36
-8.630354e-37 1.7116113e-36 8.863474e-37 -7.101218e-38 -2.9552512e-37 -3.414738e-36 6.4943184e-37 1.4503788e-37
-1.19019825e-36 7.2163006e-37 -6.820661e-38 4.293939e-37 -2.2701111e-37 -7.66275e-37 -4.0002192e-37 2.1927981e-36
-6.7909435e-38 5.7508912e-36 5.813047e-37 1.8001006e-37 5.77633e-37 6.2373773e-38 -2.1688949e-33 -1.1666766e-36
-9.199203e-37 4.4202308e-36 4.5302414e-37 -2.1115106e-37 1.7420724e-36 -1.2887653e-36 -1.302295e-27 5.9140252e-37
1.3611766e-17 -5.192141e-16 2.3024572e-17 -4.6698184e-18 -5.4444528e-17 -9.157453e-18 -5.2842945e-17 -1.0898778e-16
4.5168714e-17 -1.9538373e-15 7.2728827e-16 -1.4147196e-18 1.20795865e-17 2.0439964e-16 -3.7363048e-07 -9.3920676e-18
9.0956375e-18 -9.13943e-17 -5.990169e-22 9.178378e-18 6.243252e-17 -5.7913674e-17 -2.25757e-22 -5.4401465e-17
-2.8871028e-19 -1.1051488e-16 -2.8824946e-21 1.6554568e-22 7.860205e-18 -2.2670008e-17 2.673302e-19 -6.410099e-21
-1.0821019e-18 6.068173e-18 2.0982282e-17 -2.3799045e-16 -3.4619928e-19 -1.2336909e-17 -3.381482e-20 4.449051e-17
1.1373442e-25 -1.3994693e-25 1.5434366e-26 -5.8181573e-29 1.2767393e-24 1.3959128e-25 3.6027327e-11 -1.690272e-24
-3.2580416e-25 1.4052035e-26 -1.8882108e-24 3.3521797e-26 3.987849e-27 -7.122509e-25 -1.19993445e-24 -1.8228236e-25
-3.597711e-26 -1.0638803e-24 1.3717357e-27 1.3970769e-25 2.2132647e-21 -8.2317186e-26 4.3940963e-06 -7.522293e-26
8.5785973e-26 -1.2183012e-24 -9.2863917e-10 2.1705626e-25 2.2484942e-25 1.9838905e-25 1.2822966e-25 -6.7902836e-27
5.526974e-26 1.8940319e-25 -3.2876545e-27 -4.9207635e-25 1.3649694e-25 -4.1665408e-26 -2.6343147e-26 1.8334367e-28
1.2985211e-21 -2.6085989e-20 1.0586367e-22 3.2420532e-22 -2.0053546e-19 -3.9981988e-20 1.4050819e-21 -8.534605e-20
-2.5330959e-20 2.9409398e-22 1.5652906e-05 9.858447e-20 -6.790538e-24 -1.3074468e-20 -1.946208e-20 -3.1731616e-21
-8.521253e-23 -3.201465e-20 1.1724659e-26 -1.0943909e-21 -2.2452121e-21 -1.196101e-22 -2.2043586e-24 2.4260243e-20
5.790135e-20 -2.6091886e-20 1.505367e-23 -1.2695033e-21 -3.426799e-21 5.6317815e-23 -8.557038e-23 -7.574758e-24
1.4842787e-21 -7.861114e-21 -1.5067418e-24 2.0602932e-21 -2.2908203e-05 -5.24967e-20 2.9413126e-26 1.861753e-23
2.751456e-25 3.7554446e-23 3.6348658e-22 -4.2647825e-06 6.2591975e-22 -3.2547549e-24 -9.294045e-22 -3.0541183e-18
3.5019447e-22 -2.652801e-23 -1.4931276e-22 6.0705567e-23 6.781587e-16 -5.6668355e-22 6.736755e-22 -4.2514943e-22

layers.4.bias f4 [30]
00000000: 3a3e dba9 6f43 0baa ffa8 3391 c45f dd2e
00000010: 8396 98a4 03f6 0e28 c010 d2a8 5ba6 5dac
00000020: 138b 4fb1 50a3 2ea2 fbf5 ec8b b094 8b10
00000030: 362b 6ba6 9c08 9e95 52a0 37a8 23d2 b6a0
00000040: 68e3 b928 bd65 01ad f7a0 38a8 a3be 42a8
00000050: 0716 b5ba 4b57 e0a0 637e bda0 3060 cdac
00000060: b792 94a5 ffec aca9 7262 8fba 487f 81a7
00000070: 0cb6 2195 3751 6f92
-9.736348e-14 -1.2369076e-13 -1.4172686e-28 1.0066928e-10 -6.617447e-17 7.935929e-15 -2.3321948e-14 -3.1498335e-12
-3.020152e-09 -2.3667854e-18 -9.1274004e-32 5.505492e-29 -8.1590565e-16 -6.3829275e-26 -1.0193305e-14 -3.0971056e-19
2.0637748e-14 -7.3553915e-12 -1.02489555e-14 -1.0810501e-14 -0.0013815769 -3.8004842e-19 -3.210148e-19 -5.8371294e-12
-2.5773325e-16 -7.679447e-14 -0.0010939373 -3.594269e-15 -3.26573e-26 -7.5515208e-28

layers.6.weight f4 [10, 30]
00000000: 5674 0080 8868 4da9 ea07 e70f 5abf ed30
00000010: 3520 f122 712b a729 b142 6526 65df b5ab
00000020: 58da 2106 088e 1ea2 643f fb07 c4fd 760f
00000030: 67dd a220 a15a 8111 c7f7 f8a6 4687 0aa0
00000040: db2e e72a f7c4 0800 2fac 6528 8513 2a27
00000050: bfcc 55ba b030 57a1 bfbe c498 0b6f 50aa
00000060: f524 b820 7b7a 47a8 d0a1 5caa 7286 63a7
00000070: 3ddb 5a12 f140 b992 52ab 0180 41bb f827
00000080: cb7b 050e 5262 9931 344e 17a2 9941 ee29
00000090: fbbf 3127 408d efab cacc 7285 1c18 8ca2
000000a0: 40fb c789 8e48 298f bce8 21a1 1599 4293
000000b0: 98f3 c525 10e7 59a0 e2f6 d3a9 a8f5 0880
000000c0: 5768 4a27 260e e5a6 5f09 8fba 9be5 8720
000000d0: fc1b 2d18 eeaa 1f28 65b7 7ca0 c667 a4a6
000000e0: 82a6 44aa c459 7228 7377 3f93 fa6c 1b12
000000f0: 578e 0400 18c4 7327 5128 258f 904e c22e
00000100: 5daa c2a2 694f 9aa9 bd78 60a7 33de 672b
00000110: 108e e206 f912 b623 75cc 0089 9b2a 1f10
00000120: eeec 55a0 1639 8e12 589b cfa5 f9a2 1020
00000130: c86f 4f2a d581 0300 65d0 7927 32e9 6627
00000140: 34a3 553a caa1 f121 154e d798 738e a8a9
00000150: 16e8 e520 70ef 6226 4936 0d2d 30c6 44a7
00000160: cad0 dd12 4af9 7413 5fd9 0180 7bf2 99a7
00000170: e17e f30f ce4f c2b0 ba3c 86a2 3654 d2a9
00000180: 45ee 21a6 a612 c1ab 92f8 df86 9ac3 0123
00000190: 16de 4909 2079 1990 ff39 0b20 a5ac ae92
000001a0: 8fb1 3425 32f8 979f 00a4 dcaa b017 6b00
000001b0: 1ecd 3628 21b7 b5a4 922d b439 393f a0a0
000001c0: b8c0 b818 c7b6 0daa 5d98 1620 5287 9ca7
000001d0: 8c64 ccab dc23 1628 e015 1993 004d c48f
000001e0: 7fa8 0480 4ee4 9aa7 e978 450f ae2f e9b0
000001f0: 6c99 3da2 590e 4daa e941 7fa7 d669 33aa
00000200: c8b9 2b85 a187 aba3 8af0 d709 42f7 8610
00000210: 114a b421 ecb1 1193 9dc5 5c26 21f3 351f
00000220: 8458 ba2b ffd6 0700 5b93 35a8 4286 a526
00000230: fbe6 b4b9 481e 4122 0d17 bd18 bf54 9d2a
00000240: b78a 3a20 3f06 3e26 7f15 fba9 dd51 32a8
00000250: ca59 1893 8fdf b213 6100 0100 84d9 31a9
00000260: 4d42 240e 447b b230 f845 8222 3364 10a9
00000270: 378f 3a27 7de4 992a 9241 4d07 f19c 22a3
00000280: ed5f 2a8a 1e0c 3d90 2c77 e7a0 8fcf e913
00000290: 2783 04a7 c650 669e ceb0 21ab 9cd6 0100
000002a0: 0d74 9aa7 78e2 1d27 7f5c 53b9 19ef 10a2
000002b0: 3ec6 2c18 d2ca 1aab d84b 221f 98f5 a028
000002c0: 95c7 082a a861 2da8 79c2 a113 853e 9a93
000002d0: 1c56 0100 616c 9729 2bd2 8890 e31e 8031
000002e0: f641 77a1 2577 80a9 e8f8 f525 cb3e 5c2a
000002f0: 34f7 a386 4073 e4a3 2692 150a fe02 ea8f
00000300: ad3f 9b20 d00e 9d11 7bc2 2b27 70a7 449f
00000310: 0ab1 4faa 503a 0600 fa47 19a8 7c09 2aa7
00000320: d026 2738 bbf9 0321 ae55 1598 cc81 942b
00000330: 57b7 dea1 ac10 c428 2b75 572a 42b1 9527
00000340: 4e58 1692 5f49 8112 d9b9 0180 e8e4 01a8
00000350: fe4b d50f b8c8 572e 662a 3d21 654a efa9
00000360: 2ad5 1625 6936 9e2b 00ba 9487 96bc ed21
00000370: c52b c789 eb38 048f 9a79 f0a0 22f6 a493
00000380: ce50 e2a6 96ad 2120 b22d 11ab 8c7c 0180
00000390: c39b 1028 1f32 e4a5 be45 2f3a adcc 9fa1
000003a0: 6019 3918 478e 5caa e36c 2b20 c1d6 0529
000003b0: 30b0 3727 a209 01a8 1244 5093 3655 2093
000003c0: f285 0300 834d bba7 d048 af8f 2e71 88b1
000003d0: d87f cca2 1f8b 992a da53 89a7 c053 fd2b
000003e0: 2c0d a187 8282 5524 6885 458a 30cf dc8f
000003f0: 3551 52a0 02ae 3693 7b26 50a5 6695 ea1f
-4.1733e-41 -4.560981e-14 2.2781407e-29 1.7298405e-09 6.535728e-18 7.423826e-14 7.954072e-16 -1.2922828e-12
3.0441148e-35 -2.1488184e-18 3.780354e-34 1.217761e-29 2.759038e-19 2.0408466e-28 -1.7275617e-15 -1.1733813e-19
4.1066356e-13 8.05342e-40 1.274939e-14 2.360282e-15 -0.0008155815 -7.290927e-19 -5.0857417e-24 -1.8512637e-13
3.1195269e-19 -1.1073278e-14 -1.9596065e-13 -3.1575461e-15 6.9058903e-28 -1.1691151e-27 -1.53294e-40 6.903685e-15
1.645312e-30 4.464064e-09 -2.0505716e-18 1.05807026e-13 2.4667757e-15 -1.7021176e-12 -1.1416399e-35 -3.7972603e-18
-4.814378e-33 -8.346317e-30 -5.4856943e-19 -2.4561718e-27 3.4339118e-16 -1.8457067e-19 -9.41311e-14 -8.22809e-40
2.8089694e-15 -1.5893902e-15 -0.0010912827 2.302183e-19 2.2373854e-24 8.8633375e-15 -2.140591e-19 -1.1407914e-15
-1.7466066e-13 1.3453163e-14 -2.4166482e-27 4.90437e-28 4.18404e-40 3.3829327e-15 -8.142893e-30 8.836054e-11
-5.2764185e-18 -6.852749e-14 -3.1151697e-15 8.237605e-13 8.5220494e-35 1.9740515e-17 -1.5503575e-33 3.1390043e-29
-1.8120195e-19 8.975533e-28 -3.601404e-16 1.2251198e-19 1.8424075e-13 3.22081e-40 3.4668663e-15 3.2045327e-15
0.00081496243 1.637362e-18 -5.565504e-24 -7.48541e-14 3.894769e-19 7.8734e-16 8.026976e-12 -2.7307902e-15
1.3998531e-27 3.0920039e-27 -1.69814e-40 -4.272893e-15 2.4010522e-29 -1.413804e-09 -3.638507e-18 -9.340482e-14
-5.618101e-16 -1.3718651e-12 -8.424852e-35 7.034524e-18 2.429892e-33 -3.026724e-29 1.1792947e-19 -1.1023504e-27
1.567267e-16 -6.436159e-20 -3.9193648e-13 9.834896e-39 1.0147507e-14 -7.880647e-17 0.00034366228 -2.7146892e-19
4.775748e-24 -1.258673e-13 1.2755907e-19 -4.3445413e-15 -1.4522979e-12 8.3344484e-15 -1.93221e-27 -1.9356751e-29
-4.27787e-40 -4.2991115e-15 9.736136e-30 -1.6966533e-09 -2.5695497e-18 -1.8212635e-13 -3.5424089e-15 -1.5935113e-13
-8.074504e-36 -1.8597298e-17 5.198557e-33 5.323464e-29 1.221688e-18 -1.8389295e-27 7.659565e-16 3.8529352e-20
1.3240663e-12 7.19975e-40 -1.0079471e-14 1.1485566e-15 -0.0003450437 2.6172408e-18 4.887863e-24 2.7947607e-13
1.580071e-19 6.5927957e-16 -1.1150368e-13 -9.898736e-15 -1.9229367e-27 4.5153963e-27 9.1971e-41 -3.949056e-14
2.0246483e-30 1.2986239e-09 3.5310653e-18 -3.2061332e-14 2.5890322e-15 2.7336805e-13 1.5441755e-34 -8.815271e-18
-8.203244e-33 -3.7283013e-29 -3.9211783e-19 5.9022138e-27 -1.8389778e-15 -1.2192802e-20 -5.7444056e-13 1.68823e-40
-4.286941e-15 2.1910896e-15 -0.00020156986 -1.9642216e-18 2.2330566e-24 -5.499326e-13 3.436757e-20 1.7870078e-14
1.214847e-13 -9.624605e-15 4.083388e-27 -3.8936714e-27 1.22726e-40 6.724548e-14 -5.3966357e-29 3.7288017e-09
-8.3774154e-19 -5.70501e-14 4.266939e-16 1.9561711e-13 -6.167702e-35 -2.476862e-17 7.2015765e-33 -2.3075334e-29
2.6300158e-19 2.4779361e-28 2.3836445e-15 -4.1643115e-20 -1.8446716e-13 5.71932e-40 -8.5088136e-15 -2.359738e-15
3.985205e-05 4.471504e-19 -1.9301056e-24 1.0552058e-12 -1.5091835e-18 2.1767602e-14 1.9136487e-13 4.154799e-15
-4.74405e-28 8.159132e-28 -1.58505e-40 -7.210575e-15 2.1032693e-29 4.9063614e-11 6.4091805e-19 -1.06266375e-13
1.3082649e-16 1.1241677e-12 -2.2377886e-34 1.6109663e-18 -4.7948668e-33 -6.5190645e-30 -4.073805e-19 -4.1642126e-27
-1.5703802e-15 1.3694665e-19 -5.1577763e-13 -1.36514e-40 8.027381e-15 -3.9585659e-16 0.00066861126 -1.0828436e-18
2.39235e-24 -1.9589288e-13 1.4520291e-19 2.9718202e-14 2.5491863e-15 -7.163027e-15 -2.6286852e-27 -2.0236851e-27
3.23557e-40 -5.1986965e-15 -1.7284379e-29 -3.970988e-09 -5.542967e-18 2.7274794e-13 -3.811605e-15 1.7999977e-12
-2.423233e-34 4.6297557e-17 -9.510296e-33 -2.177348e-29 -1.7814561e-19 -2.3057422e-27 -1.8054162e-16 9.9350014e-20

layers.6.bias f4 [10]
00000000: f851 273b 1d91 3dbb 6ad1 1f3b b356 14bb
00000010: 30f6 f4b8 cc66 463a c3b4 07ba 696a 23bb
00000020: cc36 81bb f247 80ba
0.0025531035 -0.0028925606 0.0024386295 -0.0022634685 -0.00011680683 0.00075684185 -0.0005176777 -0.0024935252
-0.0039433 -0.0009787066
