DNN_models/DNN_model4.ckpt (torch_old, 635676 bytes, 12 tensors)

layers.0.weight f4 [50, 3072]
0	0x9dac0bfe	-4.554042e-21
1	0x1dbf1fb8	5.0590075e-21
2	0x1e6d1f7b	1.25531855e-20
3	0x9e4d180f	-1.0857585e-20
4	0x9cc7e360	-1.322749e-21
5	0x1ec95e13	2.1320611e-20
6	0x9e46c605	-1.0522982e-20
7	0x1e1a4919	8.167808e-21
8	0xb4836938	-2.4477208e-07
9	0x37b84f18	2.197134e-05
10	0x1b72e080	2.0090311e-22
11	0x1e6fa52a	1.268671e-20
12	0x9ed5c0ed	-2.2632044e-20
13	0x1e0ed334	7.561093e-21
14	0x9caa7260	-1.1279222e-21
15	0xa341ee50	-1.0513016e-17
16	0x9df9cace	-6.6119446e-21
17	0x1dc2b2e0	5.1536325e-21
18	0x1ef4820a	2.5888288e-20
19	0x1e0dc33b	7.5048506e-21
20	0x1ed663b5	2.269937e-20
21	0x38242be6	3.914153e-05
22	0x1e89b9c2	1.4582267e-20
23	0x9e17a7ce	-8.028575e-21
24	0x1dc5a2b5	5.23137e-21
25	0x1ec5b7ce	2.0934206e-20
26	0x1d98b6de	4.0423145e-21
27	0x1eda0253	2.3082609e-20
28	0x9e3e6b6d	-1.0080731e-20
29	0x1e14dbcc	7.880508e-21
30	0x9e82d6ca	-1.385312e-20
31	0xb7f796fe	-2.9515006e-05
32	0x9ea39bea	-1.7322781e-20
33	0x1d435a24	2.5854637e-21
34	0x9df6459a	-6.5187624e-21
35	0x1e05820e	7.067856e-21
36	0x1ee22d68	2.394746e-20
37	0x1ebd800d	2.0064114e-20
38	0x1ba34f60	2.7017383e-22
39	0x9d509500	-2.7605602e-21
40	0x1d630274	3.0044468e-21
41	0xaeb90acf	-8.414746e-11
42	0x9f1a3c5e	-3.2660703e-20
43	0x1d3b0860	2.4753574e-21
44	0x1d1f33c4	2.1070237e-21
45	0x1d8c4c20	3.7136403e-21
46	0x1de3c1e6	6.0286886e-21
47	0x9e4d4820	-1.0867525e-20
48	0x1e8287c5	1.3820438e-20
49	0x1dba0ac8	4.9244938e-21
50	0x9e5fba7c	-1.1844086e-20
51	0x1df098ea	6.368558e-21
52	0x9d8fc2c2	-3.805316e-21
53	0x1f56cec2	4.548729e-20
54	0x1f009361	2.7226963e-20
55	0x9e4d1984	-1.0857886e-20
56	0x1e1eef9a	8.413999e-21
57	0x1e01662a	6.85033e-21
58	0x1e91b1f0	1.5426065e-20
59	0x1e3907be	9.7954195e-21
60	0x1ed41e9e	2.2459036e-20
61	0x1d97b43a	4.0155717e-21
62	0x9e378f5f	-9.717588e-21
63	0x9e99c132	-1.6279409e-20
64	0x9ea1013b	-1.7047047e-20
65	0x9dbbaf20	-4.9679563e-21
66	0x9dfbbe28	-6.6635764e-21
67	0x9df2abed	-6.4234634e-21
68	0x1e953783	1.5798948e-20
69	0x1ec90711	2.1284625e-20
70	0x1ee168d2	2.3866154e-20
71	0x1e88b146	1.4472879e-20
72	0x1ed99a81	2.303967e-20
73	0x1e1385c2	7.809776e-21
74	0x9e5463f3	-1.12438556e-20
75	0x9e5c25e4	-1.1654539e-20
76	0x9ea73b0a	-1.770623e-20
77	0x1eee9a94	2.5263162e-20
78	0x2c29d266	2.413314e-12
79	0x1ef59f76	2.6006336e-20
80	0x1b8b9cc0	2.3096918e-22
81	0x1e782220	1.31360676e-20
82	0x9e39ae0b	-9.82981e-21
83	0x9df39e28	-6.4485094e-21
84	0x9e37ac90	-9.7236244e-21
85	0x9e9e580f	-1.6765321e-20
86	0x1e035848	6.953338e-21
87	0x1de51c26	6.06449e-21
88	0x9f1b24c2	-3.2852932e-20
89	0x9e0b38f3	-7.3703756e-21
90	0x1eee6a45	2.5243182e-20
91	0x9ebe25ed	-2.0132718e-20
92	0x1e2e11f4	9.215196e-21
93	0x1e1a09ae	8.154694e-21
94	0x1ef0430b	2.5438717e-20
95	0x9dcf153a	-5.481439e-21
96	0x9e451932	-1.04343034e-20
97	0x1dafc1bc	4.652243e-21
98	0x29a2b30e	7.225306e-14
99	0x1f6f3c14	5.0659914e-20
100	0xaf58e954	-1.972798e-10
101	0x9e389cc0	-9.773294e-21
102	0x1db0a132	4.6753484e-21
103	0x9dd478fe	-5.6241036e-21
104	0x1d0b2938	1.8417806e-21
105	0x9d91ba02	-3.857351e-21
106	0xa7bef24d	-5.2998297e-15
107	0x9cf7d190	-1.639926e-21
108	0x9ea5fad7	-1.75738e-20
109	0x1f2ebb79	3.7001007e-20
110	0x1e2a2ed4	9.009409e-21
111	0x9da805c4	-4.447519e-21
112	0x1e144f62	7.851471e-21
113	0x1ef775d5	2.6200876e-20
114	0x1e0d8435	7.491818e-21
115	0x1e010fb4	6.8324505e-21
116	0x9c8583e0	-8.835291e-22
117	0x9e82b61a	-1.3839601e-20
118	0x1d8f7c7a	3.798049e-21
119	0x1f0ff8a4	3.04871e-20
120	0x1e25345c	8.745855e-21
121	0x9e8ccb9b	-1.4907286e-20
122	0x1f01b64b	2.7467602e-20
123	0x9e38b7c0	-9.7788775e-21
124	0x1e8e5e62	1.507387e-20
125	0x1e5445d4	1.1237627e-20
126	0x9e29f05c	-8.996491e-21
127	0xb7159953	-8.916791e-06
128	0x1e01f300	6.879454e-21
129	0x9b5b1f00	-1.8125272e-22
130	0x9dced32a	-5.4746085e-21
131	0x1e0e29f2	7.5260915e-21
132	0x19fe9200	2.6321953e-23
133	0x1dc4a61a	5.2052513e-21
134	0x9e3ef054	-1.0108215e-20
135	0x9e0a514f	-7.322473e-21
136	0x32a565a8	1.9254756e-08
137	0x1f0865c9	2.8883315e-20
138	0x9d0d3ef0	-1.8693733e-21
139	0x1e470f9c	1.05382e-20
140	0x36643408	3.4004934e-06
141	0x9de6bda4	-6.1076577e-21
142	0x9d8d366e	-3.737867e-21
143	0x9de7234a	-6.118168e-21
144	0x9e96e979	-1.597843e-20
145	0x1d610e2c	2.9785829e-21
146	0x1e652819	1.2131451e-20
147	0x1d72cd34	3.213452e-21
148	0x1e06f8f8	7.1453865e-21
149	0x1e024d58	6.898137e-21
150	0xb3d17ec0	-9.7553766e-08
151	0x9e792d0a	-1.3191264e-20
152	0x9e9490b9	-1.5729965e-20
153	0x9b745100	-2.020938e-22
154	0x9dd362c9	-5.5953376e-21
155	0x1ebf2a4e	2.0240408e-20
156	0x9dedf867	-6.299022e-21
157	0x2db10f56	2.012938e-11
158	0x1e7f3144	1.35097755e-20
159	0x1ec57344	2.0905859e-20
160	0x9dee7438	-6.3118243e-21
161	0x1e842738	1.3992264e-20
162	0x9ee9a0f8	-2.473641e-20
163	0x9d4ac5d8	-2.683676e-21
164	0x1de1e568	5.9794205e-21
165	0x9d9819e4	-4.0260835e-21
166	0x9d4f57e8	-2.7441668e-21
167	0x1d8f0a5d	3.78625e-21
168	0x1f1428cf	3.1373975e-20
169	0x9e452ec6	-1.0438766e-20
170	0xada4e866	-1.8747847e-11
171	0x9d560158	-2.8323359e-21
172	0x1ee62e14	2.4371255e-20
173	0x9f13d682	-3.1305898e-20
174	0x1e984043	1.6120204e-20
175	0x9e21ffdd	-8.57618e-21
176	0x9cc5bb98	-1.3084858e-21
177	0x1de1937e	5.9709507e-21
178	0x9dc3536f	-5.170234e-21
179	0x1e890e2e	1.4511304e-20
180	0x9dc6bd90	-5.2606167e-21
181	0x1da50070	4.367559e-21
182	0x9f1b681a	-3.2908638e-20
183	0x9d18d9f7	-2.0229718e-21
184	0x9e6fbc17	-1.2691451e-20
185	0x9ecbce33	-2.1578743e-20
186	0x9e126b9c	-7.751429e-21
187	0x9e3d879d	-1.0033621e-20
188	0x9deecebc	-6.3211834e-21
189	0x9e14195e	-7.8403006e-21
190	0x1e8b5d64	1.4755823e-20
191	0x9ecc0f34	-2.1605628e-20
192	0x9ed80990	-2.2873845e-20
193	0x9e0b4b02	-7.37411e-21
194	0x1d6ec2e0	3.1599786e-21
195	0x1e5c8e21	1.16760946e-20
196	0x1f201788	3.3900782e-20
197	0x9dbd3c34	-5.009013e-21
198	0x9c947d10	-9.826146e-22
199	0x1e8639fe	1.4211787e-20
200	0x1ea7eaae	1.7778874e-20
201	0x1f7cef38	5.3560953e-20
202	0x23866fc9	1.4575652e-17
203	0x1f81d4fa	5.4985965e-20
204	0x35f0f7e8	1.7953544e-06
205	0x9ccf1060	-1.3702344e-21
206	0x9e5630df	-1.1339172e-20
207	0x9dbf5a20	-5.0650466e-21
208	0x1dccc924	5.4206325e-21
209	0x33cce640	9.5413725e-08
210	0x1e5ae287	1.1587669e-20
211	0x1e6cfd1e	1.2546079e-20
212	0x9de7617c	-6.1245987e-21
213	0x9d9f3a8c	-4.2147486e-21
214	0x9cb8a5d4	-1.2218964e-21
215	0x351574f0	5.567699e-07
216	0x1e814242	1.368581e-20
217	0x2356293b	1.1609694e-17
218	0x1ded23fc	6.2770585e-21
219	0x332eea6a	4.072573e-08
220	0x1e8b3d01	1.4742428e-20
221	0x9e1859b0	-8.06536e-21
222	0x1e418f10	1.02469196e-20
223	0x9ee83ef8	-2.4589999e-20
224	0x9e2660ec	-8.80801e-21
225	0x1e949002	1.572967e-20
226	0x1cdb38f0	1.4506922e-21
227	0x9d20f1e0	-2.130087e-21
228	0x1e85d299	1.4169024e-20
229	0x9e24a571	-8.7163e-21
230	0x9f348d8c	-3.8233567e-20
231	0x9ddae6f8	-5.7942936e-21
232	0x1e914fc7	1.5385467e-20
233	0x9be39680	-3.7651258e-22
234	0x9f011e8e	-2.7342087e-20
235	0x1d960eaa	3.971983e-21
236	0x1b3859f0	1.5249184e-22
237	0x1cdd2e68	1.4636549e-21
238	0x1dce0f3d	5.45435e-21
239	0x9e2f6334	-9.2849376e-21
240	0x1e2896ea	8.925054e-21
241	0x1e5712a0	1.1385857e-20
242	0x1e4ead20	1.0941351e-20
243	0x1e81a44b	1.3726356e-20
244	0x371ce6af	9.352035e-06
245	0x9e84dc12	-1.4067063e-20
246	0x9eab365a	-1.8127809e-20
247	0x9dedeb2f	-6.297655e-21
248	0x9bd95740	-3.5956023e-22
249	0x9e232fd6	-8.63904e-21
250	0x9e830c2a	-1.3875195e-20
251	0x1c0c5c20	4.6441183e-22
252	0x9e83fb98	-1.3974221e-20
253	0x9d4cbcbc	-2.7096749e-21
254	0x1e4ee2a4	1.0952417e-20
255	0x1d09cfc4	1.8239211e-21

layers.0.bias f4 [50]
0	0xaf008c24	-1.169132e-10
1	0xb013b654	-5.373739e-10
2	0xae09891a	-3.1271964e-11
3	0x37fb37d8	2.9947536e-05
4	0x2ed7b17c	9.8085956e-11
5	0x3006970b	4.896356e-10
6	0x2e8e101a	6.4602726e-11
7	0xb329314d	-3.9393218e-08
8	0xaf2c0e27	-1.5648337e-10
9	0x331f41a7	3.7079783e-08
10	0xb8539d53	-5.045284e-05
11	0xb4ef2b54	-4.4548744e-07
12	0x2f113717	1.3207245e-10
13	0x359783ad	1.1288699e-06
14	0x3734ee71	1.07843525e-05
15	0x3489c1fb	2.5659378e-07
16	0x3567aa3b	8.6301924e-07
17	0x30e65d52	1.6761226e-09
18	0x36ea3327	6.9796984e-06
19	0xae9f88c2	-7.254776e-11
20	0x38b856c6	8.7899665e-05
21	0x2f887118	2.4818614e-10
22	0xaf4b7062	-1.8502669e-10
23	0x2d3b46f8	1.06454776e-11
24	0x372f7cea	1.0459897e-05
25	0xafbb5f2a	-3.408272e-10
26	0xb0bec506	-1.3880317e-09
27	0x2e184ba8	3.4627995e-11
28	0xb22b0f00	-9.956921e-09
29	0x37016c24	7.714178e-06
30	0xac44ebb4	-2.7984117e-12
31	0x371bff0e	9.2981045e-06
32	0xb88d8e96	-6.7499626e-05
33	0x319b97ed	4.5283657e-09
34	0xb4cd00e5	-3.8184876e-07
35	0xb72a1cc3	-1.0139486e-05
36	0xb82e53a8	-4.1562744e-05
37	0xb7e18cc2	-2.6887636e-05
38	0xb6c0ab31	-5.741975e-06
39	0xb5a8ee58	-1.2586343e-06
40	0xafb2ed3c	-3.2546577e-10
41	0xb8189bbc	-3.6384663e-05
42	0x319be6f2	4.537349e-09
43	0x2e952785	6.7827556e-11
44	0xb10596c8	-1.9439756e-09
45	0x328a9e00	1.6137164e-08
46	0xb4b369d7	-3.3418357e-07
47	0xb735809d	-1.0818386e-05
48	0x2b908300	1.0268175e-12
49	0xae600764	-5.0938267e-11

layers.2.weight f4 [40, 50]
0	0x9c8be830	-9.258267e-22
1	0x1d632f00	3.0067498e-21
2	0x9e0b0d80	-7.3613905e-21
3	0x9ea7dcf0	-1.777319e-20
4	0x1c52ac60	6.970596e-22
5	0x9c478150	-6.601071e-22
6	0x1efc9040	2.6741198e-20
7	0x9e8d4f4e	-1.4961755e-20
8	0x9e8f4070	-1.5167365e-20
9	0x1e9724a0	1.6002895e-20
10	0x1db09464	4.6740244e-21
11	0xadc6b10e	-2.2588622e-11
12	0x9e1bea48	-8.25408e-21
13	0x1e925f5b	1.549779e-20
14	0x1ea42fc6	1.7383934e-20
15	0x1cee1e20	1.5757306e-21
16	0x9e0e2de5	-7.526908e-21
17	0x9e79ede4	-1.3231145e-20
18	0x9f126046	-3.0996338e-20
19	0x20e68d84	3.9057163e-19
20	0x1d72f008	3.2152527e-21
21	0x1e6681e8	1.2202963e-20
22	0x1d236f18	2.1630304e-21
23	0x9e90c72f	-1.5328973e-20
24	0x9e827f62	-1.381697e-20
25	0x1e3cb5a9	9.9902036e-21
26	0x9d80ef55	-3.412878e-21
27	0x1e463ba5	1.0494367e-20
28	0x9e509dec	-1.1044086e-20
29	0x9e374b44	-9.703504e-21
30	0x9dd5e018	-5.661234e-21
31	0x9e0886e8	-7.227678e-21
32	0x9e29c99e	-8.988479e-21
33	0x9d06ed70	-1.7857505e-21
34	0x1d75c000	3.2524742e-21
35	0x1dff0948	6.7507535e-21
36	0x9e80418e	-1.357964e-20
37	0x9e039893	-6.966634e-21
38	0x1e4e99d3	1.0937359e-20
39	0x1f1add94	3.2794054e-20
40	0x9eb84baf	-1.951306e-20
41	0x9debecb4	-6.2448727e-21
42	0x1ced6140	1.5708483e-21
43	0x1eda2212	2.3095739e-20
44	0x1ec4db4b	2.0843005e-20
45	0x9e9a9f60	-1.63713e-20
46	0x9dbbfb38	-4.975824e-21
47	0x9e8843a2	-1.4427532e-20
48	0x1dd6cfd0	5.68602e-21
49	0x9d0cb84b	-1.8624123e-21
50	0x1cfa2377	1.655278e-21
51	0x1f11461a	3.076293e-20
52	0x3320f5f0	3.7476582e-08
53	0x9e0bec47	-7.40746e-21
54	0x9da182da	-4.2751643e-21
55	0x38cba849	9.71114e-05
56	0x1f07233a	2.86165e-20
57	0xacffbba4	-7.268368e-12
58	0x1e4733bc	1.0545671e-20
59	0x9e3f2d12	-1.0120776e-20
60	0x25ec5102	4.0994367e-16
61	0x1e5a1942	1.1546047e-20
62	0x9e7f5b5a	-1.3518479e-20
63	0x1e405f2e	1.0184078e-20
64	0x1e74c915	1.2958835e-20
65	0x9e6390ef	-1.20472515e-20
66	0x1e40dbec	1.0209874e-20
67	0x1de24584	5.989358e-21
68	0x9f0dc9ef	-3.0024947e-20
69	0x9f1663a4	-3.1846156e-20
70	0x9eb0c17f	-1.8714753e-20
71	0x1db07450	4.6707076e-21
72	0x9e6b2cc7	-1.2450056e-20
73	0x9eac24fa	-1.8226502e-20
74	0x1c43b670	6.4755883e-22
75	0x1dff0e70	6.7512866e-21
76	0x1d3a17b8	2.4629157e-21
77	0x1e8e54a6	1.5069845e-20
78	0x1dd1ef50	5.5569283e-21
79	0x1df78553	6.551821e-21
80	0x9bc56090	-3.2653318e-22
81	0x1ec7ed5c	2.1168114e-20
82	0x9bec3e60	-3.9083234e-22
83	0x9e3649c2	-9.6502525e-21
84	0x1e1d767d	8.336014e-21
85	0x9eac346e	-1.8232893e-20
86	0x9de06e98	-5.9406658e-21
87	0x9e5fe00e	-1.1851855e-20
88	0x38fab6f0	0.00011955004
89	0x9e251d25	-8.741054e-21
90	0x9e5b6778	-1.161516e-20
91	0x1e8907a0	1.4508593e-20
92	0x9d73a2c8	-3.2244938e-21
93	0x1dd34e12	5.5931958e-21
94	0x1ecc4391	2.1627285e-20
95	0x9e1f75e4	-8.441769e-21
96	0x9f09212e	-2.9038324e-20
97	0x1e85e464	1.4176383e-20
98	0x1e27ab70	8.876359e-21
99	0x9efe573c	-2.6929375e-20
100	0x9d93308c	-3.8960772e-21
101	0x9e9b5df6	-1.6450125e-20
102	0x9e090c1c	-7.255224e-21
103	0x9dfd15cc	-6.699108e-21
104	0x9d8181b0	-3.428011e-21
105	0x1de8c8d4	6.161754e-21
106	0x29482b62	4.444655e-14
107	0x1ebd3f2d	2.0037282e-20
108	0x1f0f9592	3.040515e-20
109	0x1d2f1498	2.3171704e-21
110	0x1c638940	7.528539e-22
111	0x1e62bacf	1.20029715e-20
112	0x9e5a5beb	-1.1559832e-20
113	0x1e274c0e	8.856634e-21
114	0x9c93bcf8	-9.776491e-22
115	0x9fccf062	-8.679504e-20
116	0x9d820d0e	-3.442421e-21
117	0x1df1838a	6.3928177e-21
118	0x1e888814	1.445584e-20
119	0x9d10751a	-1.9118781e-21
120	0x9e52df4c	-1.1163484e-20
121	0x1e006ec4	6.799169e-21
122	0x9e8876e9	-1.444874e-20
123	0x1e121e44	7.7354344e-21
124	0x1da5d9d2	4.3900357e-21
125	0x1d61f030	2.9902676e-21
126	0x1ece22fd	2.182557e-20
127	0x1d878e60	3.5881415e-21
128	0x9e1505cd	-7.889194e-21
129	0x1e3de0a4	1.0052031e-20
130	0x1e00f2af	6.826449e-21
131	0x1e5c9f2b	1.1679618e-20
132	0xb7c85ae0	-2.3884175e-05
133	0x1e4ae1c6	1.074048e-20
134	0x1e88f107	1.4499247e-20
135	0x1d0d2238	1.8678885e-21
136	0x9d14c284	-1.96882e-21
137	0x9e6b2ccc	-1.245006e-20
138	0x9e813c03	-1.3683227e-20
139	0x1e7795f4	1.3107081e-20
140	0x9c5e38f0	-7.352723e-22
141	0x1c3237e0	5.8967476e-22
142	0x1e4a1ee4	1.0700179e-20
143	0x1e222267	8.583323e-21
144	0x9deaa1a6	-6.2106425e-21
145	0x9f10c9f1	-3.0660228e-20
146	0x9e65e638	-1.2170767e-20
147	0x9c1e1bc0	-5.231368e-22
148	0x1d78b974	3.2918404e-21
149	0x363de960	2.8299037e-06
150	0x9e9cc344	-1.6597902e-20
151	0x9d968bec	-3.9849345e-21
152	0x9f3444de	-3.8173448e-20
153	0x9e81f946	-1.3761503e-20
154	0x27de9aed	6.178535e-15
155	0x9db8e15c	-4.893741e-21
156	0x1d5cc65c	2.9219307e-21
157	0x1e4ccc32	1.0841897e-20
158	0x9e563f90	-1.134221e-20
159	0x1e6df996	1.2598289e-20
160	0x9d871e20	-3.576535e-21
161	0x9ed2b148	-2.2307937e-20
162	0x9e5ebc1d	-1.1791483e-20
163	0x9e8f63b4	-1.518195e-20
164	0x35caf9a0	1.5122823e-06
165	0x36ebf102	7.0316028e-06
166	0x9d5d0718	-2.9252774e-21
167	0x9df38d28	-6.4467517e-21
168	0x9e571893	-1.1387087e-20
169	0x1e0876dc	7.2243596e-21
170	0x9e251a18	-8.740423e-21
171	0x9e808f6c	-1.3611845e-20
172	0x1de08951	5.943429e-21
173	0x1e80dcb3	1.3643806e-20
174	0x37462a8f	1.1811629e-05
175	0x1e1be878	8.253705e-21
176	0x1df89be6	6.580625e-21
177	0x9ca1c308	-1.0704501e-21
178	0xab74f4ba	-8.702584e-13
179	0x9e8d5b7f	-1.4966798e-20
180	0x1e2efa46	9.263239e-21
181	0x3515977f	5.572728e-07
182	0x1df430bc	6.4636652e-21
183	0x1e43e3be	1.037031e-20
184	0x9c421130	-6.421143e-22
185	0x9f1ae0fc	-3.279687e-20
186	0x1eca46fa	2.1416937e-20
187	0x9e27423e	-8.854605e-21
188	0x1e75daeb	1.3015463e-20
189	0x9d921233	-3.8664696e-21
190	0x1c882a10	9.010598e-22
191	0x1e692c50	1.2344081e-20
192	0x9e5617b3	-1.13339666e-20
193	0x9df99176	-6.6060154e-21
194	0x1dc00a40	5.0832575e-21
195	0x9e0d30d6	-7.474577e-21
196	0x2f6d3500	2.1573854e-10
197	0x1eb31183	1.8959605e-20
198	0x1d20bfb6	2.1274936e-21
199	0x1dc67766	5.253362e-21
200	0x9e7c00ef	-1.3340962e-20
201	0x9dac302e	-4.5577838e-21
202	0x9dd0160c	-5.5079938e-21
203	0xb6a9fb4a	-5.0658464e-06
204	0x9e26bb4b	-8.826698e-21
205	0x1ed83d78	2.2895312e-20
206	0x1dfcf960	6.6961692e-21
207	0x1e5d5522	1.1717248e-20
208	0x1d0bebb0	1.8518344e-21
209	0xb5bcf704	-1.4078983e-06
210	0x9f4bde72	-4.3170925e-20
211	0xb529851e	-6.3151117e-07
212	0x9ed65a64	-2.2695516e-20
213	0x1ddd2546	5.8536753e-21
214	0x1dad6368	4.5895502e-21
215	0x1e773d30	1.3088724e-20
216	0x1e171244	7.997651e-21
217	0x1da2ca87	4.309045e-21
218	0x9d079030	-1.7941644e-21
219	0x1e22d1c0	8.619584e-21
220	0x1f0b8fab	2.9553234e-20
221	0x1dfd34b1	6.7023024e-21
222	0x9d28586b	-2.2280326e-21
223	0x1e58be56	1.1474305e-20
224	0x1de737a4	6.120272e-21
225	0x1e470833	1.0536668e-20
226	0x1cae6f10	1.1543063e-21
227	0x9ea9d58f	-1.7981897e-20
228	0x9e6287b5	-1.1992404e-20
229	0x1c946040	9.818698e-22
230	0x1e596aca	1.1509968e-20
231	0x1e67a01a	1.2262146e-20
232	0x9f46cbe6	-4.2096792e-20
233	0x1e5eefdf	1.1802186e-20
234	0x1e3c59ae	9.9711825e-21
235	0x1dbc8914	4.990492e-21
236	0x1df27c0c	6.418513e-21
237	0x1e278590	8.8685265e-21
238	0x1e1f6c70	8.439814e-21
239	0x9e35cb4d	-9.624102e-21
240	0x1d38de60	2.4467162e-21
241	0x1e4de853	1.0900653e-20
242	0x9e8b0f4c	-1.4723524e-20
243	0x9ec9628b	-2.132246e-20
244	0x1d8ef254	3.783765e-21
245	0x9e869e2f	-1.4253225e-20
246	0x9ea0df7c	-1.703309e-20
247	0x9eded246	-2.3592131e-20
248	0x33424d40	4.5239403e-08
249	0x9ed1323d	-2.2149514e-20
250	0x9d5ad5e8	-2.8962647e-21
251	0x1e405c30	1.0183459e-20
252	0x9e0b4e34	-7.374771e-21
253	0x9eeb302e	-2.490152e-20
254	0x9e8d7645	-1.4977871e-20
255	0xb2f2b003	-2.8252549e-08

layers.2.bias f4 [40]
0	0xb4f858ee	-4.6258305e-07
1	0xb7b06726	-2.1028867e-05
2	0xb43eeecc	-1.7782003e-07
3	0x31e650e0	6.7030754e-09
4	0x3405a028	1.2444855e-07
5	0x349600fc	2.7940393e-07
6	0xb52f8e90	-6.5400036e-07
7	0x352f4e98	6.530695e-07
8	0x34c85e2a	3.7321416e-07
9	0x357dff1a	9.4621066e-07
10	0xb4392690	-1.7243497e-07
11	0xb54fb90d	-7.7382794e-07
12	0xb641ff64	-2.8907898e-06
13	0xb4501508	-1.937916e-07
14	0xb31301d0	-3.4227753e-08
15	0x34b03c29	3.2826327e-07
16	0x346dd990	2.2151494e-07
17	0xb5be9354	-1.4198981e-06
18	0xb65e727c	-3.3147217e-06
19	0xb5736088	-9.0665026e-07
20	0x34029598	1.2161615e-07
21	0x3476fc61	2.300235e-07
22	0x34d53de8	3.9719384e-07
23	0x348c4558	2.6127486e-07
24	0xb59292d0	-1.0920576e-06
25	0x384342f2	4.655397e-05
26	0xb3eb1c04	-1.0948136e-07
27	0xb8820447	-6.19968e-05
28	0x35a00d9f	1.1924893e-06
29	0x3367c424	5.3962268e-08
30	0xb5114471	-5.4116305e-07
31	0xb436c600	-1.7022103e-07
32	0x31bbda40	5.4672284e-09
33	0x343356ba	1.6702225e-07
34	0x33c58fa7	9.1996576e-08
35	0xb4c74780	-3.7118662e-07
36	0xb3b2a99c	-8.319623e-08
37	0xb60c19e4	-2.0876696e-06
38	0xb3595b86	-5.060749e-08
39	0x34579570	2.00778e-07

layers.4.weight f4 [30, 40]
0	0x1db99c68	4.9130813e-21
1	0x1f2118d4	3.4113613e-20
2	0x9e44d961	-1.04211065e-20
3	0x1e72941d	1.28420024e-20
4	0x1f393147	3.9216035e-20
5	0x1e40fcee	1.02167e-20
6	0x1ef18998	2.5573775e-20
7	0x9e3f2810	-1.01197405e-20
8	0x1d562910	2.8343893e-21
9	0x1eacf826	1.831384e-20
10	0x9d8cc200	-3.7258283e-21
11	0x1d89405c	3.6330144e-21
12	0x1e889b17	1.4463704e-20
13	0x9e112888	-7.684618e-21
14	0x9e87baca	-1.4370935e-20
15	0x9cd97020	-1.4388839e-21
16	0x9f09af24	-2.915575e-20
17	0x9e7c1a78	-1.33462425e-20
18	0x9ea15136	-1.7080126e-20
19	0x9d812656	-3.4185654e-21
20	0x3784fb74	1.5852718e-05
21	0x1d0a7300	1.8323602e-21
22	0x1f315bae	3.7557044e-20
23	0x9e5fc443	-1.1846108e-20
24	0x1e500add	1.1013675e-20
25	0x1eb5dd7a	1.9255721e-20
26	0x9f0f7e9c	-3.0386157e-20
27	0x9cab084c	-1.1317975e-21
28	0x1e4a4df0	1.0709908e-20
29	0x9dc68c58	-5.2555276e-21
30	0x9e2828aa	-8.902255e-21
31	0x9db405cc	-4.7651597e-21
32	0x1e335af4	9.49499e-21
33	0x9e93ccaa	-1.5648877e-20
34	0x9ea90795	-1.7896707e-20
35	0x1ce60918	1.5222474e-21
36	0x1dcdccbc	5.447474e-21
37	0x1e26f360	8.838296e-21
38	0x9da563a2	-4.3778154e-21
39	0x1e8d6cda	1.4973976e-20
40	0x9cbf4ea0	-1.2659644e-21
41	0x1ecdff82	2.1810895e-20
42	0x9e0396fa	-6.9663035e-21
43	0x9dc7bd93	-5.2870877e-21
44	0x9ef71965	-2.6162645e-20
45	0x1eeab8ac	2.4852092e-20
46	0x1e16c012	7.980653e-21
47	0x9e5654d4	-1.1346608e-20
48	0x9e50879c	-1.1039472e-20
49	0x9e4c2244	-1.0806756e-20
50	0x1c704a70	7.9505547e-22
51	0x1ebdb4f8	2.0086e-20
52	0x1e14ffb8	7.887936e-21
53	0x9e777b3b	-1.31015546e-20
54	0x1e2738c5	8.852646e-21
55	0x2e9d5917	7.155359e-11
56	0x1e0516de	7.04569e-21
57	0x1df4ac02	6.4764114e-21
58	0x9d2afaf0	-2.2629044e-21
59	0x1b2a4700	1.4085012e-22
60	0x1dafce04	4.653513e-21
61	0x9e12e114	-7.775721e-21
62	0xaccec48a	-5.8766924e-12
63	0x1e3500ba	9.5822105e-21
64	0xb77a55c8	-1.4921134e-05
65	0x9e9df9a2	-1.6726267e-20
66	0x1ebb0a7d	1.9803733e-20
67	0x9a778800	-5.1188263e-23
68	0x9eca186b	-2.1397681e-20
69	0x1d4cb4d8	2.709267e-21
70	0x1dbb63a6	4.960152e-21
71	0x9dc2fdfa	-5.161398e-21
72	0x1f113935	3.0752265e-20
73	0x1eb17b6a	1.8791647e-20
74	0x9c147060	-4.9114334e-22
75	0x9f3dcd3c	-4.0192073e-20
76	0x1ea3a842	1.7327886e-20
77	0x1f3e7c4c	4.033688e-20
78	0x1e83c829	1.3952949e-20
79	0x9e46ce92	-1.05247505e-20
80	0x9ec9e5d0	-2.1376751e-20
81	0x9cb9588c	-1.2265162e-21
82	0x1d07fcb8	1.7997754e-21
83	0x1b0a5500	1.1442557e-22
84	0x9e8fa586	-1.5209173e-20
85	0x1e1e7a1c	8.389702e-21
86	0x9df50ffa	-6.486748e-21
87	0x9def4008	-6.332898e-21
88	0x1ea9c6a2	1.7975724e-20
89	0x9ec27fed	-2.0593458e-20
90	0x1e0c4dca	7.427625e-21
91	0x1e98c752	1.6176063e-20
92	0x1e68ebfc	1.2330778e-20
93	0x1e147a03	7.860286e-21
94	0x1dc6cdf0	5.26231e-21
95	0x1eb6656f	1.9311952e-20
96	0xb74c22e2	-1.2167469e-05
97	0x1ea2a2cf	1.7219753e-20
98	0x9e3e2eac	-1.0068168e-20
99	0x1e07f9f8	7.198533e-21
100	0x9d76e9a8	-3.2678626e-21
101	0x9e7a0c17	-1.323739e-20
102	0x9dd7fc84	-5.717112e-21
103	0x9bb2b180	-2.9562336e-22
104	0x9de5a4ef	-6.0786333e-21
105	0x1dce1420	5.4548555e-21
106	0x1ab4da00	7.479845e-23
107	0x1e838f99	1.3929555e-20
108	0x9eb4d9b3	-1.914828e-20
109	0x1e1c3e3e	8.271443e-21
110	0x9ecf6cc1	-2.1961957e-20
111	0x1f19fca8	3.2608003e-20
112	0x1c48c950	6.643464e-22
113	0x9e65e755	-1.2170997e-20
114	0x1cdb5e80	1.4516632e-21
115	0x9cc5d96c	-1.3092569e-21
116	0x9af3b380	-1.0079244e-22
117	0x9a8d5f40	-5.847012e-23
118	0x1e20ed24	8.519369e-21
119	0x1e104cfd	7.639217e-21
120	0x1e9cc1e7	1.6597339e-20
121	0x9e93b828	-1.5640396e-20
122	0x1d975922	4.006153e-21
123	0x9eae91e4	-1.8483306e-20
124	0x9d3735fa	-2.4247754e-21
125	0xae9c6c02	-7.113245e-11
126	0x1dd085bc	5.519542e-21
127	0x9dcc2410	-5.403564e-21
128	0x1dba8b92	4.9378102e-21
129	0x1e5cc420	1.1687261e-20
130	0x1dd81fec	5.720773e-21
131	0x9d922564	-3.868454e-21
132	0x358923b9	1.0217692e-06
133	0x9d2ca5a0	-2.2849637e-21
134	0x9e717ad4	-1.2783834e-20
135	0x1eab103f	1.8112048e-20
136	0x1e4a2a42	1.070253e-20
137	0x9eb24e51	-1.8878874e-20
138	0x9e3e8f3f	-1.0088139e-20
139	0x9e59d763	-1.1532425e-20
140	0x1eae9134	1.8483021e-20
141	0x1dfb88d0	6.6580608e-21
142	0x1d191614	2.0260796e-21
143	0x1df9f8f4	6.6167163e-21
144	0x1e964f09	1.5914556e-20
145	0x9e40808b	-1.01909774e-20
146	0x1e1c6810	8.280091e-21
147	0x1e069b14	7.12597e-21
148	0x1db03df4	4.665087e-21
149	0xadd90926	-2.4674107e-11
150	0x9df70f70	-6.5396318e-21
151	0x1ed22164	2.2248425e-20
152	0xb7b53300	-2.160063e-05
153	0x9de9a135	-6.184127e-21
154	0x9e65780a	-1.21479826e-20
155	0xac0e725b	-2.0242894e-12
156	0x1e4d6dc0	1.08753054e-20
157	0x1e36b7ae	9.672984e-21
158	0x9e8975ec	-1.455421e-20
159	0x1e378201	9.7148235e-21
160	0x9ea26384	-1.7193576e-20
161	0x1e35df26	9.628206e-21
162	0x9dc9daac	-5.343036e-21
163	0x1d87d8dc	3.595843e-21
164	0xb24c5fdc	-1.1896159e-08
165	0x1e51859e	1.1091999e-20
166	0x1e8579e2	1.4132332e-20
167	0x1d8249cd	3.448702e-21
168	0x1e4bb5ec	1.0784351e-20
169	0x1e00fece	6.828956e-21
170	0x9e9b8f42	-1.6470513e-20
171	0x1ea14506	1.7075085e-20
172	0x1e850586	1.4084207e-20
173	0x9cebc1d8	-1.5601103e-21
174	0x1edafeff	2.3187112e-20
175	0x9f1bdd1c	-3.3005424e-20
176	0x9e1b8f46	-8.23526e-21
177	0x1e45627e	1.0449461e-20
178	0x1dd1c494	5.5525096e-21
179	0x1e906318	1.5287577e-20
180	0x1dbcc278	4.996426e-21
181	0x9dc9f100	-5.3453445e-21
182	0x1baf3280	2.8983956e-22
183	0xb848b29d	-4.7850062e-05
184	0x1e1a1afa	8.158271e-21
185	0x9e0002f6	-6.776876e-21
186	0x1ee603d2	2.4353777e-20
187	0x9da25374	-4.296733e-21
188	0x1ea1c986	1.7129886e-20
189	0x1ececfe7	2.1897085e-20
190	0x1e52c9f4	1.115907e-20
191	0x9f05ae40	-2.8307982e-20
192	0x9dcce716	-5.4237288e-21
193	0x1ced2ee2	1.5695463e-21
194	0x9da80252	-4.447163e-21
195	0x9e747b9c	-1.2942814e-20
196	0x9e46c706	-1.052319e-20
197	0x9e714db0	-1.2774499e-20
198	0x1df8aad0	6.582167e-21
199	0x1d6b7828	3.116411e-21
200	0x1e1a8994	8.181143e-21
201	0x9ddae2ba	-5.793855e-21
202	0x1ef18f3d	2.557611e-20
203	0x1d84406d	3.5006724e-21
204	0x1cf84640	1.6429423e-21
205	0x32f57a08	2.8577247e-08
206	0x9e7838ba	-1.31407415e-20
207	0x1d930dda	3.89249e-21
208	0x1e1bd410	8.249485e-21
209	0x1e8f1200	1.5148159e-20
210	0x9e0d32be	-7.474971e-21
211	0x9d174138	-2.00184e-21
212	0x1e4ad8eb	1.07386485e-20
213	0x9d88ee2c	-3.6245164e-21
214	0x1dc65e5c	5.250773e-21
215	0x1e26130a	8.791904e-21
216	0x9db9be98	-4.916616e-21
217	0x9eb6cc72	-1.9354556e-20
218	0x1dad16b2	4.5816185e-21
219	0x1ea0e8d2	1.7036951e-20
220	0x1e8c991b	1.48864e-20
221	0x1db5da98	4.813632e-21
222	0x9e68ba0c	-1.2320451e-20
223	0x1dfdaf8a	6.7150046e-21
224	0x9ea3613d	-1.7298513e-20
225	0x9ebe7583	-2.0165634e-20
226	0x1e3a95bf	9.877725e-21
227	0x1db48d60	4.779178e-21
228	0x9d900f17	-3.8132085e-21
229	0x9ea2c320	-1.7233119e-20
230	0x9eb8fcce	-1.9586315e-20
231	0x1ec6cf4f	2.1049806e-20
232	0x9dd88498	-5.7311823e-21
233	0x1e0ca1aa	7.44497e-21
234	0x1dbcc192	4.9963333e-21
235	0x9daa3700	-4.5055494e-21
236	0x9e0ab1c8	-7.3424235e-21
237	0x9d61d0a8	-2.9886375e-21
238	0x1dd4104a	5.6132775e-21
239	0x9eb41102	-1.9065276e-20
240	0x9d7a1268	-3.309674e-21
241	0x9cc62510	-1.3112121e-21
242	0x1e47a03b	1.0568107e-20
243	0x1e69bfdc	1.2374593e-20
244	0x9c882830	-9.010113e-22
245	0x1efdb512	2.6862306e-20
246	0x368cdd91	4.198119e-06
247	0x1eb12b90	1.8758621e-20
248	0x9e147716	-7.859681e-21
249	0x99f1bf00	-2.499596e-23
250	0x9e9930d1	-1.6219695e-20
251	0x9e8c5b3f	-1.4860815e-20
252	0x1eb89191	1.9541963e-20
253	0x1e1eb2b7	8.401408e-21
254	0x9e0af9e5	-7.357336e-21
255	0x9e68a587	-1.2316208e-20

layers.4.bias f4 [30]
0	0xb8091b26	-3.268863e-05
1	0xb6a217c6	-4.830744e-06
2	0xb17b5a38	-3.657659e-09
3	0xb40b721c	-1.2986897e-07
4	0xb7618c96	-1.3443778e-05
5	0xb7258b60	-9.867217e-06
6	0xb6371a6c	-2.7284505e-06
7	0x3745bd6f	1.1786221e-05
8	0x38550be4	5.079423e-05
9	0xb817ab50	-3.6160753e-05
10	0x3730643e	1.0513757e-05
11	0x371a0288	9.179705e-06
12	0xb2a4f999	-1.9205617e-08
13	0xb4ce3208	-3.8406893e-07
14	0x37014aa0	7.706374e-06
15	0xb6a6fd81	-4.9766973e-06
16	0xb76ef192	-1.424215e-05
17	0xb678f57a	-3.7097766e-06
18	0x357b27f4	9.3562926e-07
19	0xb0776027	-8.999472e-10
20	0xb76d415d	-1.4141519e-05
21	0x351a9d00	5.7597936e-07
22	0x33a80278	7.823559e-08
23	0x369bb630	4.6405694e-06
24	0xb6965cc3	-4.4811472e-06
25	0x34e252bc	4.2155978e-07
26	0xb6b71264	-5.455966e-06
27	0x313bcf6d	2.732999e-09
28	0xb3c30e36	-9.08298e-08
29	0x379fa248	1.9029845e-05

layers.6.weight f4 [25, 30]
0	0x25ac6838	2.9907865e-16
1	0x255ceaec	1.9161553e-16
2	0xa0b1d22c	-3.0124046e-19
3	0x22f61c4e	6.6708402e-18
4	0x27231635	2.2632833e-15
5	0xa776f263	-3.4270756e-15
6	0xa5c28f6a	-3.3750817e-16
7	0x253e58e8	1.6509996e-16
8	0x230027ef	6.94735e-18
9	0x245cca95	4.787649e-17
10	0x37b8cc3c	2.2029613e-05
11	0xa2758ef0	-3.3279362e-18
12	0xa28f6b9b	-3.887416e-18
13	0xa5b93d55	-3.2133945e-16
14	0x23543d69	1.1505547e-17
15	0x2489845b	5.96385e-17
16	0x24566aa0	4.6494168e-17
17	0xa648c29c	-6.9652684e-16
18	0xa625f768	-5.7581173e-16
19	0xa22490c6	-2.2302787e-18
20	0xa698a173	-1.059088e-15
21	0x24bf4939	8.295709e-17
22	0xa4900f3b	-6.2475847e-17
23	0x27f7d963	6.8791963e-15
24	0x2582ee78	2.2712998e-16
25	0x22879c40	3.675726e-18
26	0xa5cc7b02	-3.5471712e-16
27	0x239bc5d4	1.6888917e-17
28	0xa2f2626c	-6.569844e-18
29	0x270cd2a6	1.9543096e-15
30	0x32162979	8.740579e-09
31	0x2300d1fa	6.983358e-18
32	0x9ddb8bf0	-5.811351e-21
33	0x20d779a6	3.6502917e-19
34	0x23bbdb2c	2.0367404e-17
35	0xa34f2ced	-1.1231006e-17
36	0x2184a0d2	8.987237e-19
37	0xa3eec380	-2.588681e-17
38	0x24a4b45e	7.1429216e-17
39	0xa2ec74f8	-6.4091774e-18
40	0xa1002a88	-4.3424377e-19
41	0x2293a89c	4.002295e-18
42	0x21c832e6	1.3566e-18
43	0x2058d9a4	1.8367923e-19
44	0x223e0b87	2.5755904e-18
45	0xb3e61ef0	-1.0715837e-07
46	0x22de6e14	6.028977e-18
47	0x22cb418b	5.5092657e-18
48	0x23470813	1.0789521e-17
49	0xa1891a29	-9.290406e-19
50	0x235a7130	1.1841772e-17
51	0xa053ff44	-1.7956855e-19
52	0x2172aefe	8.222439e-19
53	0xa186e296	-9.14017e-19
54	0xa297e2a0	-4.116858e-18
55	0xa102901c	-4.423644e-19
56	0x23cc4b46	2.2149604e-17
57	0xa0914e02	-2.4615577e-19
58	0x2117eeef	5.1477016e-19
59	0x24286f12	3.6523273e-17
60	0xa39a73d4	-1.6745769e-17
61	0x2086bd00	2.2825553e-19
62	0x22411526	2.6167573e-18
63	0x22f78a39	6.7095833e-18
64	0x25daee1e	3.7978326e-16
65	0xa5a29964	-2.8206462e-16
66	0x245f15c3	4.837385e-17
67	0x339f5d8c	7.4210305e-08
68	0xa32daafa	-9.4145545e-18
69	0x26047d02	4.5966117e-16
70	0xaca9e1e4	-4.828348e-12
71	0xa3e9a84c	-2.5333187e-17
72	0xa1b678d8	-1.2364787e-18
73	0x26299348	5.8833257e-16
74	0x22381bd8	2.495139e-18
75	0x24d41281	9.197169e-17
76	0xa5b4fed7	-3.139771e-16
77	0x24c6d21e	8.6224764e-17
78	0x258cb1cf	2.4406616e-16
79	0xa04e00c0	-1.7449127e-19
80	0x24e73daa	1.00284744e-16
81	0xa406ddf5	-2.9244623e-17
82	0x2245ee2c	2.6824566e-18
83	0x25064928	1.1647434e-16
84	0x2506779d	1.1663174e-16
85	0xa39c3bd2	-1.6938889e-17
86	0xa49fd37e	-6.931354e-17
87	0x21bd600f	1.2832565e-18
88	0x220f190c	1.9393374e-18
89	0xa5c7c132	-3.4651911e-16
90	0x246d5cc8	5.1469772e-17
91	0x2386b024	1.4602908e-17
92	0x228bee7e	3.792854e-18
93	0xa3042ec2	-7.165636e-18
94	0x248418a0	5.728759e-17
95	0xa4cf6b22	-8.995343e-17
96	0x2383e620	1.430051e-17
97	0xa5238401	-1.4182721e-16
98	0xa3b84944	-1.998035e-17
99	0xa4c8849f	-8.696084e-17
100	0xa6430a40	-6.7668107e-16
101	0xa44cc5b8	-4.4402923e-17
102	0x23264511	9.013503e-18
103	0xa394c4a5	-1.6129474e-17
104	0xa4861357	-5.8146e-17
105	0x239432c3	1.606769e-17
106	0x385241e8	5.012928e-05
107	0x242ddf8e	3.7702753e-17
108	0xa58471f1	-2.297556e-16
109	0x246c3167	5.1216188e-17
110	0xa56d10f2	-2.0562214e-16
111	0x22f9d7f0	6.772022e-18
112	0xa49b1eca	-6.7272693e-17
113	0x23ceb214	2.2409984e-17
114	0x22c1af30	5.249824e-18
115	0x2101fc08	4.404046e-19
116	0x241368d0	3.1964324e-17
117	0xa3f7154c	-2.6788813e-17
118	0x1fe1cb40	9.5627455e-20
119	0x24e0d000	9.749688e-17
120	0x246567c0	4.974434e-17
121	0x23ac4776	1.8678542e-17
122	0xa114197a	-5.017807e-19
123	0xa1b1b0a9	-1.2040748e-18
124	0xa3fd8528	-2.7486709e-17
125	0x24a04274	6.9501515e-17
126	0xa37e06af	-1.3770783e-17
127	0x253ebfbf	1.6544839e-16
128	0xa470a170	-5.2178447e-17
129	0x23822ec0	1.4114428e-17
130	0xa6e47699	-1.5852824e-15
131	0x231ae3cf	8.396597e-18
132	0x218ebedf	9.672817e-19
133	0xa2844fe0	-3.5863243e-18
134	0xa58db0c4	-2.4579382e-16
135	0x26239c02	5.6763415e-16
136	0x246433d0	4.9483506e-17
137	0x242ff9ab	3.8158553e-17
138	0x2682e7a0	9.083344e-16
139	0xa4ee30ac	-1.032985e-16
140	0xa478b71d	-5.393153e-17
141	0x24141f0e	3.211869e-17
142	0xa3b69f0c	-1.9799839e-17
143	0x26b35f5c	1.2446467e-15
144	0xa2ae38ec	-4.7223063e-18
145	0xa162e0f0	-7.686948e-19
146	0xa467a4f0	-5.0229848e-17
147	0xa45ae9a4	-4.7469116e-17
148	0xa1421757	-6.5760647e-19
149	0xa35bc068	-1.1912757e-17
150	0xa43bf9a8	-4.0760628e-17
151	0xa3c40a94	-2.1254843e-17
152	0xa29aad9b	-4.1925596e-18
153	0x9f9ce078	-6.643992e-20
154	0x24be93f2	8.2649994e-17
155	0x24eb72e0	1.0210961e-16
156	0xa2a5dece	-4.4959243e-18
157	0xa4e7c223	-1.0050916e-16
158	0xa3755500	-1.3299476e-17
159	0xa395367c	-1.6177687e-17
160	0xa70db793	-1.9667197e-15
161	0x24bb5ebf	8.125883e-17
162	0x237d9c83	1.37483e-17
163	0xa325c04c	-8.985388e-18
164	0x318538d8	3.877272e-09
165	0xa7f9c604	-6.9326072e-15
166	0xa2270c68	-2.2639288e-18
167	0x22b31c84	4.854824e-18
168	0x25ca2ee8	3.50732e-16
169	0x24a1de90	7.0199655e-17
170	0x242f5258	3.8016824e-17
171	0x22aaf360	4.6336276e-18
172	0xa38af21e	-1.506453e-17
173	0xa4cb7890	-8.824146e-17
174	0x23cc8868	2.2175495e-17
175	0x21e690f0	1.5623771e-18
176	0xa533aaf8	-1.5583702e-16
177	0xa553efc0	-1.8382563e-16
178	0x2177d890	8.3973473e-19
179	0xa3ed074f	-2.5698687e-17
180	0x22e8230d	6.2920837e-18
181	0xa1a6b099	-1.1295343e-18
182	0xa1b8e949	-1.2530075e-18
183	0x22076fe0	1.8355138e-18
184	0x2f45dddc	1.7995866e-10
185	0x228c00b4	3.794782e-18
186	0x22e7c23a	6.281832e-18
187	0x233b7278	1.016153e-17
188	0x238555e2	1.4456262e-17
189	0x24c01134	8.329587e-17
190	0xa4ceb67f	-8.964742e-17
191	0xa3626051	-1.227188e-17
192	0x21a4dd6e	1.1171684e-18
193	0xa173cb98	-8.2601057e-19
194	0xa39939ed	-1.6612826e-17
195	0x24128d49	3.1778377e-17
196	0xa3385aef	-9.993916e-18
197	0x20efdae0	4.0633014e-19
198	0x241d0786	3.405032e-17
199	0xa1f4f958	-1.6600084e-18
200	0x22ce07af	5.5844547e-18
201	0xa22fcdba	-2.3825833e-18
202	0x23b4e4ea	1.9612588e-17
203	0x22a420a3	4.4486845e-18
204	0xa0a0b1c8	-2.72227e-19
205	0x357366dc	9.0674234e-07
206	0xa1a2d778	-1.1034581e-18
207	0xa28ed474	-3.871412e-18
208	0x20a9853a	2.8717876e-19
209	0x23612cc4	1.2206754e-17
210	0x2144838f	6.65815e-19
211	0x222200e4	2.1955565e-18
212	0xa024432b	-1.3913564e-19
213	0xa0385d20	-1.5616219e-19
214	0xa1356628	-6.146039e-19
215	0x21e63b18	1.5601048e-18
216	0xa2923162	-3.9625665e-18
217	0x22811a20	3.499318e-18
218	0x228af408	3.7663353e-18
219	0x35fb0fb0	1.8705523e-06
220	0x23420bee	1.0519287e-17
221	0x9e9aab80	-1.6376315e-20
222	0x2105710a	4.521176e-19
223	0x35b06a5e	1.3143979e-06
224	0x9fe906e0	-9.869071e-20
225	0xa34b44a6	-1.1019189e-17
226	0xa314b744	-8.061904e-18
227	0xb2ab9b1e	-1.997756e-08
228	0x2339a6bc	1.00641775e-17
229	0xa3075b82	-7.337742e-18
230	0xa22c5dbc	-2.335997e-18
231	0x217e9b3e	8.626401e-19
232	0xa215f6b9	-2.032388e-18
233	0xa305ec0c	-7.259929e-18
234	0x20a2f704	2.760733e-19
235	0xa257f43b	-2.9267228e-18
236	0x36798744	3.7182626e-06
237	0x215e5f2e	7.5342495e-19
238	0xa02b6b82	-1.4519835e-19
239	0xa140eb50	-6.5363564e-19
240	0xa5161210	-1.3016546e-16
241	0x2405bd16	2.899994e-17
242	0x22c32570	5.2894494e-18
243	0x22e463ab	6.190505e-18
244	0x2541af10	1.6799395e-16
245	0x245056f1	4.5176453e-17
246	0x24bb1896	8.113997e-17
247	0xa5aa6e89	-2.95652e-16
248	0xa59544a8	-2.5893903e-16
249	0xa614868e	-5.153017e-16
250	0x2557069a	1.8650514e-16
251	0x25967f41	2.6107083e-16
252	0xa3a260c8	-1.7605064e-17
253	0xb88219ee	-6.203713e-05
254	0x26006b5f	4.4554436e-16
255	0xa7b7e50f	-5.104105e-15

layers.6.bias f4 [25]
0	0xae18184c	-3.458238e-11
1	0xa9e28150	-1.0058848e-13
2	0x2b6e00b4	8.455556e-13
3	0xacffad1c	-7.266755e-12
4	0xad2070ac	-9.119965e-12
5	0x2e4a7e8c	4.604188e-11
6	0x2d190b39	8.699535e-12
7	0x2a357fad	1.6120326e-13
8	0xaf365002	-1.6581228e-10
9	0x2ba1c148	1.1493384e-12
10	0xaa9b13c8	-2.7547257e-13
11	0xb12a0938	-2.4743496e-09
12	0xa9e7f1c6	-1.0300402e-13
13	0x29a7a320	7.4445875e-14
14	0xac7297d7	-3.4474556e-12
15	0xac887ae8	-3.878998e-12
16	0xac40cab7	-2.739737e-12
17	0x30ac3408	1.2529435e-09
18	0xab6f8b1c	-8.510291e-13
19	0xaf08b991	-1.2435054e-10
20	0xabcc141b	-1.4500652e-12
21	0x331642ac	3.4985234e-08
22	0x31415288	2.813211e-09
23	0xaacc03a0	-3.6240195e-13
24	0x2dc3ead0	2.2273211e-11

layers.8.weight f4 [20, 25]
0	0xa9694712	-5.1798037e-14
1	0x28fac762	2.7842044e-14
2	0x289d8cba	1.7491532e-14
3	0xab13263d	-5.227796e-13
4	0x28f463b8	2.7132688e-14
5	0x28822030	1.4446858e-14
6	0xa9a94bde	-7.5182685e-14
7	0xa87816a0	-1.37716715e-14
8	0x2b94a047	1.0560518e-12
9	0x27c70990	5.5243963e-15
10	0xa8d036e2	-2.311644e-14
11	0xa985b07a	-5.937e-14
12	0x29459069	4.3868043e-14
13	0x2923cd64	3.637142e-14
14	0x28f1ccbb	2.6845163e-14
15	0xaabb8807	-3.331226e-13
16	0x295f7ad1	4.9622473e-14
17	0xa8806261	-1.425352e-14
18	0xa6d639a3	-1.4864855e-15
19	0xa5f5a680	-4.261355e-16
20	0xa7e27ca2	-6.286273e-15
21	0x2ae3cb70	4.0464463e-13
22	0x28efb2b7	2.6611835e-14
23	0xa9fbc3c8	-1.1180602e-13
24	0xa8919ea7	-1.6167038e-14
25	0x1f144f0b	3.1405602e-20
26	0x1e88dc38	1.449064e-20
27	0x1e02cd70	6.924626e-21
28	0x1dd4b448	5.630234e-21
29	0x9e33d300	-9.519815e-21
30	0x1e9a178b	1.6315121e-20
31	0x9dfa4766	-6.6248273e-21
32	0x9f03984f	-2.7866316e-20
33	0x1ecd8574	2.1760414e-20
34	0x1e3ee70b	1.0106295e-20
35	0x9ef667c9	-2.6089188e-20
36	0x1ed55f9b	2.2591794e-20
37	0x1ddcbbcc	5.8427693e-21
38	0x9daaef44	-4.524602e-21
39	0x9ee2708a	-2.3975226e-20
40	0xae800664	-5.821901e-11
41	0xa5c1654f	-3.3548812e-16
42	0x9e7ba186	-1.3321232e-20
43	0x1efdd657	2.6876066e-20
44	0x9effadca	-2.7071053e-20
45	0x1e5b6da6	1.1616438e-20
46	0x1e3838f4	9.7526565e-21
47	0x1d2201c8	2.1441442e-21
48	0x9dd92aee	-5.748381e-21
49	0x1e6c0266	1.2494232e-20
50	0x26ab8b10	1.1903202e-15
51	0xa74b0cd6	-2.8178868e-15
52	0xa495f330	-6.5030425e-17
53	0x28539696	1.1745506e-14
54	0xaa5422f0	-1.8841504e-13
55	0xaa29294d	-1.5024544e-13
56	0xa8fecfd9	-2.8289804e-14
57	0x264a635c	7.0217485e-16
58	0x2a6f1062	2.1233148e-13
59	0xa8dbc63a	-2.4399851e-14
60	0xb8387798	-4.39804e-05
61	0x2a935e34	2.6177812e-13
62	0x253de148	1.6469465e-16
63	0x27b22781	4.9447755e-15
64	0xa886cfd1	-1.4967115e-14
65	0xa83a0da3	-1.0328031e-14
66	0x26cae140	1.407762e-15
67	0x2e08581e	3.1001084e-11
68	0xa7520ad4	-2.9149224e-15
69	0x377a9d45	1.4937778e-05
70	0xa7703b08	-3.3338692e-15
71	0x2c08b0ec	1.9424974e-12
72	0x2b13c386	5.2496234e-13
73	0x272400ba	2.2759966e-15
74	0x2ab3847f	3.1888725e-13
75	0xb5e995c0	-1.7403436e-06
76	0xa60d0a7a	-4.89334e-16
77	0x34e80d36	4.322298e-07
78	0xa69fd1bc	-1.108969e-15
79	0x2820cc41	8.926075e-15
80	0xa8f31f30	-2.6991945e-14
81	0x240c2050	3.038503e-17
82	0x251d0463	1.3619066e-16
83	0x29dad5c6	9.7182286e-14
84	0x272bfdec	2.3868668e-15
85	0xa336640c	-9.8874255e-18
86	0x2903a7f0	2.9233506e-14
87	0x25b9f8ba	3.2260928e-16
88	0xa4f92784	-1.0805348e-16
89	0xa5074134	-1.1731475e-16
90	0x3507ffc8	5.066363e-07
91	0xa34149f8	-1.04782145e-17
92	0x35fd9354	1.8892847e-06
93	0x35971140	1.1255397e-06
94	0xaabc5f10	-3.3461471e-13
95	0x2737864c	2.5469154e-15
96	0xa983acc8	-5.8475414e-14
97	0x2ac1abe1	3.4402952e-13
98	0x27905602	4.006128e-15
99	0xa806ab9e	-7.475708e-15
100	0x9f12bb54	-3.1071657e-20
101	0x1e02ce8e	6.924857e-21
102	0x1f05d02e	2.8336048e-20
103	0x9e03e830	-6.9830975e-21
104	0x1e96d9df	1.5971977e-20
105	0x1b592a40	1.7963471e-22
106	0x1e9f82c8	1.688887e-20
107	0x1e370fb8	9.69119e-21
108	0x1ed4188e	2.2456529e-20
109	0x9f1554c3	-3.162209e-20
110	0x9ed2b467	-2.2309228e-20
111	0x1f85612f	5.648847e-20
112	0x1e6139b2	1.1923332e-20
113	0x9e38b0ee	-9.777467e-21
114	0x1e62ab52	1.19997686e-20
115	0x1ff638f7	1.0427929e-19
116	0x9e651090	-1.2126584e-20
117	0x9fa0a1ee	-6.8030526e-20
118	0x9ebb592b	-1.9836274e-20
119	0x9e1ccb80	-8.300654e-21
120	0x1f813492	5.4720595e-20
121	0x1f00f910	2.7311074e-20
122	0x9c912340	-9.604407e-22
123	0x1f86b7d0	5.70553e-20
124	0x1d44a55e	2.6025877e-21
125	0xa6b2da9e	-1.2410487e-15
126	0xa575576a	-2.127998e-16
127	0x2587e18a	2.3571598e-16
128	0xa29c9fe4	-4.2453176e-18
129	0xa3838a3b	-1.4261591e-17
130	0xa40cde73	-3.0546083e-17
131	0xa5bbebc1	-3.2599082e-16
132	0xa588a86b	-2.3706364e-16
133	0xa37c0678	-1.3662317e-17
134	0x2286ce4c	3.65392e-18
135	0x23f6d0cf	2.6759807e-17
136	0xa3a4ec86	-1.7881087e-17
137	0xa472a488	-5.261475e-17
138	0x25ca6a65	3.511351e-16
139	0xa34f7ea0	-1.1248306e-17
140	0xa2165ae0	-2.03769e-18
141	0x23857940	1.447124e-17
142	0xa535b956	-1.5762042e-16
143	0x2657078c	7.460334e-16
144	0x20801fdc	2.1705126e-19
145	0xa6811977	-8.958075e-16
146	0xa37be520	-1.3655256e-17
147	0x20d1c114	3.5533746e-19
148	0x2541488b	1.676466e-16
149	0xa4d82824	-9.374307e-17
150	0xa960f891	-4.995359e-14
151	0x278517f5	3.694089e-15
152	0xa93edd7f	-4.2380592e-14
153	0xaa329f99	-1.5864947e-13
154	0x2b089572	4.8524303e-13
155	0x2cf1ac6d	6.868775e-12
156	0x29c86998	8.900102e-14
157	0x2cc1caf2	5.5079214e-12
158	0x2c0ab240	1.9709928e-12
159	0x2a9bb3fe	2.7658426e-13
160	0xa8853e73	-1.479305e-14
161	0x3383f372	6.144445e-08
162	0x28a2e675	1.8085558e-14
163	0x28488bc5	1.1132538e-14
164	0xa9eff2c2	-1.0655844e-13
165	0xab8c36c1	-9.962796e-13
166	0xa9bd898d	-8.417147e-14
167	0xb022c2b8	-5.921197e-10
168	0xa67b61d8	-8.721572e-16
169	0xad11e5bb	-8.293306e-12
170	0x2c26a830	2.3683382e-12
171	0xae5a6263	-4.9654846e-11
172	0x371b29ec	9.248481e-06
173	0x2a15bdf0	1.3299756e-13
174	0xaca8ebb6	-4.8010164e-12
175	0xa8c74b9d	-2.212623e-14
176	0x289ea8fb	1.7614807e-14
177	0x2995737c	6.6369626e-14
178	0xb7dd237d	-2.6361779e-05
179	0xab04b8aa	-4.7152093e-13
180	0xa59bd700	-2.7033904e-16
181	0xa98f1006	-6.353255e-14
182	0x28bfdaf4	2.1300216e-14
183	0xaa9b7640	-2.7615583e-13
184	0x2a575df4	1.9128433e-13
185	0xa8630a2d	-1.2603238e-14
186	0xaa97f599	-2.6993406e-13
187	0xa71e9000	-2.2004967e-15
188	0x28209452	8.913946e-15
189	0x293df356	4.217749e-14
190	0xaa1d1ae0	-1.3953725e-13
191	0x357727bf	9.207251e-07
192	0xaadefba4	-3.9609733e-13
193	0x261b4130	5.3864773e-16
194	0xab61b802	-8.019142e-13
195	0x28c6c175	2.2066315e-14
196	0xa8f2eac0	-2.6969204e-14
197	0xb42cd3d3	-1.609581e-07
198	0x29d1b573	9.312941e-14
199	0xa85ff360	-1.243176e-14
200	0x9e7bbd98	-1.33270364e-20
201	0x1d81b6c4	3.433499e-21
202	0x1e824d38	1.3796222e-20
203	0x9e5a7398	-1.1564728e-20
204	0x1e04328c	6.998475e-21
205	0x1e0d3f1c	7.4775286e-21
206	0x1e8aa309	1.4678748e-20
207	0x1ec7f25e	2.1170185e-20
208	0x9f195d59	-3.2476226e-20
209	0x1e00fccc	6.828541e-21
210	0x1e098954	7.281118e-21
211	0x1e7d5269	1.34107505e-20
212	0x9e1c9b50	-8.290689e-21
213	0x9db088a8	-4.672811e-21
214	0x1e0652c4	7.1110165e-21
215	0x9f0b6ffb	-2.9527023e-20
216	0x9e086929	-7.221527e-21
217	0x9e677666	-1.2253522e-20
218	0x9d3ac2dc	-2.4717635e-21
219	0x9f3b00d2	-3.959947e-20
220	0x9e004823	-6.791181e-21
221	0x1e73248a	1.2871869e-20
222	0x1e651e31	1.21294025e-20
223	0x1e36294c	9.64354e-21
224	0x1f169bd5	3.1892637e-20
225	0x9e12a80b	-7.763926e-21
226	0x9f0d94ba	-2.9980935e-20
227	0x9e59e43f	-1.15350845e-20
228	0x1d966e4d	3.9818718e-21
229	0x9ecd5d80	-2.174389e-20
230	0x1d09bc80	1.8229251e-21
231	0x1f028282	2.7636524e-20
232	0x9da867da	-4.457661e-21
233	0x9f0747a8	-2.8646635e-20
234	0x9d9f6482	-4.2190872e-21
235	0x9e61c061	-1.1951184e-20
236	0x1edc2cdf	2.3311964e-20
237	0x1f019a49	2.7444434e-20
238	0x1d35d34c	2.4064388e-21
239	0x1ebe4b9c	2.0148304e-20
240	0x9ef82e55	-2.6277184e-20
241	0x1d4e07c4	2.7267888e-21
242	0x9f0edf7e	-3.0254538e-20
243	0x9e26b774	-8.825904e-21
244	0x1d9c622c	4.1394364e-21
245	0x9e6dc7a2	-1.2587959e-20
246	0x9e623054	-1.1974334e-20
247	0x99b59400	-1.8774738e-23
248	0x9e305926	-9.335798e-21
249	0x9ecc87c2	-2.1655488e-20
250	0xa81222b8	-8.1121565e-15
251	0x245c1fe0	4.7731895e-17
252	0xa6a186c0	-1.1208143e-15
253	0x28b38f70	1.9935198e-14
254	0x28cf3725	2.3005532e-14
255	0x2abcf7c6	3.3567436e-13

layers.8.bias f4 [20]
0	0xba99713a	-0.0011706718
1	0xafc8676f	-3.6453282e-10
2	0xb301ae7e	-3.0193853e-08
3	0xb5861eb8	-9.992718e-07
4	0xb67b1242	-3.7412542e-06
5	0xba83fed7	-0.0010070455
6	0xb8ac4bda	-8.2157276e-05
7	0xba90a4f2	-0.0011035486
8	0xb3f22743	-1.1276145e-07
9	0xb44b1d90	-1.8916603e-07
10	0xb5ae6c22	-1.2995481e-06
11	0xbb30a316	-0.0026952676
12	0xb1f6c02b	-7.1813893e-09
13	0xafa3d633	-2.9801725e-10
14	0xb38a7693	-6.447694e-08
15	0x389ff134	7.6266384e-05
16	0xb6a42914	-4.892363e-06
17	0xb3bd00bd	-8.8011326e-08
18	0xb833bbc0	-4.285178e-05
19	0xb49a87cb	-2.8783538e-07

layers.10.weight f4 [10, 20]
0	0x3890638c	6.884997e-05
1	0x1fa4c5ea	6.978412e-20
2	0xb46f3d20	-2.2280847e-07
3	0x32ea71bc	2.7292906e-08
4	0x26e831d7	1.6111743e-15
5	0xb8375fda	-4.371987e-05
6	0x37e86608	2.7704067e-05
7	0xb0b410a4	-1.3101453e-09
8	0xa5da2dd8	-3.7848037e-16
9	0x27183cd4	2.1127212e-15
10	0x35373f86	6.826525e-07
11	0x358a53dd	1.0306209e-06
12	0x2135bcf8	6.1575283e-19
13	0x1f5bd4e0	4.655114e-20
14	0xb3909eb5	-6.734391e-08
15	0xb83171f0	-4.23062e-05
16	0x2794eff8	4.1338427e-15
17	0x225e39ab	3.011714e-18
18	0x2e884120	6.1961325e-11
19	0xa51ede58	-1.3779648e-16
20	0x37bb61ca	2.2337674e-05
21	0xa11fc23a	-5.412835e-19
22	0xb499682f	-2.8574274e-07
23	0x33f302b0	1.1316058e-07
24	0xa6e0e022	-1.5603874e-15
25	0xb7cf6206	-2.4721969e-05
26	0x3908f9df	0.00013063055
27	0x334f1edb	4.8224006e-08
28	0xa3ae3014	-1.888548e-17
29	0x23f7cd49	2.6866735e-17
30	0x337fa030	5.9517504e-08
31	0x3474179d	2.2732861e-07
32	0x9f35bec4	-3.848604e-20
33	0x20faea2f	4.2506617e-19
34	0xb33a7d7f	-4.3420638e-08
35	0xb89655ba	-7.168525e-05
36	0xa330d093	-9.5851464e-18
37	0x21baf31e	1.2668203e-18
38	0x2eae7dfb	7.9349825e-11
39	0x23f019c9	2.6031773e-17
40	0xb78325b4	-1.5633974e-05
41	0x21e84f43	1.5741912e-18
42	0xb46f77fd	-2.2302261e-07
43	0x33dcb531	1.0277507e-07
44	0x28cf1d14	2.2994227e-14
45	0x37eb1b40	2.8026872e-05
46	0xb9005876	-0.00012239986
47	0xb23f0977	-1.1119815e-08
48	0x26077fd8	4.7010794e-16
49	0x269d65c0	1.0921643e-15
50	0x330380b8	3.0617883e-08
51	0xb591f54e	-1.0874735e-06
52	0x22b05b77	4.7801738e-18
53	0x20a288e5	2.7534457e-19
54	0xb26a6c66	-1.364524e-08
55	0xb7fb3fd6	-2.9951258e-05
56	0xa61c5733	-5.424155e-16
57	0x23321520	9.653873e-18
58	0xb1491324	-2.926023e-09
59	0x275b30ac	3.041874e-15
60	0xb8e14b86	-0.000107429034
61	0x20c7a7bc	3.3822909e-19
62	0xb4d97b6e	-4.0509207e-07
63	0x3400334c	1.193959e-07
64	0x24c7fe42	8.673322e-17
65	0x37828f27	1.5563868e-05
66	0x388762b2	6.455685e-05
67	0xb49794a6	-2.8234098e-07
68	0xa5296fc4	-1.4696281e-16
69	0xa60f4e07	-4.971884e-16
70	0xb46b1256	-2.1892751e-07
71	0xb52c9a12	-6.4299195e-07
72	0xa2b1aebd	-4.8160957e-18
73	0x2134d3ed	6.1266854e-19
74	0x32c4a5e7	2.2892847e-08
75	0x37698246	1.3918214e-05
76	0xa603faa4	-4.5789436e-16
77	0xa135c49a	-6.1585385e-19
78	0xac0e99ff	-2.0264899e-12
79	0xa67b2f59	-8.7147287e-16
80	0x3824fbfe	3.9335333e-05
81	0xa17f691a	-8.653646e-19
82	0x32acc41e	2.011262e-08
83	0x33fe1d15	1.1833087e-07
84	0x26060396	4.649545e-16
85	0x3780870e	1.5321679e-05
86	0x3801923d	3.089219e-05
87	0x33b3985b	8.36305e-08
88	0x22f1ffea	6.559414e-18
89	0xa4ae5034	-7.559634e-17
90	0x344eb0d0	1.9249569e-07
91	0x35468a9c	7.396245e-07
92	0xa1831610	-8.882745e-19
93	0xa07eba0f	-2.1576198e-19
94	0x32930e1b	1.7119467e-08
95	0xb895ad40	-7.137144e-05
96	0xa521f234	-1.4046586e-16
97	0x9fd7608a	-9.121575e-20
98	0xb313e674	-3.44357e-08
99	0x24bec9a2	8.2740944e-17
100	0xb8604884	-5.3473297e-05
101	0xa0fa6d73	-4.2424075e-19
102	0xb2b51e44	-2.1084936e-08
103	0x3489fd7b	2.570267e-07
104	0xa64b04da	-7.043635e-16
105	0x385b921f	5.2349755e-05
106	0x390f9042	0.00013691283
107	0xb03c8eb6	-6.8596806e-10
108	0x22d6b0e9	5.8192127e-18
109	0xa48daaac	-6.143813e-17
110	0x3533285a	6.6741416e-07
111	0x35505fb5	7.762531e-07
112	0xa05b40e4	-1.8571492e-19
113	0xa099bbe4	-2.6043544e-19
114	0xb3022861	-3.0304708e-08
115	0x3832eb34	4.2657557e-05
116	0xa4a8edf4	-7.3261494e-17
117	0x20bc0a92	3.1855434e-19
118	0xb0079e9b	-4.9338106e-10
119	0x23ea352c	2.539285e-17
120	0x39e147f7	0.00042968962
121	0x2139e01c	6.2977044e-19
122	0xb430c96d	-1.6464556e-07
123	0x3408a07e	1.2724374e-07
124	0x26c567f0	1.3697793e-15
125	0xb83dc69a	-4.5246074e-05
126	0x38d3a6a4	0.00010092303
127	0x334da106	4.7876732e-08
128	0x22a517be	4.4748478e-18
129	0x241bac5f	3.375627e-17
130	0xb4f447bf	-4.5500744e-07
131	0xb526e29d	-6.2169585e-07
132	0x21b42cbc	1.2209116e-18
133	0x21553247	7.223375e-19
134	0x343a2c30	1.7338675e-07
135	0x38612327	5.367692e-05
136	0x23e66919	2.498116e-17
137	0x9fa773ae	-7.091863e-20
138	0xb102cb86	-1.903318e-09
139	0xa40dfb5c	-3.078741e-17
140	0xb9446e9a	-0.00018733219
141	0x207122e8	2.0425044e-19
142	0xb3681da0	-5.4043653e-08
143	0xb475763c	-2.2860416e-07
144	0xa605a8f3	-4.6372613e-16
145	0x370844d1	8.122254e-06
146	0xb93a1e0c	-0.00017749536
147	0x3005e8f0	4.871614e-10
148	0xa15c3860	-7.461351e-19
149	0x21a7abef	1.1361871e-18
150	0xb437080c	-1.704613e-07
151	0x35984352	1.1344475e-06
152	0xa15435c4	-7.189955e-19
153	0x208f6edc	2.4298503e-19
154	0x329bdb84	1.8144199e-08
155	0x38805daa	6.120962e-05
156	0x22e17d89	6.1119288e-18
157	0xa0a7ffc6	-2.8460157e-19
158	0xaf097546	-1.2501741e-10
159	0xa21632af	-2.0355622e-18
160	0x38119743	3.4711567e-05
161	0xa0272dd8	-1.4160619e-19
162	0x3484b2b4	2.471694e-07
163	0x33681120	5.4032284e-08
164	0xa8521fe7	-1.16642595e-14
165	0x36b358b0	5.3449403e-06
166	0xb8a587b6	-7.893091e-05
167	0xb282b19d	-1.5214761e-08
168	0x2077c498	2.0986761e-19
169	0xa389a986	-1.4925366e-17
170	0xb3bd3356	-8.810336e-08
171	0x360ecc7a	2.127867e-06
172	0x9f616b7f	-4.7734522e-20
173	0x1ff0ca42	1.0197856e-19
174	0xb1a8d9ce	-4.914205e-09
175	0x3701a439	7.727235e-06
176	0xa4dffacb	-9.7135694e-17
177	0x9fbe0533	-8.047673e-20
178	0x312685d4	2.4232252e-09
179	0x21f75566	1.6759976e-18
180	0xb7d0e13d	-2.4900417e-05
181	0x20cd3d80	3.4769048e-19
182	0x33e563e9	1.0681817e-07
183	0x3389a386	6.4093044e-08
184	0xa92e2aa7	-3.8672756e-14
185	0x35b55bc0	1.3512254e-06
186	0xb9792004	-0.00023758417
187	0xb2e29112	-2.6375833e-08
188	0xa33c4b9c	-1.0207511e-17
189	0xa4016661	-2.8059134e-17
190	0xb4842332	-2.4612524e-07
191	0xb437223d	-1.7055659e-07
192	0x9fb2b106	-7.567879e-20
193	0xa0badc93	-3.165559e-19
194	0xb3714bfb	-5.618129e-08
195	0x37cfd3d9	2.4774972e-05
196	0xa42e67b7	-3.7818085e-17
197	0x218ddcea	9.613007e-19
198	0x3101a802	1.8867472e-09
199	0x2455280b	4.622093e-17

layers.10.bias f4 [10]
0	0x3be03b7d	0.006843029
1	0x3b1b48d6	0.0023694537
2	0x3bd22336	0.006412889
3	0xbb40fb3e	-0.0029446627
4	0xbb01205c	-0.0019703126
5	0xb9f648a2	-0.00046974892
6	0xb9f7eb3c	-0.00047286774
7	0xbaa2a2be	-0.001240812
8	0xbb8ca427	-0.0042920294
9	0x3965baee	0.00021908779
