DNN_models/DNN_model1.ckpt (torch_old, 625543 bytes, 6 tensors)

layers.0.weight f4 [50, 3072]
00000000: df0d f73b aacd 883b 1a41 643b c533 383b
00000010: 3cfe 0b3c 9470 363c 04ad 853c 6e88 8a3c
00000020: 5e55 893c 269f 3e3c 0d21 103c 4569 463c
00000030: 784c 0e3d 3970 013d b9af 043d d9e9 e63c
00000040: 3d97 db3c 2519 e73c b977 073d add7 1c3d
00000050: 74ec ff3c 496d a13c 0311 653c 1665 923c
00000060: 9961 b33c 252e bb3c b0a9 cd3c 88b5 a33c
00000070: 1ace 5a3c f1f5 f43b 9a41 063c 38e8 033b
00000080: 8883 ef3b 6b03 f13b f887 1a3c 1bf5 9c3b
00000090: 9f3a 8f3b 8a05 2f3c e2bb ce3c 2e67 e13c
000000a0: 61c0 e73c 0076 0e3d ebc5 1b3d 6b11 2a3d
000000b0: 8a71 173d e3f5 eb3c 40c6 da3c 5b19 a43c
000000c0: 4c2b a93c 2aa0 e33c 3037 1a3d 3454 503d
000000d0: b000 623d 4517 503d 67c9 433d 2c7b 153d
000000e0: 32d4 f23c f805 0a3d f2b8 e83c e338 d33c
000000f0: f4b5 033c bb74 ea3b 6226 243c c1fe a339
00000100: b9b0 133c 66e7 5b3c ed14 743c 2ac4 743c
00000110: ca0e 173c 5cbf 813c 90c1 8b3c 6ce8 853c
00000120: 3df2 903c 610f bb3c 9f2f c33c 57e6 e13c
00000130: 1221 c03c cd26 a93c 401f b13c 27b4 b23c
00000140: 7faf da3c 9560 063d 49e8 203d 7cc1 243d
00000150: 3aa2 003d 324d cd3c 92d5 f93c fdc9 033d
00000160: 5cc9 0c3d b2ba 3b3d b588 4f3d 2752 273d
00000170: 5232 cc3c 972a 883c db9a ba3c eaa5 263c
00000180: 15b4 813c 1ccc be3c 259f df3c 4fb6 cb3c
00000190: 9afd 363c eeb3 fa3b 18ce 363c 8fc0 523c
000001a0: bd4f 983c 7df2 a13c 0dea 693c 7352 103c
000001b0: 40a5 e33a b9da 64bb 7bc2 29bc a066 9dbc
000001c0: 0e3b 87bc aaab 11bc b985 c63b b215 983c
000001d0: f035 a43c a875 c33c 0e15 d23c 0c5c d83c
000001e0: e0d2 d83c cc37 193d 12b3 333d 2d47 323d
000001f0: 00e1 173d 327d 9e3c 1b08 aa3c 037a 9f3c
00000200: 6218 693c 1814 bd3c 9b87 cb3c 4586 023d
00000210: 0d5a 943c 0ff4 4e3c 311e 3a3c 2e0a 3f3c
00000220: 38e8 683c f84b 043c 5b74 1e3b 4d58 3abc
00000230: e2a7 14bd ba45 71bd e71c 9bbd fec6 a5bd
00000240: eeb2 99bd eddb 7cbd b9d0 26bd 99cf a6bc
00000250: 48f1 79bb 6bab e63b 687e 2e3c 9591 853c
00000260: 0465 c23c 4a5f 1d3d 836f 313d 454b 333d
00000270: 1233 1b3d 6f85 f93c 45ea ab3c 252d b63c
00000280: 7b55 1f3c 238d 193c 7157 c03c e091 b23c
00000290: f479 4a3c 978b 533c 0b82 283c 6955 1b3c
000002a0: dd35 f73b b9b3 e3bb 1e7d b9bc 9108 09bd
000002b0: 69a2 27bd 879f 3bbd 2dee 41bd 5aea 48bd
000002c0: 6287 3ebd 4ae5 18bd 0a1e 0dbd 9406 18bd
000002d0: 6c47 fabc 3285 ddbc 11c6 95bc d2e1 c5ba
000002e0: 13fe 3d3c e7f0 c03c fddb 0a3d d75d 263d
000002f0: db9f 153d 187c eb3c 0013 9f3c a5c7 bf3c
00000300: 57b5 d43b e72c 043c 85f5 a73c 0f7a a33c
00000310: 13e9 333c 101b 083c 6be6 f0bb 534a 02bc
00000320: f949 62bb 7e63 1bbb d2f1 cfbb 1761 54bc
00000330: 8e4e 81bc 0e26 a0bc abb3 87bc 16b4 82bc
00000340: 8a65 96bc 927b 6fbc 3923 50bc 8db8 8bbc
00000350: c16f 8fbc 02aa 88bc 96d0 5cbc e8e1 82bb
00000360: 74ad 8eba a1b7 dd3a 7269 803c d37b cf3c
00000370: 9966 ce3c a5a9 df3c b6db 883c d5aa a23c
00000380: 6f9d 393b 9ff7 8d3b 04b4 b93b f90a 6d3b
00000390: bf04 51bb 353f 223a 8673 303b c62d 943c
000003a0: 7266 bb3c 2b9a 783c 4f8d 303c 4f68 2a3c
000003b0: 7eac 0d3c 5a48 173b 8e21 873b e742 493b
000003c0: 9dfe 7c3a 1e51 403b d619 0c3c 9bc2 9f3b
000003d0: ec84 8f3b 6235 263c d1ba 0f3c 0d74 b33b
000003e0: 9ca5 b03a 865e d7bb 017c 3c3b 67ac 533c
000003f0: d4fa 253c a9da 843c 671f 1b3c 3dec 313c
0.0075394954 0.0041749077 0.0034828843 0.002810703 0.008544501 0.011135239 0.016317852 0.016910758
0.016764339 0.011634624 0.008796942 0.012110059 0.034740895 0.031601164 0.032394145 0.02818768
0.026805514 0.028210232 0.03307316 0.038291622 0.03124068 0.019705432 0.013981107 0.017870467
0.021897124 0.022849152 0.025105327 0.019984022 0.0133548025 0.0074756076 0.008194352 0.0020127427
0.007309381 0.007355144 0.009431832 0.004789961 0.004371002 0.010682473 0.025236074 0.02751502
0.028289976 0.034780502 0.038030546 0.041520517 0.036973514 0.028803771 0.026705861 0.020031622
0.020650528 0.027786333 0.037650287 0.050861552 0.055176437 0.05080344 0.047799494 0.03649442
0.029642198 0.0336971 0.028408501 0.025783962 0.0080389865 0.0071550286 0.010018917 0.0003127959
0.009014302 0.013421869 0.014897567 0.014939347 0.009219835 0.015838318 0.017060071 0.016346179
0.017693633 0.022834482 0.023826418 0.027575655 0.02345327 0.020648384 0.021621346 0.021814419
0.026695011 0.03280695 0.039284024 0.040223584 0.03140471 0.025061224 0.030497346 0.032175053
0.03437172 0.045832343 0.050667483 0.04084983 0.024926338 0.01662187 0.022778919 0.010171393
0.01583294 0.023290686 0.027297566 0.024867205 0.011168862 0.007650844 0.011157535 0.012863292
0.01859271 0.019768948 0.014276993 0.00880872 0.0017367974 -0.0034920408 -0.010361309 -0.019213974
-0.016507652 -0.008891026 0.0060584215 0.018565033 0.02004525 0.023859814 0.025644805 0.026411079
0.02646774 0.037406728 0.043871947 0.04352491 0.03707981 0.019346807 0.020755818 0.01946736
0.014227005 0.02308087 0.024844935 0.03186633 0.018109346 0.01263143 0.011359737 0.011660142
0.0142155215 0.008074753 0.002417824 -0.011373592 -0.036292918 -0.058904387 -0.07573872 -0.080945954
-0.07504831 -0.061733175 -0.040726397 -0.020362662 -0.00381382 0.0070394776 0.010650255 0.01630477
0.023729809 0.038420953 0.043319236 0.043772954 0.0378905 0.030459134 0.020985732 0.022238323
0.00972497 0.0093720285 0.023479195 0.021798074 0.012358177 0.012911699 0.010284911 0.009480813
0.007544263 -0.006948915 -0.022642668 -0.033455435 -0.04092637 -0.045806434 -0.047346283 -0.04905162
-0.04651583 -0.037328042 -0.034452476 -0.03711565 -0.030551635 -0.027041052 -0.018282922 -0.0015097207
0.011596221 0.023552371 0.033901203 0.040616836 0.036529403 0.028745696 0.01941824 0.023410628
0.006491344 0.008067346 0.020502815 0.019955663 0.010980862 0.008307233 -0.0073516867 -0.007952291
-0.0034528954 -0.0023710425 -0.006345966 -0.012962601 -0.015784528 -0.019549396 -0.016565165 -0.015955012
-0.018358964 -0.014616864 -0.01270371 -0.017055774 -0.017509343 -0.016682629 -0.013477465 -0.0039942153
-0.0010885433 0.0016915688 0.01567528 0.025327599 0.025195407 0.027302573 0.016706329 0.01985685
0.0028322597 0.0043324973 0.0056672115 0.003616987 -0.0031893698 0.0006189228 0.0026924326 0.018088233
0.022875998 0.015173475 0.010775878 0.010400846 0.008647082 0.0023083896 0.004123873 0.0030710043
0.00096509774 0.0029345225 0.008551082 0.0048754937 0.004379859 0.010144563 0.008772568 0.005476481
0.001347709 -0.0065725474 0.0028760436 0.012919522 0.010130603 0.016217547 0.009467936 0.010859546

layers.0.bias f4 [50]
00000000: cd2b d9bb 018e 233c fec6 6dbd 4652 82bc
00000010: b085 b43c a358 5bbd 367f ebba a89a 903c
00000020: aff3 f03b b444 1bbd 18d2 903c 4556 51bd
00000030: 8501 06bd 649e 9ebc ad99 6fbd 7e98 a0bb
00000040: cff6 f53d 80ce e03d 26c6 173d 967a 453b
00000050: 74ea 8c3d 3279 0ebd 4f4f 01bd 32ff 08bc
00000060: 6ab5 c83c 98e7 9a3d 612d c8bc da60 51bd
00000070: 4ce5 2ebb e566 9b3d 3761 803d fabd b2bd
00000080: a520 a23d 0741 b6bc 693b 933d 42fb 693c
00000090: 8dda 523d 81e8 1ebd a714 7abd 6cf9 e93d
000000a0: 3a5e 6f3d 232f 8cbd 7149 0fbd 46bd 43bd
000000b0: 1a85 1abd d8e8 173d 882d 19bd 569a 873b
000000c0: 491f dabd f50e c4bb
-0.006627536 0.009982587 -0.058051102 -0.015908372 0.022036403 -0.053551327 -0.0017966989 0.01765187
0.007353268 -0.037907317 0.017678306 -0.051107664 -0.032716293 -0.019362636 -0.058496166 -0.004900991
0.12009966 0.10976887 0.037054203 0.0030132881 0.06880656 -0.03478355 -0.031569775 -0.008361625
0.024500567 0.07563704 -0.0244357 -0.051117755 -0.0026686965 0.07587985 0.06268542 -0.087276414
0.07916383 -0.022247804 0.07189066 0.014281096 0.051477958 -0.03879595 -0.06105485 0.114245266
0.05843947 -0.06844928 -0.03498215 -0.047787927 -0.03772459 0.03708729 -0.037396938 0.0041382713
-0.106504984 -0.0059832283

layers.2.weight f4 [40, 50]
00000000: 0f5a 88bd 094c b8bc 24d1 523d 73d2 ddbc
00000010: df77 bdbc 1335 0f3e 2197 3f3d 3065 dfbb
00000020: af19 143d 257a 043e 3bf9 d9bc f86a f23d
00000030: 898c a03d 047f 6b3d 04ec 6f3c 1dce 99bd
00000040: 2ade edbc 1e11 51bc c335 e6bd e73e 9c3c
00000050: b018 253d 5087 72bb 04a6 0c3c 4b32 33bd
00000060: e9b0 61bc 873c bdbd 47c4 adbc 5e73 8dbd
00000070: b43d 253e cc6f 2f3b 9c6d 293d 8b4a e23c
00000080: 1618 233d 9de9 1a3e c5ee febc 0aa9 9abc
00000090: e60b 90bc 1b48 2c3d b3a6 d93d 5d38 89bb
000000a0: b33e d33c a589 163e e0dc b13c e30b 293c
000000b0: 7ca3 d23d af3f c83c a1b5 9f3d 2e6e c13d
000000c0: 4c01 313d aa85 8a3c e38b 423d 52ce e6bb
000000d0: 0cb1 20bd 868c 8a3c 3b9d 7b3d 86b3 1b3e
000000e0: 4dfa 833d 1b08 ffb9 b16f acbc 0e94 90bc
000000f0: 0c00 b4bd 077c 9d3d e229 ec3d 6516 a83d
00000100: 0a51 e53d 5236 66bd d436 193c ead3 d7bc
00000110: c30f 1cbd 0462 4d3d 9bd3 ea3c 535f 5ebc
00000120: d201 09bd 12cc d3bc 3574 9abc b838 0fbc
00000130: 40b5 9bbd f8f9 e73c df50 6ebb 4f00 ebbb
00000140: c5ee 023d 27ca b13d ba85 233c fdec 3c3d
00000150: 69f5 90bd d5fc b6bd 41b5 fabc 1578 7abd
00000160: 0710 7b3d da9d ff3b f683 ac3b 1a43 75bb
00000170: f95c 073e c93e b03c dcbd 1f3e 3f40 ca3c
00000180: 319f 813d 8048 9bbc 88c6 fb3d 7185 af3d
00000190: 126b 083d 1d2f febc c398 223d 3059 703c
000001a0: 2d70 2a3d 40a2 3abd 5ed3 32bd f018 20bd
000001b0: d242 5cbc e067 903d 2794 d33c 34d1 813c
000001c0: 9e83 a3bd 8df0 523c 7cce 52bc bae4 6f3d
000001d0: 2c15 f23c fd07 573d 409d 2bbd 4e02 cebc
000001e0: a512 403d f8b8 013e 24f6 103e b406 96bc
000001f0: b031 afbd be33 a53d be74 e83d 6aec 953c
00000200: 2f87 87bc ac96 433d 6d5f 3a3d 6ba3 723d
00000210: d75d fcba dbe8 c3bc 5725 7e3d dc3b 553d
00000220: 6ad4 37bd b49c 04bd de69 213d 13be ddbb
00000230: 4f18 2c3d fbd2 533c 2a96 acbc 4f2d 0cbb
00000240: 1646 b5bc f4b1 64bd f508 11bd e10a 2dba
00000250: f71a 783d 8496 bc3a 55d3 0100 88a7 cf9f
00000260: bc46 d395 fd49 9c9e 8c3e 0500 ca93 8097
00000270: de3d b79b ad53 fa9c 066f 849d 8407 6696
00000280: a587 0900 87dc 2913 cafb dc9c 4457 969d
00000290: 1596 ac9a 2c7d 0180 3b5e d39a 8bcd 0800
000002a0: 3454 8d9d 827e fa9c 4b88 0200 8ed7 5613
000002b0: fbf7 0400 4e5d ab99 1755 759c 47cb 0280
000002c0: 49c2 0a00 62cd 6795 03fb ea9d 3892 0100
000002d0: 00be 0a80 c5f6 a695 12fc a49a 930b 9c9f
000002e0: f656 0300 9be6 0100 6d76 1e9f 6cb7 7f99
000002f0: d344 3e13 bcc3 ab98 4e5d 0380 e216 5c8e
00000300: 56f1 4c9c 05d6 2099 4431 109d df43 a29d
00000310: 6a69 018e 817a aa9e 8ad3 a299 91f5 0900
00000320: b388 3ebe c086 b53d 43a2 043e 0186 83bd
00000330: 2c98 3ebc 3b09 53bc c0aa 733c c80e 4b3d
00000340: 5ade 413d 83b5 e73c 9054 2d3d 7d5d 813d
00000350: a7b6 5cbd 7bf5 073d 15dd 983d d328 25bd
00000360: e3a6 e93d 6066 c43b 7899 fbbc 130d 143d
00000370: 1119 5bbd f890 42bd d022 f1bd 60b7 5c3d
00000380: 6fac 0b3d e260 0abe 1d87 42be 5b41 3d3d
00000390: 4f36 b7bc 599a 79bc 15e1 11bc 75b1 96bc
000003a0: 2c9e 533d 1f53 2ebc 45d9 95bd 5b11 463d
000003b0: 3a3d 903d b8fe 753d 3f19 c53d d7b1 abbd
000003c0: e9ac f0bc 5d1f fe3d 6ce4 9f3d 3bdd ad3d
000003d0: 0faf 713d aaed a33d f9ea 653d c466 f83a
000003e0: 9856 053d 2094 50bc 7915 773c eb9a 203d
000003f0: 9212 b5bc 0ece 35bd b612 5c3d cfdc 103e
-0.06657802 -0.022497194 0.051468983 -0.02707789 -0.023128448 0.1398509 0.046774987 -0.0068174824
0.036157306 0.1293722 -0.0266081 0.11836809 0.07839305 0.05749418 0.014643673 -0.07510016
-0.0290366 -0.012760429 -0.11240723 0.019072963 0.040306747 -0.0037006922 0.008584503 -0.043749135
-0.013775089 -0.0924006 -0.021211756 -0.0690677 0.16136819 0.0026769517 0.041364297 0.027623435
0.039817892 0.15128179 -0.031119714 -0.018879432 -0.017583799 0.042060953 0.106274985 -0.004187627
0.025786733 0.14700945 0.021711767 0.010317775 0.102850884 0.02444443 0.07798315 0.09444843
0.043214127 0.01690944 0.047496688 -0.0070436383 -0.039231345 0.01691271 0.061429244 0.15205202
0.064442255 -0.0004864343 -0.021049352 -0.017648723 -0.087890714 0.07689672 0.11531426 0.082073964
0.111970976 -0.056204148 0.009351451 -0.026346166 -0.03810097 0.050142303 0.028665354 -0.013572532
-0.033449 -0.025854144 -0.01885424 -0.00874155 -0.0760293 0.028317437 -0.003636412 -0.0071716676
0.03196599 0.086811356 0.009980613 0.046124447 -0.07078058 -0.08934943 -0.030604007 -0.061149675
0.06129458 0.0078008 0.0052647544 -0.003742403 0.1321906 0.021514313 0.1559977 0.024688838
0.063291915 -0.01895547 0.12293726 0.08570374 0.033305235 -0.031028325 0.039696466 0.014669701
0.041610885 -0.04556489 -0.043658607 -0.039086282 -0.013443666 0.070510626 0.02582748 0.015846826
-0.07984088 0.012874735 -0.0128666125 0.05856774 0.029551111 0.052497853 -0.041898012 -0.025147583
0.04689278 0.12668216 0.14156395 -0.018313743 -0.08554399 0.0806651 0.11350392 0.018301208
-0.016543953 0.047751114 0.04550116 0.05923788 -0.0019254041 -0.023914745 0.06204733 0.05205904
-0.04488031 -0.032376006 0.039407603 -0.0067670434 0.04201537 0.01292872 -0.021067698 -0.002138931
-0.022128146 -0.05583377 -0.035408933 -0.00066010474 0.06057259 0.0014388119 1.67647e-40 -8.794507e-20
-8.533382e-26 -1.6547743e-20 4.81615e-40 -8.309113e-25 -3.031479e-22 -1.6565242e-21 -3.5054905e-21 -1.8581624e-25
8.7518e-40 2.1439527e-27 -1.4623465e-21 -3.97949e-21 -7.1380003e-23 -1.36739e-40 -8.741979e-23 8.08419e-40
-3.7409453e-21 -1.6576314e-21 2.32564e-40 2.7116874e-27 4.563e-40 -1.7718671e-23 -8.1173676e-22 -2.56593e-40
9.88051e-40 -4.6812097e-26 -6.2198824e-21 1.44289e-40 -9.86514e-40 -6.74362e-26 -6.823605e-23 -6.608772e-20
3.06702e-40 1.74561e-40 -3.355576e-20 -1.3220233e-23 2.4015304e-27 -4.4400105e-24 -3.08978e-40 -2.7128111e-30
-6.7809857e-22 -8.315027e-24 -1.9083711e-21 -4.295122e-21 -1.5951233e-30 -1.8050117e-20 -1.6835847e-23 9.14612e-40
-0.18606834 0.08863592 0.12952523 -0.064220436 -0.01163296 -0.012880619 0.014872253 0.049574643
0.04733119 0.028284794 0.042316973 0.063166596 -0.05388513 0.033193093 0.07464043 -0.040322136
0.11408784 0.0059936494 -0.030712828 0.03614528 -0.053490702 -0.047501534 -0.11774218 0.053885818
0.034099992 -0.1351352 -0.18996854 0.046204906 -0.022364764 -0.015234553 -0.008903761 -0.018395165
0.051664516 -0.010639935 -0.073168315 0.048356395 0.07042928 0.06005737 0.09623956 -0.0838353
-0.029379325 0.12408326 0.0780724 0.08489462 0.05900484 0.08004315 0.05613229 0.0018951525
0.032553285 -0.012730628 0.015080803 0.03921024 -0.022103582 -0.044385962 0.05372878 0.14146732

layers.2.bias f4 [40]
00000000: 7f21 97bd be2e aebd ae27 8e3d a60d 0a00
00000010: b73d a13d 8cde 63bc 6b35 023d 4243 273d
00000020: 0d0d a3bd 5052 b2bd e299 c8bd a7e0 423e
00000030: c469 0100 c6b3 d7af b6f5 693e b8fd b1a6
00000040: 0a63 f6bc b89e 2b3e 338a 4a3e 6dda cbbd
00000050: bb48 f23d 02e2 acbd 6694 c7bd 7778 523d
00000060: 8590 e1bc 6cda 073e 2929 b6bd b037 273e
00000070: 5d4e 2f3e befb 673d 0d8b 133d dea4 a9bd
00000080: ff0f dd3d 874f 983d 7cbd bd3d 1663 f0bd
00000090: 15c5 b3bd a8aa 2e3e e32d b8bd 7968 5b3a
-0.07379436 -0.08505009 0.06941162 9.23251e-40 0.07873099 -0.01390804 0.031789225 0.040835626
-0.079614736 -0.08707106 -0.09794976 0.1903101 1.29777e-40 -3.923601e-10 0.22847638 -1.2350613e-15
-0.030076522 0.16759765 0.19779281 -0.09953771 0.118302785 -0.08441545 -0.09745102 0.051384415
-0.027534733 0.13266915 -0.088945694 0.16329837 0.17119737 0.056636564 0.03602128 -0.08283399
0.10794067 0.07437044 0.09264657 -0.11737649 -0.08777825 0.17057288 -0.08993127 0.00083697547

layers.4.weight f4 [10, 40]
00000000: 5276 6b3c 8447 453b 6747 7abd 4355 1bb7
00000010: d4a5 1bbb 7c04 b83c 0ce6 94bd 830d 29bd
00000020: 732e aebb a551 a3bb b5cb 383c dbd2 f83d
00000030: 902d a73a e5b3 26bb 90e6 633d c760 14ba
00000040: 3372 a6bd 5b76 8fbd 1bdc d33d 4d75 99bb
00000050: 31cf dfbd 2299 8cbb 211b 5c3c 23d7 0abd
00000060: dcc1 a93c 8f01 05be 20a7 49bb 95fa b1bd
00000070: 4ea0 abbd e666 03bd b174 963c bd4a 853b
00000080: e742 11bc 7c41 e0bc 9b73 ea3d 931d 423c
00000090: 5f1b 57bb 4807 383e 05f7 ff3c 8bad cabc
000000a0: 478a d53d 8b6d 873d ae99 d73b 415c 8ab7
000000b0: b51d aabd e6c8 083d 7799 65ba dce8 2dbe
000000c0: 524a dc3d f736 ab3d 1d5d 843d 096d 34be
000000d0: a097 efb8 e01c 7c3b a921 5ebe cd76 4eba
000000e0: 317c 193d 0902 2dbd c108 79bd 6af3 a83d
000000f0: 689a 75bd 5624 d63d e48a 633d 4584 f0bd
00000100: 2b01 423d 15cf 62bd fbb6 c03d 43fe 6ebd
00000110: f641 53bd a118 96bd 86c3 ccbc fa2c 503d
00000120: 7165 58be 5075 463c 44a1 c73c 83f3 a73d
00000130: 3622 ca3d 0146 99bd 2ca7 863d 269b 46bd
00000140: 5be3 e33b c0dc 1ebe ebb8 3c3d 342d 9738
00000150: d4b7 ccbb 4287 b0bd 13e0 6d3d 29a0 bd3c
00000160: feae e5bd 7b64 61bd 1413 efbd 03f2 db3d
00000170: 13dc edba 3380 e3bb 90c1 023e 9790 1f39
00000180: c0f0 743d fe4d 0b3d 545e 403d 5ce4 95bd
00000190: 5322 103c 52a3 46bd 46c8 adbd 0b79 b8bc
000001a0: 8bf4 01bd 2b5d 47bc d835 e93b a7d0 233d
000001b0: 326c 073d 1d93 68bd 0f2d d3bb ea13 11be
000001c0: df8c 71bc 56be 913d 4b23 263d 4ec1 a23b
000001d0: 064d a3bd 7b11 163e 84e6 e9bc fcf6 ac3b
000001e0: 564d 24bd e5ef e3bc 64d2 8a3c b939 2f36
000001f0: 33a4 45bd 4092 c7bd 52fb ec3b 8725 9a3d
00000200: 1342 1a3c 349e 013a 0d0d 0cbd eb43 c4bc
00000210: fd29 d2ba 2d5b 273b c50d 313c 16ff 1a3a
00000220: 7ab3 ce3c 248e 603d 43ec 51be 03eb f93b
00000230: 21d2 1a3d 7df2 cabb 327e 50bd 6c41 a23d
00000240: ba20 fbbd 958e f43c ee00 33bc 6abc 463d
00000250: ca92 033d fe87 2dbc 2c9f b3bd cb16 3cbd
00000260: fd04 023e f27f 293c 0f24 18be 8aa3 04bd
00000270: 0ddc 9b3a c554 59bd 873a 70bd 7833 bb3c
00000280: 95ae fb3a 24d1 f03c cabe 1fbc c3bc 8732
00000290: 846f 853d e7f6 423d ebdc c6bc 04a0 02be
000002a0: e742 20bd 4b12 ddbd 45b4 02bd 3807 373d
000002b0: ec83 783b a35e 833a 45a4 cf3d ce3f 403b
000002c0: 3d5d d2bc 94d9 933d 02c8 ca3d e590 a8bd
000002d0: a9ea e73c 2d80 c2bd 9362 03be db09 1dbe
000002e0: 9dcb 23ba 885c 5a3d c56d 95bd 071f 603d
000002f0: e789 893d c968 f23c 588e 013d ce16 c2bd
00000300: 4b8e 823c 36d9 f9bc 552e e53d 5deb 9bbd
00000310: 41e0 8cbd d902 abbc 30c2 7fbd 5bf1 153d
00000320: 75cc 11bd 79cb acbd bf5b 003d f896 c2b5
00000330: 0e97 d7bd 6a08 cabd 783e 5b3c ddcb e33d
00000340: be45 14bd cfdb 17bd 91f9 52bd 1649 d9bc
00000350: 2e8f 0d3b 42eb bbbb 5f34 a7bc 7a38 813b
00000360: c292 cebb ef18 e0bb eac8 26be 0e47 dcbc
00000370: 6e57 0a3d 60c3 cebc 309d b5bc 109a 3c3e
00000380: f967 3bbd 5a53 513d a8a1 82bd 7aa5 643c
00000390: 2504 e13c 269d 08be fc2a a6bd ea82 6dbd
000003a0: 3210 193e 388e 12bc 19c4 05bd 6cc7 67bc
000003b0: 60ab 2ebd 5887 d0bd aba6 a9bc 5112 1bbd
000003c0: 7c66 3bbe f0b4 8dbd ff9a 483d 1560 27b5
000003d0: 9ca7 bfbd 71a3 d4bd d2e9 623c 73b7 c0bd
000003e0: 75e7 e43c 45de 1e3c eb7d 7bbd f38e 29bd
000003f0: e73f 1bba 4d29 d4bb f401 d23d 2e48 9dbb
0.0143714715 0.003010244 -0.06110325 -9.2585715e-06 -0.0023749964 0.022463076 -0.072704405 -0.04127265
-0.005315596 -0.004984098 0.011279036 0.121495925 0.0012754668 -0.0025436815 0.055639803 -0.0005660173
-0.081272505 -0.070049964 0.10344716 -0.004683173 -0.109281905 -0.004290716 0.013434202 -0.033896577
0.020722322 -0.12988876 -0.003076978 -0.08690373 -0.08380185 -0.032080553 0.01836619 0.0040677474
-0.008866048 -0.027374975 0.11447831 0.011847871 -0.003282271 0.17971528 0.031245718 -0.024740955
0.10426765 0.066126905 0.0065795993 -1.6493841e-05 -0.083064474 0.033394717 -0.0008758525 -0.1698336
0.10756363 0.08360093 0.064630724 -0.17619719 -0.000114246504 0.003846936 -0.21692528 -0.0007875979
0.037471954 -0.04223827 -0.060799364 0.082495525 -0.059961706 0.10456149 0.05555238 -0.117439784
0.047364395 -0.05537327 0.09409901 -0.05834795 -0.051576577 -0.07328916 -0.024995577 0.050824143
-0.21132447 0.01211293 0.02436889 0.08200743 0.098698065 -0.07484055 0.06574854 -0.048487805
0.006954593 -0.15513897 0.04607479 7.208661e-05 -0.0062475 -0.086195484 0.058075022 0.02314766
-0.11215018 -0.055027466 -0.11673561 0.107395194 -0.0018147252 -0.006942773 0.1276915 0.00015217286
0.05979991 0.034009926 0.04696496 -0.07318947 0.008797246 -0.0484956 -0.08485465 -0.022518655
-0.031727355 -0.012168209 0.0071170144 0.03999391 0.033062167 -0.056780923 -0.0064445804 -0.14167753
-0.014743059 0.07116382 0.040561 0.0049668914 -0.079736754 0.14655106 -0.028552301 0.0052784663
-0.040112816 -0.027824352 0.016946025 2.611063e-06 -0.048252296 -0.09744692 0.007232108 0.07526689
0.009415167 0.00049445336 -0.034192134 -0.023958167 -0.0016034242 0.0025536523 0.010806506 0.00059126446
0.025232065 0.054823056 -0.20500283 0.0076268925 0.03779805 -0.0061934576 -0.0509016 0.079226345
-0.122621015 0.029853145 -0.010925515 0.04851953 0.03212241 -0.010591505 -0.08770594 -0.045920175
0.12697215 0.010345446 -0.14857505 -0.032382526 0.0011891142 -0.05305936 -0.058649566 0.02285169
0.001920181 0.029396601 -0.0097500775 1.5801907e-08 0.065154105 0.047598746 -0.024275264 -0.12756354
-0.039126303 -0.10794505 -0.0319102 0.04468462 0.0037920428 0.0010022711 0.10138754 0.0029334906
-0.025679225 0.07219234 0.0990143 -0.082307614 0.028310137 -0.09497104 -0.12830572 -0.15335791
-0.0006248297 0.0533109 -0.072963275 0.05471709 0.06715756 0.029590981 0.03162989 -0.09477006
0.015936991 -0.030499082 0.11190478 -0.07613251 -0.068787105 -0.020875381 -0.06244105 0.036607128
-0.035595376 -0.08437247 0.031337496 -1.4498064e-06 -0.10526858 -0.09864886 0.013381593 0.11122868
-0.036199324 -0.03707486 -0.051507536 -0.026524108 0.0021600234 -0.005734832 -0.020410715 0.0039435
-0.006304116 -0.00683891 -0.1628758 -0.02688935 0.033774786 -0.025239646 -0.02216968 0.18418145
-0.045753453 0.05110488 -0.0637849 0.013955468 0.027467797 -0.13341197 -0.08113667 -0.057986178
0.14947584 -0.00894504 -0.032657716 -0.014146667 -0.042643905 -0.10182065 -0.020709356 -0.037859265
-0.18300813 -0.06919277 0.04897594 -6.2352166e-07 -0.09358141 -0.103827365 0.013849692 -0.0940999
0.027942399 0.009696548 -0.06139938 -0.041396093 -0.0005922303 -0.00647465 0.10254279 -0.0047998643

layers.4.bias f4 [10]
00000000: 457e a0bb 2685 28be 9dd2 fa3d 457d adbc
00000010: ba75 903d 4366 09bc 0d53 933d 4fe0 433c
00000020: bcef a63c a40d b3bd
-0.004897865 -0.16457042 0.122472025 -0.021177897 0.070537046 -0.0083861975 0.07193575 0.011955335
0.020377986 -0.08742836
